init/hsi_pipeline_models/hsi_denoising_pipeline.pth (torch, 839217 bytes, 41 tensors)

conv3d_extractor.branch1_conv1.weight f4 [32, 1, 3, 3, 3]
000000 63 0d af 3d 57 05 4b 3e e5 d0 31 3e 60 c3 29 be
       0.08547475 0.19826256 0.17364843 -0.16578436
000010 75 ac 72 3d ee 2c 59 3b 11 d7 d8 3c fa 07 ed 3c
       0.0592465 0.0033138352 0.02646974 0.028934468
000020 29 b4 1c 3e 17 e1 28 be 12 3c 3a be cf b4 b7 bd
       0.153031 -0.16492115 -0.18186978 -0.089700334
000030 1e 26 58 3d 5a 68 ff bb e0 13 21 be 20 ec 23 3e
       0.052770726 -0.007794422 -0.15730238 0.16008043
000040 6c c7 8a bd 56 75 89 bd 30 4e d0 3d 27 88 12 bd
       -0.06776318 -0.06711833 0.10171163 -0.035774376
000050 1f 57 83 3d 9e 3a 80 3d d6 0d ab 3a 6c cb 15 3e
       0.064131014 0.0626118 0.0013050388 0.1462838
000060 c8 61 2c be 5c db 24 3e f0 e5 4c 3d 00 93 16 be
       -0.16834176 0.16099304 0.050023973 -0.14704514
000070 9a 9a 34 3e 0f 63 49 bd b0 df 03 be 5f 00 af bd
       0.17637101 -0.049166735 -0.12878299 -0.08544993
000080 94 b6 ce 3a f1 23 74 3c 1d ea 1f be 1b d5 f0 bd
       0.0015770965 0.014901147 -0.15616651 -0.11759397
000090 24 b2 36 be ce 55 5c 3d df e3 18 bd a8 30 18 3d
       -0.17841393 0.053792767 -0.03732669 0.037155777
0000a0 5f 43 3d 3d 7f 40 86 bd b0 2e 4d 3c c5 77 5f bd
       0.04620683 -0.065552704 0.012523338 -0.05455758
0000b0 1a 7d ad ba 90 f6 0f 3e 88 3b c1 3c 1c 5b 38 3e
       -0.0013236136 0.140589 0.023587957 0.18003505
0000c0 a8 17 40 3c 4f e4 85 bd 38 0f 64 3d 58 1a 52 3c
       0.01172439 -0.06537687 0.055678576 0.012823664
0000d0 8a bd ad bd 6c 1a c9 3d 55 87 a2 bd a7 90 ba 3d
       -0.08483417 0.09819493 -0.07935969 0.091096215
0000e0 ac f2 1a 3d 12 c1 6f bd c9 3d 03 3e ac ed f8 bd
       0.037829086 -0.058533736 0.12816538 -0.12154707
0000f0 9a c4 ed 3d ca e7 fe bd 71 21 02 bd 3d a0 90 bd
       0.116097644 -0.12446554 -0.031770173 -0.07061813
000100 bd 75 2f be 3a 8d 0c be 41 34 b9 bc da e0 41 bd
       -0.17134757 -0.13725749 -0.022607924 -0.047333576
000110 a7 26 05 3d fc b2 21 3d e5 89 09 bc 58 6b 2f 3e
       0.032507565 0.039477333 -0.008394693 0.17130792
000120 65 ed 88 bd 9a be 6d 3d fe 19 8b 3d 08 50 34 3e
       -0.066859044 0.0580431 0.06792067 0.17608654
000130 18 93 24 3e 2b 27 a3 ba 17 dd a1 bd d1 9f 69 bd
       0.16071737 -0.0012447586 -0.07903498 -0.05703718
000140 e1 e8 b1 bd e8 e1 17 be 88 58 29 3e b5 ca 28 3e
       -0.08686996 -0.1483227 0.16537678 0.16483577
000150 f8 1d 62 3d c1 55 e3 bd 4f 6b 16 3e 00 13 13 be
       0.05520436 -0.11100341 0.14689372 -0.14362717
000160 dd 6d 26 be 32 00 30 bd b4 a9 5e bc 41 09 4e 3e
       -0.16252847 -0.042968936 -0.013590265 0.20120718
000170 a9 56 9f 3d 7e 66 89 3b e1 f5 b6 3d ff 90 11 be
       0.07780201 0.004193126 0.089336164 -0.14215468
000180 5b 37 0d 3e 77 7b c1 bd ff 21 0d 3e 94 d4 2b be
       0.13790648 -0.09447377 0.137825 -0.16780311
000190 38 fa 1c bb 99 dd 70 bd 2f 9a 9c 3d 9d 68 0c bd
       -0.0023952853 -0.058805082 0.07646596 -0.034279454
0001a0 ba 5d 42 3e 2e 82 a3 3d a4 d7 01 3e 27 a4 a1 bd
       0.18981066 0.07983814 0.12679917 -0.07892638
0001b0 44 8f ea bc 66 b6 89 bd 38 3d 35 3e a6 1c 1a 3e
       -0.028632767 -0.06724243 0.17699134 0.15049991
0001c0 a0 c7 08 be e2 96 92 3d 2b a1 56 bc 26 6c fb 3d
       -0.13357401 0.07157685 -0.013099949 0.12276487
0001d0 8c 6c 8b 3d 2a 68 c1 3d af f5 2b 3d 77 c8 d8 3d
       0.06807813 0.09443696 0.04198235 0.10585111
0001e0 c1 a2 54 3d 13 87 9b bd e9 32 38 3e 46 5e 07 bd
       0.051913027 -0.07594123 0.1798817 -0.03304889
0001f0 54 57 b1 3d c1 f6 ad bd 00 56 f4 bd be 28 30 bd
       0.08659235 -0.0849433 -0.11930466 -0.043007605
000200 ae b0 10 3e c4 8b 0e 3e 8f 6b df bd 24 24 d3 ba
       0.14129898 0.13920504 -0.10909187 -0.0016108793
000210 33 5f aa 3d 10 ac 9d bd 60 0d 7e bd 04 7e da 3b
       0.08318939 -0.07698834 -0.062024474 0.0066678543
000220 7e 01 e7 bd 21 a9 fc 3d 94 7f 04 3e 3c a2 29 3e
       -0.112795815 0.12336946 0.12939292 0.16565794
000230 b9 4e 8b bd 32 96 26 be f2 43 87 3d 06 ba a7 3d
       -0.068021245 -0.16268232 0.066047564 0.08189778
000240 ae 6b 12 be 61 9a b7 3d c6 14 28 be 64 f6 dc 3d
       -0.14298889 0.08964992 -0.16414174 0.10789183
000250 cc 7c 09 3e 10 a2 41 bd 9e 45 53 3c 4a d5 1e 3c
       0.13426512 -0.047273695 0.012895016 0.009694407
000260 bd de 44 be c1 71 87 bd 2a 52 11 be 53 8a 95 bc
       -0.19225593 -0.06613494 -0.141915 -0.018254435
000270 9a 42 61 3d 7b a8 4e bd 8f 6f e2 bd 70 d5 77 bd
       0.054995157 -0.050453644 -0.11056434 -0.060506284
000280 c4 f9 f8 3a 71 79 eb 3d a1 1a 35 bd 27 2c 41 bc
       0.0018995334 0.114977725 -0.04421485 -0.011790312
000290 29 b1 ff bc c5 71 02 3e c4 8d e6 3d be 97 26 3e
       -0.031212406 0.12738712 0.112575084 0.16268823
0002a0 84 06 b5 3d 78 4e 67 bd 83 ef d9 3d 7e 97 c0 3d
       0.088391334 -0.056471318 0.10641386 0.09403895
0002b0 19 10 ab 3d 9a ec db bc 7b 6d 15 3e 70 85 11 3e
       0.0835268 -0.026846219 0.14592545 0.14211059
0002c0 19 ad 3b bd 28 d9 f9 bc 4b 9d e9 bc a8 02 34 3e
       -0.045819376 -0.030499056 -0.028517386 0.17579138
0002d0 86 d3 33 3e a0 8b b8 bd d9 a3 0a 3e d9 c8 58 3d
       0.17561159 -0.09011006 0.13539065 0.05292592
0002e0 e2 44 3d be 01 06 b7 3c 50 24 1e be 54 9e 45 3e
       -0.18483308 0.02234173 -0.1544354 0.19298679
0002f0 8d 87 1b be 54 f4 f0 bd c5 21 30 be f7 6e be 3d
       -0.15188427 -0.11765352 -0.17200382 0.092985086
000300 99 92 31 3e bb a4 3d be f8 9b 04 3d 4e a8 27 bc
       0.17341079 -0.18519871 0.032375306 -0.010232998
000310 cc b3 11 be 00 81 ab bd 58 8f 3f be 95 30 21 3e
       -0.14228743 -0.08374214 -0.18707025 0.15741189
000320 7c b9 ac bd 56 f4 35 be 5a a1 39 be 0c 7b 70 bd
       -0.08433816 -0.17768988 -0.18127957 -0.058711097
000330 64 89 33 be 6a de ea 3d 1a d1 1b 3d b6 e9 d5 3d
       -0.17532879 0.11468203 0.03804121 0.104449674
000340 98 37 9b 3d 73 66 7b 3d 4e fc 34 3c 0d bc 45 be
       0.07578963 0.061377 0.011046482 -0.19310017
000350 92 0a e9 3d c7 86 f9 bd 09 cf 21 be 97 1c 5d bd
       0.11378969 -0.1218391 -0.15801634 -0.053982344
000360 78 9e 17 3d 08 d1 3b 3e 90 9b d0 3d e2 e3 07 be
       0.037016362 0.18341458 0.10185921 -0.13270524
000370 f5 71 1e 3d 99 f7 1b be 84 b1 36 be 85 79 d5 3d
       0.038682897 -0.1523117 -0.17841154 0.10423569
000380 bd 6e 96 3d d8 4f 90 3d 81 77 d6 3c 4b 1a 59 3c
       0.073453404 0.07046479 0.02618003 0.013250898
000390 56 09 3e be 69 a8 b2 3c 55 10 0a 3e 74 e1 48 3e
       -0.18558249 0.02180882 0.13482793 0.19617254
0003a0 03 b1 bf bd 61 31 39 3e c6 cb 4c 3d ea 98 df 3d
       -0.09359934 0.18085243 0.04999902 0.10917838
0003b0 a5 08 10 3e f7 54 29 be 7b 00 8c 3c 01 59 13 3e
       0.14065798 -0.16536318 0.017090073 0.14389421
0003c0 0a d7 03 be 10 5e b8 3b 39 d9 52 bd 17 c1 a0 3d
       -0.12875 0.0056264475 -0.05147669 0.07849329
0003d0 6b 49 eb bc d5 3b d8 ba f2 b3 b9 bb 72 9e fc bd
       -0.028721532 -0.0016497324 -0.005667203 -0.123349085
0003e0 46 1e 0f bd 18 ad 31 3e 0a 30 5c 3c c0 af bd 3d
       -0.03494098 0.17351186 0.013439188 0.09262037
0003f0 aa 3c 9f bd c0 30 a0 bc 19 9f c7 bb bc 2d e0 3d
       -0.077752426 -0.019554496 -0.006091964 0.10946223

conv3d_extractor.branch1_conv1.bias f4 [32]
000000 a4 d9 f3 bd 0f dc 1d be 0e d5 d2 3c 01 d1 b6 3d
       -0.11906746 -0.15415977 0.025736358 0.08926583
000010 6d a9 e4 3c 17 5a 47 3e ad 85 a5 3c 2b 05 e4 3b
       0.02791282 0.1946796 0.020205343 0.006958624
000020 96 b8 19 3e e3 83 13 ba 56 e7 24 be f1 e9 5d 3d
       0.1501182 -0.00056272576 -0.16103873 0.054178182
000030 f8 a9 2f bb 9d 7a 4d 3c 4c 30 c3 3d 4f ea 55 3c
       -0.002680419 0.01254144 0.09530696 0.013056352
000040 4e 0e 4a 3d 7a 1b b2 3c 5d f8 b6 bd d8 64 37 be
       0.04933005 0.021741617 -0.0893409 -0.17909563
000050 5a bd b0 bd d6 c6 0a 3e 7b d6 6c 3c e3 ca 98 3c
       -0.08629866 0.13552412 0.014455433 0.018651431
000060 91 26 b2 bc 3b 82 fc bc 8e 9f 51 3c 3a 7f 29 3e
       -0.021746906 -0.030823817 0.012794388 0.1655244
000070 a5 c6 c5 bc 8b 89 38 3e 50 3f 73 3c 92 e9 17 3d
       -0.024142573 0.18021218 0.014846638 0.037087984

conv3d_extractor.branch1_bn1.weight f4 [32]
000000 30 a5 80 3f 27 05 80 3f 65 79 80 3f 0e f4 81 3f
       1.0050411 1.0001572 1.0037047 1.0152605
000010 58 b4 80 3f 34 69 7d 3f 75 57 81 3f a3 07 7f 3f
       1.0055037 0.9898865 1.0104815 0.9962103
000020 c5 11 80 3f fa 6c 7f 3f f4 00 80 3f 2d 51 7a 3f
       1.0005423 0.9977566 1.0000291 0.97780114
000030 cb a8 80 3f 5f 25 80 3f 35 d4 7e 3f 42 0d 80 3f
       1.0051512 1.0011405 0.9954255 1.0004046
000040 ff f2 80 3f d5 9d 7d 3f c6 3a 81 3f fc 1c 80 3f
       1.0074157 0.9906896 1.0096061 1.0008845
000050 04 62 7e 3f fe 1f 80 3f d0 cb 7e 3f a9 04 7f 3f
       0.9936831 1.0009763 0.99529743 0.99616486
000060 4c f7 80 3f c9 7a 7e 3f f9 a6 7f 3f ef f6 7e 3f
       1.0075469 0.99406105 0.99864155 0.9959554
000070 b4 d7 7d 3f d0 43 7e 3f e3 86 80 3f 76 64 7e 3f
       0.9915726 0.99322224 1.0041164 0.9937204

conv3d_extractor.branch1_bn1.bias f4 [32]
000000 ef 83 19 3c f4 f4 ef ba 3b eb 35 3b fc 9d 2b 3b
       0.009369834 -0.0018307255 0.0027758616 0.0026186695
000010 d5 a9 70 3b 5f df 09 bc fd 07 46 3c 48 22 a3 bb
       0.0036722322 -0.008415072 0.0120868655 -0.004978452
000020 f3 2a 11 b9 73 29 a1 bb ce 17 bc 3a f7 ed 33 bc
       -0.00013844277 -0.004918271 0.0014350356 -0.010982028
000030 72 5b 21 3b 1f 24 7e 39 9c 86 81 bb 3a 36 f0 bb
       0.0024621156 0.00024236784 -0.0039528143 -0.007330683
000040 f3 c5 c4 3b 10 6a 20 bc 89 e2 b6 3b f5 eb 39 bb
       0.0060050427 -0.009790912 0.0055812043 -0.00283694
000050 13 25 da bb 68 b8 8c bb ff 51 8d bb f7 6e 51 bb
       -0.0066572516 -0.004294444 -0.004312753 -0.003195701
000060 59 4c e1 b8 f2 e8 d2 bb a9 84 ba ba ef 69 99 bb
       -0.00010743057 -0.0064364607 -0.001423021 -0.0046818177
000070 7f 91 e9 bb c9 a9 31 bb b3 a5 0c 3c 01 c1 97 bb
       -0.00712794 -0.0027109256 0.008584428 -0.004631162

conv3d_extractor.branch1_bn1.running_mean f4 [32]
000000 9b 02 29 3c 5e c7 81 be 31 12 19 bb 8f 87 74 3e
       0.010315563 -0.25347418 -0.002335679 0.23879836
000010 e2 20 75 3e 1c 60 f3 3d ee 94 a9 3e 0f 6f b9 be
       0.23938325 0.11883566 0.33121437 -0.36217543
000020 71 50 ab 3e 7e ff f2 bc b3 26 be bd 3f ee 6c 3c
       0.3345981 -0.029662844 -0.09284725 0.014461099
000030 22 ed 76 be b4 4b ca be b1 00 39 3e 5e 85 8b be
       -0.24113896 -0.39510882 0.1806667 -0.2725019
000040 59 ec 35 be 3d 8f af bc d5 a9 c3 3d 94 87 39 bf
       -0.1776594 -0.021430606 0.09553877 -0.724725
000050 c1 2d f0 bd 2a 37 b1 3e 9c 44 44 bd 11 ef de bd
       -0.11727477 0.346124 -0.047916993 -0.10885442
000060 d2 61 28 be 73 1c e1 3d 63 91 36 3e 3d 12 e8 3d
       -0.16443565 0.109917544 0.17828898 0.11331604
000070 c2 f8 00 be d5 0b 01 3e 97 1a c1 bd d7 00 41 3e
       -0.12594894 0.1260217 -0.094289 0.18847977

conv3d_extractor.branch1_bn1.running_var f4 [32]
000000 ca 12 58 3c b6 cd 59 3c b2 b0 6a 3b 45 21 7c 3c
       0.013188073 0.013293674 0.0035810885 0.015388791
000010 cd c2 c6 3c c7 0b 1a 3c 16 7b 1d 3d 02 1c 6a 3d
       0.02426281 0.009402222 0.038447462 0.057155617
000020 d6 22 eb 3c b8 97 c1 3b 6b e4 1e 3c 90 fc d8 3b
       0.028703135 0.005907979 0.009698014 0.0066219047
000030 3c 1c 0b 3d 53 4e 80 3d 3b 8a 4a 3c 28 af 41 3d
       0.033962473 0.06264939 0.012362058 0.047286183
000040 10 51 e1 3c 66 8a af 3b 7d 12 b5 3c 93 d8 d4 3d
       0.027504474 0.0053570746 0.022103542 0.10392871
000050 ad f0 60 3c 84 c6 c1 3c 46 d8 dd 3b f8 43 a2 3c
       0.013729257 0.02365423 0.0067701666 0.0198078
000060 cb ce 7c 3c 90 47 2e 3c 59 45 75 3c 30 9f 02 3c
       0.015430163 0.010637179 0.014970147 0.007972524
000070 55 93 8f 3c 0d ba f6 3b 7e e0 22 3c 8f 85 94 3c
       0.017526308 0.007529503 0.009941218 0.018130092

conv3d_extractor.branch1_conv2.weight f4 [64, 32, 3, 3, 3]
000000 6f d1 0d bb 55 1e 23 bc e2 9a 8e 3a e7 0d 7e 3c
       -0.0021639725 -0.009955962 0.0010879899 0.015506244
000010 40 e8 d4 bc 92 f8 65 bb 57 1e 9e 3c 0a 42 50 3c
       -0.025989652 -0.0035090786 0.019301577 0.012711057
000020 a8 f2 04 3d 14 66 82 3c dd 55 8d bc 21 2f 9d bc
       0.032457978 0.015917815 -0.017252857 -0.019187512
000030 8b 7d ef 3c 6c f8 4f bc e7 94 a6 bc 99 d4 ba 3a
       0.029234668 -0.012693506 -0.020334674 0.0014254033
000040 d0 7a 90 bc b9 4e 94 bc bd 08 01 3c ed 2c c4 3b
       -0.017636687 -0.018103944 0.0078756185 0.005986801
000050 85 01 bb 3c cb 2d 33 3c 6b e0 6c bc 94 85 38 bc
       0.022827873 0.010936211 -0.014457802 -0.011262316
000060 fa 7c ef bb ef 43 fc 3c ee 10 e3 3c e0 73 e3 3c
       -0.0073085995 0.030794112 0.027718034 0.027765214
000070 31 13 ce bc 9b 31 53 bc 07 d7 06 bc f4 5d 8a 3c
       -0.025155636 -0.012890245 -0.008229977 0.016890503
000080 87 2f 02 bd d8 82 7c bc b0 36 27 bd 0b ea 5b 3b
       -0.031783607 -0.015412055 -0.04082364 0.0033556249
000090 31 20 9b bc 81 58 cd 3c 65 eb f7 bb 86 aa 31 3c
       -0.018936248 0.025066616 -0.007565903 0.010843879
0000a0 6c d3 22 3c 49 11 da bb e1 47 06 bd 68 ee 4e 3c
       0.009938102 -0.0066548926 -0.032783393 0.012630083
0000b0 75 f9 82 3a df b7 08 bd e2 4c 97 bc 16 9a 3c bc
       0.0009992557 -0.03337848 -0.018469278 -0.011511346
0000c0 e1 a7 ed bc 92 13 8a bc 59 f3 98 3b f6 9e 9d 3c
       -0.029010715 -0.016855035 0.004667681 0.019240838
0000d0 55 fc 1d bd a0 2a 47 ba 6d c4 82 3b 32 8c 6a 3c
       -0.03857072 -0.0007597599 0.003990701 0.014315652
0000e0 6b e9 27 bc cd aa 25 3c 74 08 e5 3c ae dc 00 36
       -0.010248522 0.010111523 0.027958132 1.9201939e-06
0000f0 0e 73 26 3c 41 f9 0d 3c fe 28 ff 3b 7a 5b e3 bc
       0.010159267 0.008665384 0.007786869 -0.02775358
000100 a3 1f 9c bb c7 c5 e9 3b 29 30 02 bd e8 ed a2 3b
       -0.0047645136 0.0071341726 -0.03178421 0.0049722083
000110 70 90 cf 3a b9 22 fd bb a1 60 06 bd 3e 69 d7 3c
       0.0015835892 -0.0077250865 -0.032806996 0.0262953
000120 84 66 44 3c 37 8f 17 bc cf 1e 86 bc 8b 6c 0c bd
       0.011987332 -0.009250454 -0.016372113 -0.034283202
000130 c3 47 72 3b 82 eb 0a bd a4 3b 85 bc ad dd 05 3d
       0.0036969043 -0.033916004 -0.01626379 0.03268211
000140 76 16 54 3c 27 79 1c bb 6a e5 c9 bc 70 7d 92 bc
       0.012944808 -0.0023875923 -0.024645526 -0.017882079
000150 33 e9 67 bc 53 bd 04 3d 96 0c f6 3c e2 0c 37 bb
       -0.01415472 0.032407116 0.030035298 -0.0027931263
000160 1a da d4 bb 8c a8 f4 3c 54 f5 61 39 22 6b d2 3c
       -0.0064957263 0.029865526 0.00021549064 0.02568585
000170 b6 5f 2c bc c6 ff 60 3c 11 f0 fc ba da 81 4b 3c
       -0.010520866 0.013732856 -0.001929762 0.012421096
000180 1c 15 87 3c 59 79 7d 3c be 76 81 bb 46 77 ac 3b
       0.016489558 0.015470826 -0.0039509227 0.005263242
000190 a2 1a 9e bc 92 0c db ba 6b cf 23 3b ac e4 8b bc
       -0.019299809 -0.001671212 0.0024995457 -0.017076813
0001a0 95 c2 54 bc 4b 6c 1a bc 5f 84 ef bc a7 f7 a5 3b
       -0.012985845 -0.009425233 -0.029237924 0.005064923
0001b0 b2 d0 de bc e5 0f cb bc 5e 03 89 3c 1d 6b 64 3c
       -0.027199123 -0.024787853 0.016725238 0.013941553
0001c0 ba 91 d1 3c 32 62 a6 bc 47 31 f5 3c 9c 99 e3 3c
       0.025582183 -0.020310495 0.029930724 0.027783208
0001d0 f9 f9 18 3d 80 b6 aa 3c 6f 08 4e bc d3 f5 c9 3c
       0.037347768 0.020838976 -0.012575253 0.024653351
0001e0 f3 54 50 3c 32 c0 c9 3c 21 50 b9 bb 00 36 f9 bb
       0.012715566 0.024627779 -0.005655304 -0.0076053143
0001f0 9a 06 b1 39 c1 ef f5 3c 8e ce e6 39 d0 65 3f 3c
       0.0003376499 0.03002155 0.00044022914 0.011681989
000200 72 e7 e4 3c 83 5b 99 bb df 8f 6a bb eb 04 9d 3c
       0.027942393 -0.0046800985 -0.003579132 0.019167384
000210 22 1f 5d 3c bf 6d 3a bc c7 4f be 3c 41 b7 0c bd
       0.013496192 -0.011378705 0.0232314 -0.034354452
000220 6a cb 1f 3c c8 b7 c3 bc c0 f0 c7 3c 38 b7 8e bc
       0.009753088 -0.023891345 0.02440679 -0.01742135
000230 3f da 9b bc 69 b7 0b bc c0 76 93 bc 55 02 c5 3a
       -0.019024966 -0.008527615 -0.01800096 0.0015030602
000240 94 84 c3 bc 6d 83 d8 bb 3f 89 09 bd 44 40 9b 3a
       -0.02386693 -0.006607464 -0.033578154 0.0011844714
000250 b8 8f a6 3c 7c 58 76 3c 81 5a 2d 3a 28 3e 30 bb
       0.020332202 0.015035745 0.00066129124 -0.0026892517
000260 8a 5e 1c bd d6 7f de bc e5 db 04 3d 86 1f 97 3c
       -0.038176097 -0.027160566 0.03243627 0.018447649
000270 95 cd e5 bc fd d8 d4 bb a6 d5 cd bc 12 e1 bf 3c
       -0.02805213 -0.0064955936 -0.02512629 0.023422752
000280 df ad 20 3c f8 81 11 3b 80 68 28 3d 74 65 30 35
       0.009807079 0.0022202712 0.041115284 6.5712743e-07
000290 fa bb 77 bc 26 50 d0 3c 66 12 00 3d ce fd 9b bc
       -0.015120501 0.025428843 0.031267546 -0.019041922
0002a0 63 7d 82 bc a7 52 ac bc c5 7e a5 3c c0 0a 94 bc
       -0.01592893 -0.021035505 0.02020205 -0.018071532
0002b0 61 6e d7 3b 6d aa bd bb 36 8c 57 3c 7d 2f 23 3a
       0.0065744375 -0.0057881386 0.0131559875 0.0006225033
0002c0 1f 84 9e 3c bb 29 b9 bc f2 6d ba bb 0e 59 b9 bc
       0.01935011 -0.022602906 -0.005689376 -0.022625472
0002d0 f9 fa 68 bc 8b 95 1b 3c 4d 96 1f 3c a6 cb 22 3d
       -0.014219993 0.009496103 0.009740424 0.039744996
0002e0 56 63 f8 3c e1 b1 e6 3c 83 0e 94 3b dd 3c d6 3c
       0.030320805 0.028160991 0.0045183315 0.026152069
0002f0 2a e0 7b bc 5a 70 a9 bc 7d 88 0b 3c 99 28 9f bc
       -0.015373269 -0.020683456 0.008516428 -0.019428538
000300 75 4c 36 bc c0 15 ec 3c d5 75 e1 bb 61 72 c2 bc
       -0.011126627 0.028818965 -0.0068805018 -0.02373618
000310 91 f8 e2 3c d1 84 67 bc fa 10 cf 3c ea bd 59 3c
       0.027706416 -0.014130787 0.02527665 0.013289908
000320 03 2a e8 bc 96 4c fe 3b 1a 78 f3 bc 15 7e bc bc
       -0.028340345 0.0077605946 -0.029720355 -0.02300934
000330 80 98 d3 3c 7a 6d 9b bc ec 48 22 bd 75 18 0f bd
       0.025829554 -0.0189731 -0.039620325 -0.034935433
000340 a3 73 84 bc 68 9a f1 3a f1 b0 d2 3c 24 d7 0c bd
       -0.016168421 0.0018432857 0.025719138 -0.03438486
000350 e3 67 ba 3a 38 57 f0 bb 10 e6 e9 ba 21 4c 1d bd
       0.0014221634 -0.007334616 -0.0017845053 -0.03840268
000360 90 a2 f6 bc 93 34 93 ba 7a b3 72 bc ab d3 61 bc
       -0.030106813 -0.0011230878 -0.014813298 -0.013783376
000370 5a 12 f9 3c 2b c2 0e 3d 85 f6 f1 bb 05 bb 26 bc
       0.030404259 0.03485314 -0.0073841237 -0.010176425
000380 5c 20 12 3d 73 ae 7b bc 6f e4 e1 bc 8d 7a be bc
       0.03567539 -0.015361416 -0.027574746 -0.023251796
000390 72 1b fc 3a 47 94 d3 ba 4b ef 00 3d 1d 67 9c 3c
       0.0019234254 -0.0016142213 0.031478208 0.019092137
0003a0 ac 9b e2 bc a1 f0 8c bc 3d 1b 32 39 6b af ae bc
       -0.02766212 -0.017204585 0.0001698555 -0.02132388
0003b0 93 34 eb bc ef 43 c3 bc 4c 4c a4 3c df 11 d5 bb
       -0.028711593 -0.023836104 0.020055912 -0.0065023745
0003c0 26 40 6e 3c bf b1 17 3c d2 43 23 3c f4 03 04 ba
       0.014541661 0.009258687 0.0099649 -0.00050359895
0003d0 1b bd 67 bc 3c 1a b2 3c e0 24 f1 bc 7b e5 a1 bc
       -0.014144207 0.021741025 -0.029436529 -0.019762745
0003e0 f1 25 06 3a e8 35 a5 bb 36 86 3d 3b 66 a9 84 bc
       0.0005117348 -0.0050418265 0.0028919107 -0.016194057
0003f0 99 34 cb bc 15 59 9a 3c a3 78 df 3c cc af d5 bc
       -0.024805354 0.018841306 0.027279204 -0.026084803

conv3d_extractor.branch1_conv2.bias f4 [64]
000000 cd e0 fc bb e0 30 5c bc 1a 09 97 3a 53 85 64 3c
       -0.007717228 -0.013439387 0.0011523098 0.013947803
000010 52 9f e8 3c 55 a8 5a 3b 75 3f a2 bc 9d f0 7c 3c
       0.028396282 0.0033364494 -0.01980565 0.015438226
000020 68 12 e7 3b 8e bd 7f 3c 99 a9 82 39 be ab c2 bb
       0.0070517547 0.015609158 0.00024921892 -0.0059408834
000030 9c ad 47 bc 41 03 ae 3c 10 72 3e 3a 27 7a 23 bd
       -0.012187388 0.021241786 0.00072649214 -0.039911415
000040 e7 bd b2 bc 5b 1c 96 ba 46 04 84 ba cf 72 3d 3c
       -0.021819068 -0.0011452542 -0.0010072074 0.011563017
000050 07 22 f9 ba 76 0e ee bc 38 15 90 bc 64 24 e3 3c
       -0.0019007333 -0.02905963 -0.017588243 0.027727313
000060 d5 ba f3 3c 21 49 ae bb 79 69 c1 3c 45 64 b3 bc
       0.029752174 -0.0053187762 0.023609864 -0.021898398
000070 9c 3a c7 ba 64 19 84 bc 0b 66 d1 3a ed 40 d7 bc
       -0.0015199962 -0.016125388 0.0015975846 -0.026276076
000080 11 5f b5 3b 9e c7 a1 bc 73 b1 a0 3c a8 ed e7 3c
       0.0055350144 -0.019748505 0.019615864 0.028311566
000090 13 d5 91 bc 6b 8d e6 3c 9f 0e 83 bc 7b 3a 7c bc
       -0.017801797 0.028143605 -0.015998183 -0.015394802
0000a0 7d fb f2 3c ed 0d 8d bc 2e 23 07 3c ff bb d4 bc
       0.029660935 -0.017218554 0.008248134 -0.02596855
0000b0 1c c6 9b 3c 41 83 51 bc cd 74 19 3c 72 7a 02 3d
       0.019015364 -0.012787641 0.009366226 0.031855054
0000c0 61 c1 f6 3c ea 6a 1a 3d 6a 9d 8b bc 8f c5 d6 3c
       0.030121507 0.037699617 -0.017042834 0.02621725
0000d0 a7 41 fa bb ba 24 ae 3a 67 28 af b7 8f 6c d4 bc
       -0.007637221 0.0013286092 -2.088044e-05 -0.025930671
0000e0 0a 60 61 bc 67 7f e4 3c 59 73 b9 3c 06 52 2c bb
       -0.013755808 0.027892781 0.02263801 -0.0026294007
0000f0 e1 a4 c6 bc bb f5 09 3c 03 43 20 3d 5f ae 5c bb
       -0.024248542 0.008420403 0.039126407 -0.003367327

conv3d_extractor.branch1_bn2.weight f4 [64]
000000 74 b2 7d 3f fd 31 7a 3f 92 2b 7b 3f 9e 9e 7b 3f
       0.9910042 0.97732526 0.9811336 0.98288906
000010 61 f1 7c 3f 37 eb 7d 3f 8c 31 7c 3f 5d cd 7c 3f
       0.98805815 0.99187034 0.985131 0.9875086
000020 98 8e 7d 3f d6 a4 7b 3f c1 ab 7c 3f 4e 55 7d 3f
       0.99045706 0.98298395 0.98699576 0.9895829
000030 1f 22 7c 3f 9c 5c 7b 3f 7a 72 7d 3f e1 e5 7b 3f
       0.98489565 0.98188186 0.990028 0.9839764
000040 b4 82 7b 3f ec 44 7a 3f a1 75 7f 3f 8e 2d 7d 3f
       0.9824631 0.97761416 0.9978886 0.98897636
000050 02 14 7e 3f 60 dd 7e 3f 8b d9 7a 3f 55 ad 7c 3f
       0.9924928 0.9955654 0.97988194 0.98701984
000060 9e 01 78 3f c1 6e 7e 3f ff 4e 7c 3f b4 2c 7d 3f
       0.9687747 0.9938775 0.9855804 0.98896337
000070 36 9e 7c 3f af fd 7c 3f e4 47 7d 3f 28 1b 7c 3f
       0.9867891 0.9882459 0.9893782 0.9847894
000080 07 0b 7e 3f a0 65 79 3f 65 53 7c 3f a8 62 7b 3f
       0.99235576 0.9742069 0.9856475 0.9819741
000090 94 c7 7e 3f 05 eb 7d 3f 47 90 7d 3f de bd 7d 3f
       0.9952328 0.99186736 0.99048275 0.9911784
0000a0 b0 86 7e 3f 89 ae 7b 3f d0 28 78 3f fa d4 7b 3f
       0.99424267 0.98313195 0.96937275 0.9837185
0000b0 7e 9b 7c 3f 9d 77 7c 3f e9 92 7e 3f 0d c0 7a 3f
       0.9867476 0.98620015 0.9944292 0.97949296
0000c0 6b 5a 7c 3f bf a4 7c 3f a0 3c 7d 3f f0 a3 7f 3f
       0.98575467 0.9868888 0.9892063 0.99859524
0000d0 b5 ca 7d 3f 7e cf 7d 3f 61 0d 7d 3f 6d 92 7d 3f
       0.9913743 0.9914473 0.9884854 0.99051553
0000e0 11 e3 78 3f 14 84 7c 3f 37 1e 7e 3f d6 c3 7b 3f
       0.97221476 0.98639035 0.99264854 0.98345697
0000f0 06 24 7e 3f 1d f5 7c 3f 44 4d 7e 3f 8c ba 7d 3f
       0.9927372 0.98811513 0.9933665 0.9911277

conv3d_extractor.branch1_bn2.bias f4 [64]
000000 d2 69 1a bc be 92 d7 bc b0 64 a0 bc 39 9c 66 bc
       -0.009424644 -0.02631509 -0.019579262 -0.014075332
000010 13 c4 3d bc 25 24 b7 bb 6a 7c 3c bc 87 5e 1b bc
       -0.011582392 -0.0055890256 -0.011504272 -0.009482986
000020 0d 1d 0e bc c8 57 51 bc d6 dd f0 bb 68 ff 20 bc
       -0.008673918 -0.012777276 -0.0073506637 -0.009826519
000030 32 5a 32 bc f6 6f 94 bc 00 59 05 bc 59 54 3f bc
       -0.010885762 -0.018119793 -0.008138895 -0.011677825
000040 76 88 80 bc 8b b0 e6 bc f4 40 61 3b d7 95 28 bc
       -0.01569007 -0.028160354 0.003437099 -0.010289631
000050 c3 a6 95 bb 97 89 5e bb b9 78 97 bc 0b 0c 4a bc
       -0.0045669987 -0.0033956522 -0.018490182 -0.012331973
000060 18 d5 f7 bc 26 20 8e bb 2d 40 42 bc 3e dc 3a bc
       -0.030252978 -0.0043373285 -0.011856121 -0.011405049
000070 92 a3 2d bc d0 22 20 bc 66 00 9e bb 94 a1 52 bc
       -0.01059808 -0.009773925 -0.004821825 -0.012855906
000080 51 52 e9 bb 79 fc cb bc 0f 6c 5d bc 44 52 23 bc
       -0.0071204086 -0.024900662 -0.013514533 -0.009968344
000090 3e 87 61 ba 5f f8 b7 bb e6 c4 0d bc 0b 2a fc bb
       -0.00086032215 -0.005614325 -0.008652901 -0.0076954416
0000a0 ca a4 51 bb d0 2d 67 bc d7 06 f6 bc e8 4d 1e bc
       -0.003198909 -0.014110044 -0.030032558 -0.009662129
0000b0 7d c5 44 bc 0b f1 81 bb ad 45 93 bb 91 f2 88 bc
       -0.0120099755 -0.003965502 -0.00449439 -0.016717227
0000c0 df ad 20 bc be 5f 53 bc fa 69 06 bc 90 d2 f0 3b
       -0.009807079 -0.012901245 -0.008203978 0.0073493198
0000d0 f6 0d e8 bb 87 3d d1 ba 55 df e4 bb 8d b7 f1 bb
       -0.0070817424 -0.0015963771 -0.006984631 -0.0073766173
0000e0 dd 5b de bc 0a 43 37 bc 9b 64 c0 bb 30 31 e2 bb
       -0.027143413 -0.011185417 -0.005871368 -0.0069028363
0000f0 b7 9e 2e bb 00 70 0c bc f5 ce af bb 05 e0 0c bc
       -0.0026644894 -0.008571625 -0.0053652474 -0.008598332

conv3d_extractor.branch1_bn2.running_mean f4 [64]
000000 d0 5a e1 be 0d 6f ec bf 3a 6a a1 bf 92 77 49 bf
       -0.44014597 -1.847139 -1.2610543 -0.78698075
000010 c4 3c db be 1a 38 49 bf 81 54 94 be 08 5f cd be
       -0.42819798 -0.7860123 -0.2897072 -0.40111566
000020 4e 83 b5 be 39 fb af bd 17 61 47 bf cc 7e 6d be
       -0.3545174 -0.08592839 -0.7788252 -0.231929
000030 bb 1a 91 be 69 a5 dd be 91 c5 d6 3c fb ef cb be
       -0.28340706 -0.4329026 0.026217254 -0.39831528
000040 3f a4 03 bf 68 5e b3 be 40 76 05 bf 0b 15 41 bf
       -0.51422495 -0.35032964 -0.5213356 -0.75422734
000050 2d db b7 3d 3d 56 bd be 3a d4 99 bf fe 61 36 bf
       0.08977351 -0.36979857 -1.2017891 -0.71243274
000060 cb e4 ad 3d 60 a3 e4 be 2d b4 d2 be 95 0d 91 be
       0.084909044 -0.44655895 -0.41153088 -0.28330675
000070 16 1d f3 be f0 89 b9 3e d3 b1 31 3f bc be 80 bf
       -0.47483128 0.3623805 0.69411963 -1.0058208
000080 ba 4c 1c bf 10 e7 8c bf 72 1f 90 bf e2 8a b2 3e
       -0.61054575 -1.1008015 -1.1259596 0.34871584
000090 fa 9b 96 be d8 2c b0 3c 4f 7a 96 bd 1d 23 29 bf
       -0.29415876 0.021505758 -0.07347547 -0.66069204
0000a0 02 4a 76 bf 63 7a 14 bf 8b 7e cf be be bd 0c 3d
       -0.96206677 -0.5799925 -0.40526232 0.03436064
0000b0 58 35 2c bf c3 ba 19 bf 17 06 18 bc 31 15 37 be
       -0.67268896 -0.600506 -0.009278796 -0.17879178
0000c0 49 05 0e be 55 13 22 bf a0 78 cf be 3e fe 77 3e
       -0.13869204 -0.6331075 -0.40521717 0.2421808
0000d0 ef dd 44 bf c5 f2 19 be 60 59 37 bf 59 cd 9f be
       -0.76901144 -0.15034015 -0.7162075 -0.31211355
0000e0 cd 2c 04 bf f6 12 c9 be 5b fe f2 bd ef 41 6d bf
       -0.5163086 -0.3927228 -0.11864921 -0.9267873
0000f0 f5 74 53 bf e0 22 d5 be 07 93 72 bf 0b f2 f8 be
       -0.8260034 -0.4162817 -0.94755596 -0.48622164

conv3d_extractor.branch1_bn2.running_var f4 [64]
000000 bc 97 fc 3f 55 9c 0c 3f c4 9a 8e 3f 4a 37 7c 3f
       1.9733806 0.54926044 1.1140981 0.98521864
000010 18 6a 0c 3f af 65 b6 3f 68 ba b7 3e 24 3d 50 3f
       0.54849386 1.4249781 0.35884404 0.81343293
000020 71 6a 3c 3f 8a 65 ae 3f 98 3f 44 3f 32 2d 18 40
       0.73599917 1.3624737 0.76659536 2.3777585
000030 1b fe 73 3f 67 23 06 40 51 9f 2f 3f f4 77 93 3f
       0.9530961 2.0959108 0.6860247 1.1520982
000040 b2 79 b1 3e 7c a8 16 3f 8c 8b e2 3f 9e 0b c0 3f
       0.3466316 0.58850837 1.7698836 1.5003545
000050 6c ca 1e 3f 96 93 a0 3f 34 cf 87 3f e2 db c9 3e
       0.6202762 1.254504 1.0610108 0.3942557
000060 81 5a 12 40 a0 88 3b 40 80 69 8c 3f f7 ef cf 3e
       2.286774 2.930214 1.0969696 0.40612766
000070 ae 50 de 3e f8 2d d6 3e 8c bd d2 3f 16 77 40 3f
       0.4342093 0.41831946 1.6464095 0.7518171
000080 88 9b a7 3f 0d 09 00 3f e1 a0 13 3f b0 f6 2c 3e
       1.3094339 0.5001381 0.57667357 0.16890979
000090 25 1c 82 3f 48 7b a5 3f 33 ab 76 3f 19 e9 aa 3f
       1.0164839 1.2928247 0.9635498 1.3352386
0000a0 5d 06 00 40 6a c3 b1 3f b7 8a e5 3f e0 45 0a 3f
       2.0003884 1.3887761 1.7932957 0.5401287
0000b0 43 0d 94 3f 7a 8b 25 40 f9 04 d6 3f d0 57 b9 3f
       1.1566547 2.586638 1.6720268 1.4479923
0000c0 9b e7 e8 3e 20 ca ad 3e 27 2a da 3f 8f 4c 1a 3f
       0.454892 0.33943272 1.7044114 0.6027307
0000d0 f7 4f 7e 3f 7e 11 29 40 87 23 e2 3f 67 c1 b5 3e
       0.99340767 2.6416926 1.7667092 0.35499117
0000e0 87 01 b6 3f e6 fd a5 3f 3b 0c a2 3f 7a e2 b6 3e
       1.4219216 1.2968109 1.2659982 0.35719663
0000f0 ff 9f 06 40 40 7c 33 3f c9 5e f5 3f e8 b8 ef 3f
       2.1035154 0.70111465 1.9169551 1.8728304

conv3d_extractor.branch2_conv1.weight f4 [32, 1, 3, 3, 3]
000000 ba 38 2d 3e 2e 49 2d 3e 4c 70 34 3c 6c b4 7b 3d
       0.1691617 0.16922447 0.011013102 0.06145136
000010 18 75 92 bd 36 4f c5 bd 86 a8 8d bd a3 51 a6 bd
       -0.0715124 -0.09634249 -0.06916909 -0.0812104
000020 5d fa c7 3d 0d b4 de 3d a7 55 2f 3e 58 ca 8a 3c
       0.0976455 0.10874186 0.17122518 0.016942188
000030 5d 31 34 3e c3 f4 68 3d f0 53 01 3e dc 43 08 3e
       0.17596956 0.056874048 0.12629676 0.13307136
000040 6f 7d 15 3e 43 2a 27 3e 71 ba 30 3e e1 f6 35 bc
       0.1459863 0.16324715 0.17258622 -0.011106224
000050 b9 16 84 bc 9d 1e a2 3c 26 27 0b 3e 3c 21 84 3d
       -0.016124116 0.019789988 0.13589153 0.064516515
000060 91 f6 e3 bd e8 5a dc bd d8 7f 1b 3d f8 5b 35 3e
       -0.11131013 -0.107595265 0.03796372 0.17710865
000070 99 bf 20 bd 64 0f 35 be 1c ab 4b be 70 79 0c 3e
       -0.03924522 -0.17681652 -0.19889492 0.137182
000080 e6 ed d6 3d 51 e8 54 bd b1 49 11 3e c9 73 c6 3c
       0.10494594 -0.051979367 0.14188267 0.024225133
000090 f8 24 2a bd a1 71 0a be 90 b2 dd 3d 34 6b 7c 3d
       -0.041539162 -0.13519908 0.10825074 0.061625674
0000a0 c8 cc 0e be b7 de 09 3d a4 38 ff 3d 1d 4e 29 be
       -0.13945305 0.033659663 0.12461975 -0.16533704
0000b0 dc 31 01 bd a5 d4 f4 3d 96 b0 8c 3d 64 e8 44 3e
       -0.03154169 0.11954621 0.068696186 0.19229275
0000c0 8c ab 34 3e e9 9a 5e 3c e7 67 f3 3d 0d aa 2a bc
       0.17643565 0.013586738 0.11885052 -0.01041652
0000d0 a0 47 d4 3c 78 92 03 be 7c b1 3b 3e 68 ba 93 bd
       0.02591306 -0.12848842 0.18329424 -0.072132885
0000e0 9c 0b 0f be a2 9c 4a 3e 0e b0 75 3d 39 da 2d be
       -0.13969272 0.19786313 0.059982352 -0.16977777
0000f0 c2 1a 89 bd 69 6b 7b 3d 87 a0 f8 3d bf 88 1c be
       -0.06694557 0.06138173 0.12139993 -0.1528654
000100 eb bf 09 3e d1 bc 39 3e b8 e5 18 3c 7d 3f 87 3d
       0.13452117 0.18138434 0.009332113 0.06603906
000110 0f da 75 bd 66 3b 01 3e 2d cc f7 bd a5 7c be 3d
       -0.06002241 0.12620315 -0.1209949 0.09301118
000120 7a 07 12 be 2d 90 21 be 3e fd cd 3d 0d 3b 9b bd
       -0.14260665 -0.15777655 0.10058068 -0.075796224
000130 87 9d bd bd 11 e3 98 3d 70 2d e3 bd e2 6f 33 3e
       -0.092585616 0.074651845 -0.11092651 0.17523149
000140 7f 78 b3 bc 48 93 13 be 91 c9 2d 3e c8 c1 dc bd
       -0.021908043 -0.14411652 0.16971423 -0.10779148
000150 46 45 0b be 88 57 ec 3d 3c 01 aa 3d ea d1 82 bd
       -0.13600644 0.11540133 0.08301017 -0.06387694
000160 fb af c2 bd 4f c9 1f be 19 21 9f 3d ee 5d 44 be
       -0.09506222 -0.15604137 0.07769985 -0.19176456
000170 15 92 ad bd 87 e9 41 be fa d7 3b bd de 7c 05 3e
       -0.084751286 -0.1893674 -0.04586027 0.13035914
000180 70 51 cc 3d a7 d9 63 bc f2 93 ae bc c2 23 ec 3a
       0.099764705 -0.013906873 -0.02131078 0.0018016028
000190 ea a1 c3 bd a5 8e fc 3d 32 5e 97 3d 26 b8 8e bc
       -0.09552367 0.12331895 0.07391013 -0.017421793
0001a0 62 d2 e1 bd 36 83 a9 3d cb f6 27 3e 6d e9 d0 38
       -0.110264555 0.082769796 0.16402738 9.961692e-05
0001b0 f4 53 cc bd 1b 83 16 3c c6 b6 8f 3d b2 51 f8 bd
       -0.0997695 0.009186531 0.07017283 -0.12124957
0001c0 36 ab 69 bd 3e 9b 9e bd 5e f2 e5 bb 1e 7e 26 be
       -0.057048045 -0.07744454 -0.007017418 -0.16259047
0001d0 e1 30 3d be 36 40 8a bd b9 99 42 3e 82 16 cc 3d
       -0.18475677 -0.067505285 0.19003953 0.099652305
0001e0 24 2b a2 bd c6 78 be bd 92 60 0a bd db d3 aa bd
       -0.07918385 -0.093003795 -0.033783503 -0.083411895
0001f0 93 7f 3c be 32 68 97 bd e0 28 16 be dd bd 60 bd
       -0.1840804 -0.073929206 -0.1466403 -0.054868568
000200 ed b5 0f 3e 78 1b 98 3c ed f8 0b bd 2e c0 58 3c
       0.14034243 0.018567786 -0.03417294 0.013229413
000210 f1 ce 2e 3e a1 f7 1b 3e a7 cb 9b 3d 36 14 76 bc
       0.1707113 0.15231182 0.07607203 -0.015019467
000220 a4 e1 01 3e 15 17 3b be cd 23 33 be 5c 75 7a 3d
       0.12683731 -0.18270524 -0.17494126 0.06114708
000230 10 8d 1e 3e a6 8a 4c 3d 4f 3a 62 3d 33 5a 13 3e
       0.15483499 0.049936913 0.05523139 0.14389877
000240 1e 34 89 bd 7c a8 b0 bd f5 b5 c6 bd 4a 7b 85 3c
       -0.06699394 -0.08625886 -0.09702674 0.01629414
000250 a6 b7 17 be 5b 37 43 be 70 ab e4 bd ce be 0f 3d
       -0.1481615 -0.19064085 -0.111655116 0.035094075
000260 00 33 10 3e 28 d1 01 3d 67 4c 3b be 44 99 42 3c
       0.14081955 0.031693608 -0.18290864 0.011877362
000270 0c 00 18 3e 53 7c 94 bd c4 f9 15 be 54 3c 3b 3e
       0.14843768 -0.072502755 -0.1464606 0.18284732
000280 1f ef bf 3d 39 ad 45 be df a7 bb 3d 7d 05 5d 3d
       0.093717806 -0.1930436 0.09162878 0.053960312
000290 76 55 ad 3d 03 35 19 3e 1b da 85 3d b4 42 3b bd
       0.08463566 0.14961629 0.06535741 -0.04571791
0002a0 99 97 94 bd b9 8c 1b 3e 86 b6 3c 3e d6 4c 24 3e
       -0.072554775 0.151904 0.18429002 0.16044936
0002b0 ca d0 ba bd 93 4a 30 be 45 2d d6 3d 9d 63 4b bd
       -0.091218546 -0.17215948 0.10457853 -0.049655546
0002c0 6d 3c 64 bd 6f 7c 3c be 96 8e 26 3e 27 98 d6 3d
       -0.05572169 -0.18406843 0.1626533 0.104782395
0002d0 49 b9 e0 bc 26 2d 06 3e 79 85 ac bd c2 b0 c1 bd
       -0.0274321 0.1310316 -0.084238954 -0.09457542
0002e0 35 04 b7 3d bb a7 5a 3d 0a 1f 94 bd c6 bc 3c 3e
       0.08936349 0.053382616 -0.07232483 0.18431386
0002f0 58 87 ab 3d a2 9f ec bd 4a d9 c5 3d 8f 91 56 3d
       0.08375424 -0.11553885 0.09660585 0.05238491
000300 74 9f 15 be 9b a3 f1 3c 76 8a 28 be e3 59 2b 3d
       -0.14611608 0.029496958 -0.16459069 0.04183377
000310 2a 19 08 3e 76 de 89 3d 84 a3 32 3e e3 b8 23 be
       0.1329085 0.06731884 0.17445189 -0.15988497
000320 5c 45 0e be ed f9 82 bd bf 9e 47 bd fa d7 3e be
       -0.13893646 -0.06395326 -0.048735376 -0.18637076
000330 a7 9e 36 3e 97 23 32 be 1c 2e 08 be 3b 03 be bd
       0.17833959 -0.17396389 -0.1329884 -0.0927796
000340 b0 4d 8f bd 3f 88 c9 bd 0c b1 29 bd 3f 3f f6 bd
       -0.069972396 -0.0984044 -0.04142861 -0.12023782
000350 0f 6e 96 3d d6 a1 9b 3d 60 13 4e 3c db d0 17 bd
       0.07345211 0.07599227 0.012577862 -0.037064414
000360 96 fb a6 3d b6 22 3c bd 73 1d 30 3d 30 c8 32 bc
       0.08153455 -0.04593154 0.042996835 -0.010911986
000370 7b 72 38 3d 00 bb d6 bd c4 f7 00 3e 58 fd dc 3d
       0.045031052 -0.10484886 0.12594515 0.10790509
000380 40 7c ac 3d da 6d 0c bd 7e dd 01 be b2 60 1d be
       0.08422136 -0.03428445 -0.12682149 -0.15368918
000390 4a 7a ad 3d 47 2e a9 3a 9c c5 20 bd cc 2c 3b 3e
       0.084705904 0.0012907468 -0.039250955 0.18278807
0003a0 83 35 2e 3e 5a 29 42 3e a6 72 b1 3c 08 c9 91 3c
       0.170126 0.18961087 0.021661114 0.017796054
0003b0 41 c7 c8 bd a1 11 00 3e 98 d3 76 bc 26 4a a5 bd
       -0.0980363 0.12506725 -0.015065096 -0.08070783
0003c0 bd 3d 28 3e 2a a6 c2 3d e2 ba 6a bc 2e 4c 3a be
       0.16429801 0.095043495 -0.014326783 -0.18193123
0003d0 c4 5d 42 bd c1 19 18 be 81 72 b3 bd a8 9c 37 3e
       -0.047452703 -0.14853574 -0.08762074 0.17930853
0003e0 b8 41 18 be 02 31 4c bb 48 32 32 3e d4 74 37 be
       -0.1486882 -0.003115714 0.17401993 -0.1791566
0003f0 45 8e 2a 3e a0 ab 52 3c 52 24 02 3e 5c f8 8b bd
       0.16655834 0.012858301 0.12709168 -0.0683448

conv3d_extractor.branch2_conv1.bias f4 [32]
000000 aa 96 f1 3d da 1f 84 3d 43 f6 fa bd a0 1e c7 bd
       0.11796315 0.06451388 -0.12254002 -0.09722638
000010 33 2a bc bd d7 be da 3c dd cc 36 3e 8c 51 3c bd
       -0.09187736 0.026702328 0.17851587 -0.045976207
000020 98 a9 a9 3d 99 fc 8b 3d c2 67 01 3e c2 4a b0 bd
       0.082843006 0.068352886 0.12637237 -0.08608009
000030 2c 66 6e 3d 24 9f 0b 3e 89 9d 88 bd 45 89 b8 3c
       0.058202907 0.13634926 -0.066706724 0.022526393
000040 77 61 82 bd 24 60 14 bd 04 75 2a bd 07 30 3a be
       -0.06366246 -0.0362245 -0.0416155 -0.18182383
000050 e9 85 2e 3e 2e 04 0b 3e 4a 45 3f 3e eb 71 33 3e
       0.1704327 0.13575813 0.18678775 0.17523925
000060 47 96 18 3d b2 41 40 be 54 e5 f1 bd 81 47 1d be
       0.03725269 -0.18775061 -0.11811319 -0.15359308
000070 d0 8b 00 bd 95 9b b2 3c 53 be ed 3d 3c 54 44 3d
       -0.031383336 0.021802703 0.11608567 0.047931895

conv3d_extractor.branch2_bn1.weight f4 [32]
000000 bb 5c 80 3f 4b bf 7e 3f 0d 21 80 3f 6b 2c 80 3f
       1.0028299 0.9951064 1.0010086 1.0013555
000010 12 1b 80 3f 1a cf 80 3f ba af 7d 3f b3 12 80 3f
       1.0008261 1.0063202 0.9909626 1.0005707
000020 7f e0 7e 3f 49 24 80 3f 61 f8 7f 3f 35 d8 80 3f
       0.99561304 1.0011073 0.9998837 1.0065981
000030 4d d6 7e 3f 5d 1c 7f 3f 83 0a 81 3f bc 89 80 3f
       0.9954575 0.99652654 1.0081333 1.0042033
000040 ec ea 80 3f cb 13 7f 3f d1 42 80 3f 63 05 7e 3f
       1.0071692 0.99639577 1.0020391 0.9922697
000050 03 49 80 3f 9c b6 7f 3f 7f 01 7f 3f f5 a4 80 3f
       1.0022281 0.99888015 0.9961166 1.0050341
000060 64 3e 80 3f 56 ed 7d 3f 91 b1 80 3f d5 1f 80 3f
       1.001904 0.9919027 1.0054189 1.0009714
000070 70 25 80 3f 97 77 7e 3f 01 23 80 3f 40 0a 80 3f
       1.0011425 0.9940123 1.0010682 1.0003128

conv3d_extractor.branch2_bn1.bias f4 [32]
000000 c9 01 ab 3a 8a ee e5 bb 91 60 04 bb 74 1f a2 38
       0.0013046797 -0.0070169615 -0.002019916 7.7306206e-05
000010 a2 b9 ae 3a 53 fa 86 3b 0c 33 04 bc 2f 48 2f b9
       0.0013330469 0.0041191964 -0.008068811 -0.00016716191
000020 28 2c 27 bb 72 ce e8 3b f8 0a 4a bb 63 bf ae 3b
       -0.0025508497 0.0071046883 -0.0030829292 0.0053328737
000030 96 aa dc bb 79 d8 f3 3a e8 9d 12 3c 32 2e 33 3b
       -0.0067342026 0.0018603943 0.008948781 0.0027340767
000040 d7 91 23 3b d3 c6 22 39 73 cf c2 3a d3 d9 a0 bb
       0.0024958753 0.00015523592 0.001486285 -0.004908779
000050 c4 66 3b 3a 18 60 b3 bb 83 87 82 bb 44 ee eb 3a
       0.0007148797 -0.0054741018 -0.0039834394 0.0018000086
000060 4d 45 93 bb af df b4 bb 82 29 35 3b 79 7a df 39
       -0.0044943453 -0.005519829 0.0027643149 0.00042625124
000070 9d 28 e5 3a 7e 61 3a ba 8f c0 b0 b9 0b 10 86 ba
       0.0017483417 -0.00071098644 -0.00033712803 -0.001022817

conv3d_extractor.branch2_bn1.running_mean f4 [32]
000000 7f 87 19 3f 4a 56 65 3e 6f b7 66 bd 42 46 57 be
       0.59972376 0.22396198 -0.05632728 -0.21022895
000010 44 07 96 be 69 79 e5 bd b0 71 f1 3e 19 39 a7 be
       -0.29302418 -0.11204798 0.4715705 -0.3266075
000020 6d 2c b1 3e 1a 1c 49 be 50 f2 e4 3e b8 36 f1 3d
       0.34604207 -0.19639626 0.4471612 0.11778015
000030 57 32 aa 3d 7c 1e 5d 3e c9 6f 3e 3e 71 be ba be
       0.08310383 0.2159366 0.1859733 -0.3647342
000040 dc 95 04 3e 46 01 1c be 6a e9 6f 3d 32 45 a4 be
       0.12947792 -0.15234861 0.05857221 -0.32084042
000050 54 9e 95 3e fa 3c 82 3e c8 21 1b 3b ee a8 1c 3e
       0.29222357 0.25437146 0.0023671258 0.15298817
000060 7c ff c3 3e 84 05 66 be 07 ea 14 bd f2 61 d7 be
       0.38280857 -0.22463042 -0.036356 -0.42066914
000070 bf 2d fd bd 26 dd e2 bd 33 54 2c 3e f5 11 d8 3e
       -0.12362241 -0.11077337 0.16828994 0.422012

conv3d_extractor.branch2_bn1.running_var f4 [32]
000000 4b 3a af 3d 4e e0 89 3c ef 88 2c 3c 4e c3 37 3c
       0.085560404 0.01683059 0.010530694 0.011215998
000010 bb 11 de 3c 54 11 90 3c 70 cf 18 3d ee 7c 19 3d
       0.027108064 0.017586388 0.037307203 0.037472658
000020 9d 7c 14 3d cf 17 21 3d 2b 97 23 3d 55 a7 da 3c
       0.036251653 0.039329346 0.039939087 0.026691118
000030 12 3e 90 3c 76 46 5f 3c 8d bd 1d 3d 93 ef 61 3d
       0.017607722 0.013627639 0.038510848 0.055160116
000040 4d e4 95 3c d6 79 77 3c 1b f1 10 3c 6c d0 97 3c
       0.018297339 0.015104732 0.0088465465 0.018532
000050 2b 9f 90 3c db 88 53 3c c4 31 94 3c 93 ce 93 3c
       0.017654022 0.012911047 0.018090136 0.018042838
000060 79 9b 58 3d fd 48 2a 3c 09 89 57 3c b4 d3 0b 3d
       0.052882645 0.010393378 0.01315523 0.034137443
000070 4c f4 4c 3c cf 08 a9 3c 09 31 2d 3c a2 ed 65 3d
       0.012509417 0.020634083 0.010570773 0.056134827

conv3d_extractor.branch2_conv2.weight f4 [64, 32, 3, 3, 3]
000000 e1 b8 70 3c 13 d8 93 bc 2e 83 ac bc 91 02 1a bd
       0.014692516 -0.018047368 -0.021058645 -0.037600104
000010 03 ab 04 3c b9 5c 75 bc c7 b8 e9 bc 1a 0d c1 bc
       0.008097413 -0.01497572 -0.028530492 -0.023565818
000020 43 f0 0c bd a2 49 09 bd ce a4 85 bc a4 37 66 bb
       -0.03440882 -0.033517487 -0.016313937 -0.003512838
000030 b1 cc b5 bc 48 bf 20 3c ea 11 91 3c 47 9a 2f bc
       -0.022192331 0.00981123 0.017708737 -0.010717935
000040 fc 4a f8 bb a5 5c 4e bc 25 40 33 bd f4 c4 98 ba
       -0.007577298 -0.01259533 -0.043762345 -0.0011655376
000050 39 fd 1b bd aa 80 c2 3b 85 6b 9b bc e2 4b 54 bc
       -0.03808329 0.005935748 -0.018972168 -0.012957545
000060 35 9b 46 bc fc 11 53 3c b7 af 03 bd 69 d3 a6 3b
       -0.012121965 0.012882706 -0.032149997 0.00509112
000070 04 bc 2d ba e2 e3 7d 3c 06 7b 92 bc a7 65 59 bb
       -0.0006627443 0.015496226 -0.017880928 -0.0033172162
000080 81 ef c0 bc 6d 16 58 bc 59 60 c8 3c 69 07 7b bb
       -0.023551704 -0.0131889405 0.024460005 -0.0038303977
000090 a2 bf 48 bc ad 8c 5c 3c ca 7e a2 bc 63 73 92 bc
       -0.01225272 0.013461274 -0.019835848 -0.017877286
0000a0 ac 38 c8 bc c4 47 69 3b 2f 7e ba bc 87 c0 88 3c
       -0.024441086 0.0035595754 -0.022765247 0.016693367
0000b0 4c 8f dd 3b 10 6b ca bc 26 41 d0 ba 9c b9 f9 bc
       0.006761467 -0.024709255 -0.0015888556 -0.030484013
0000c0 cf 6b 17 bd 5f d4 d3 3c ca c1 b6 3c 0d 61 aa bc
       -0.03696805 0.025858102 0.022309203 -0.02079823
0000d0 55 41 1b bd eb da 8a 3b 21 a7 30 3b 8b ee be bc
       -0.037904102 0.004237523 0.0026955085 -0.023307106
0000e0 d3 52 3f bc 05 25 bd 3c bb 93 49 3c e8 67 f8 bc
       -0.011677462 0.023088941 0.012303288 -0.030322984
0000f0 fd 02 09 bd 90 24 be 3b d0 3b 99 3c 6b 9f c4 3b
       -0.033450115 0.0058026984 0.018705279 0.0060004494
000100 82 9e b2 bc 54 af df ba 63 9b 11 bd 3d b8 ba 3c
       -0.021804098 -0.0017065802 -0.03554858 0.02279293
000110 7e 56 a4 3c 34 ac b6 3c 78 46 8c bc d0 cf 02 bd
       0.020060774 0.02229891 -0.017123446 -0.031936467
000120 dd 62 3b bc 6a c2 c9 3c 73 7a 9f 3c 5d 46 69 bc
       -0.011437145 0.024628837 0.019467568 -0.014237967
000130 29 6d cc bc 0d 05 7b bc 55 fb 83 bc b1 0e ab 3c
       -0.024954395 -0.015321028 -0.016111055 0.020881029
000140 cb 85 13 bd 30 97 70 3a 1a 63 88 3c d9 d4 10 3d
       -0.036016267 0.0009177802 0.016648818 0.035359237
000150 ce 54 ae bc df 91 51 bb 01 c7 9c bc 47 e7 8b bc
       -0.021280672 -0.0031977815 -0.019137861 -0.017078055
000160 6b 17 ab bc 07 e3 c5 3c 37 46 0b bc b3 73 e5 bb
       -0.02088519 0.024156107 -0.008500627 -0.007002318
000170 03 db 19 bc da c7 62 3c f2 19 94 bc e2 d8 16 3d
       -0.009390595 0.013841594 -0.018078778 0.03682793
000180 38 71 6d 3c 18 2a 26 bc 2b 24 e2 bc 7f 01 cc 3c
       0.0144923255 -0.010141872 -0.027605137 0.024903057
000190 56 16 e4 3c b7 c1 17 3c 22 cf 9c 3c 1c 07 43 bc
       0.027842682 0.009262494 0.019141737 -0.0119035505
0001a0 86 47 ca bc a9 2c 45 3c af 9a f2 bc cd da d5 bc
       -0.024692308 0.012034574 -0.029614775 -0.026105309
0001b0 3f 70 c1 3b 06 d5 1d bc 77 fc ef 3c 39 90 02 bd
       0.0059032734 -0.009633308 0.02929519 -0.031875823
0001c0 73 19 d9 3c 7f 78 8c bb 1a cb 7b 3c 3b 0c 14 3d
       0.026501393 -0.004286825 0.015368247 0.036144476
0001d0 85 50 f9 3c b5 10 6c bb 33 2f 15 bb c0 a9 cf 3c
       0.030433903 -0.00360207 -0.0022763729 0.025349498
0001e0 49 18 03 3b c0 6c 8a bb bf 25 33 3c b0 2e a0 bc
       0.0020003489 -0.00422439 0.010934292 -0.019553512
0001f0 82 e5 0f 3d 35 ca 99 bb 10 d2 00 bc 47 bd aa 3c
       0.035130985 -0.0046932944 -0.007862583 0.020842208
000200 e1 73 45 ba fe 6f 33 3b c0 ce 42 3c a5 54 79 3b
       -0.0007532221 0.0027379985 0.011890113 0.0038044837
000210 c3 61 85 3c 65 3c bd bb 40 84 f4 bc 1b 9b cf 3b
       0.016281968 -0.005775022 -0.029848218 0.0063356287
000220 c6 d2 dd bc a9 fd 57 bb b7 fa c2 bc a8 31 0f 3c
       -0.027078044 -0.003295759 -0.02380119 0.008739866
000230 72 5d ba bc a3 6f d8 3c 01 b6 51 bc 26 42 ef 3c
       -0.022749636 0.02642042 -0.012799741 0.029206347
000240 6a ad d1 bc d8 d6 d7 3c b0 f9 02 3d 37 26 41 3c
       -0.025595386 0.026347563 0.0319764 0.011788896
000250 91 0a 38 3b 94 33 d1 3c ba a8 00 bd 2e f2 f8 3c
       0.002808247 0.02553729 -0.03141091 0.030388918
000260 60 fa 99 3c 72 69 f3 3b 06 ca cb 3c 10 81 dc 3c
       0.018796146 0.0074283415 0.024876606 0.02691701
000270 4d 80 aa ba 41 f0 91 3c 96 2d bd 3c d5 6c d1 3c
       -0.0013008207 0.017814757 0.023093026 0.02556459
000280 da 97 0d 3d c9 41 ba 3c 80 c9 05 bd 4f 4e 02 bd
       0.034568645 0.022736447 -0.03266287 -0.031812962
000290 21 8f 08 bd 9f d3 03 bd 5d 9e 95 3b 3a ec 89 bb
       -0.033339623 -0.03218424 0.0045659975 -0.0042090686
0002a0 c6 6d aa ba 2f db 0e bd f4 70 ee 3b d5 5e ba 3b
       -0.0013002686 -0.034877 0.0072766487 0.0056875744
0002b0 af ff 9d 3c 0c 6e a1 3c f5 dc 4c bc e6 4c 13 bd
       0.019286959 0.019705795 -0.012503852 -0.035962008
0002c0 fd 04 91 3c 49 02 1f bd d3 38 1e bd 54 87 81 3c
       0.017702574 -0.03882054 -0.03862841 0.0158116
0002d0 84 32 e0 3a 5d 6e df 3b 6b 2d 12 bd 2e ad 15 3c
       0.0017104899 0.0068185763 -0.035687845 0.009135528
0002e0 1c ed 9f 3c e0 a7 3f 3c 8b 6f 8a 3c f2 7c a8 b9
       0.019522242 0.011697739 0.016898891 -0.00032136549
0002f0 3f 21 d5 3c c5 28 f3 3c d6 dd 0d 3d 37 6d cd bc
       0.02601683 0.029682526 0.034635387 -0.025076492
000300 5a 5b ad bb ab e8 f0 3c d2 73 ae 3c 2b ee a9 bc
       -0.005290431 0.02940782 0.021295462 -0.02074345
000310 5f 89 9b bb 90 4c e2 3b 29 1b 41 3b 5a cc ae bb
       -0.0047466005 0.0069060996 0.0029465652 -0.005334419
000320 75 51 65 bc a6 bc 66 3c 39 9c 05 3d 14 5c 12 3b
       -0.013996472 0.014083063 0.03261969 0.0022332715
000330 f0 c5 0c 3d 7f 2c b3 bc ca fc 0f 3d 85 b5 a6 3c
       0.034368455 -0.021871803 0.035153188 0.020350227
000340 33 69 bb 3c 0f a3 39 3c dc 03 9e bc e0 a9 96 bb
       0.022877311 0.01133038 -0.01928895 -0.0045978874
000350 3f 83 b9 bc 6b 49 d3 3c 6e f1 9c bc 33 c1 f6 bc
       -0.02264559 0.025791844 -0.019158091 -0.030121421
000360 70 37 25 bd 50 06 f1 3c 25 ec 0d bd 14 b7 30 bc
       -0.040336072 0.029421955 -0.034649033 -0.010785837
000370 8a 50 30 bc 64 aa 23 bd 41 56 76 3c 9d 2a 0c bd
       -0.0107613895 -0.03995742 0.015035213 -0.034220327
000380 08 70 85 bb a2 d7 fe bc 59 ce 28 3c 97 79 09 bd
       -0.004072193 -0.031108681 0.010303103 -0.033563223
000390 95 b1 eb bc c6 c2 eb 3c f5 86 06 bd f8 9f 4d bc
       -0.028771201 0.028779399 -0.03284355 -0.012550347
0003a0 5d 2d 2f ba 23 6b db 3b 7e 7a eb bb 18 df 11 3c
       -0.000668248 0.0066961213 -0.007186233 0.008903287
0003b0 c7 0f be bc 6c 52 20 3c d5 34 e8 bc 7d 7c d2 bb
       -0.023200883 0.009785276 -0.028345505 -0.0064235316
0003c0 63 9a e8 bb 5e 19 38 bc 35 c6 08 bd a6 16 13 3c
       -0.0070984825 -0.011236517 -0.03339215 0.008977568
0003d0 01 95 b6 3c 88 e8 a6 bc a2 2b 0d 3c 89 18 4b bc
       0.022287847 -0.020374551 0.00861636 -0.012395986
0003e0 e9 94 2d 3b 82 b5 bc 3c 08 ba 89 ba d3 19 7e 3c
       0.0026486462 0.023035768 -0.0010507712 0.015509087
0003f0 18 2d 93 bb 8e f7 c2 3c e4 10 4f 3c 42 99 0c bc
       -0.0044914596 0.023799684 0.012638304 -0.008581461

conv3d_extractor.branch2_conv2.bias f4 [64]
000000 02 24 e2 3c e1 79 12 3c b6 5a fc 3c 89 41 80 3c
       0.02760506 0.008940191 0.030804973 0.01565625
000010 40 b1 a1 3c a5 9b 24 bb 60 2b e4 bb 23 c3 f5 3c
       0.01973784 -0.0025117185 -0.0069631785 0.030000275
000020 16 7d b8 3c 72 3b 26 ba 9b b8 12 3d 3a 9b b1 bc
       0.022520583 -0.00063412555 0.035820585 -0.021680463
000030 a7 64 aa 3c 71 4c 86 3c ad d5 b4 3c c0 0a f9 ba
       0.020799948 0.016393872 0.022074545 -0.0019000396
000040 1c f9 49 bb 4e 55 88 bc 75 15 0e bd dc 1d 07 bd
       -0.0030818647 -0.016642239 -0.03468843 -0.03298746
000050 d4 d2 19 3c 54 35 04 3a 9f 90 7b bc 02 76 d1 3c
       0.009388644 0.0005043347 -0.015354305 0.025568966
000060 1e 6f ae 3c 14 13 cb 3c 90 ee fc bc a6 38 1c 3d
       0.02129322 0.02478937 -0.030875474 0.03813996
000070 91 84 80 bc 6b 6b 2a bc 36 a6 aa bc 52 e0 eb 3b
       -0.015688213 -0.010401587 -0.020831209 0.007198372
000080 7e 62 ca 3c 17 b7 8a b9 65 e2 fa bc 0d 63 13 3d
       0.024705168 -0.00026457824 -0.030625531 0.035983134
000090 97 c7 33 3c a3 25 1c bd d6 0c 51 bc 39 1d 86 3c
       0.010972879 -0.03812183 -0.012759408 0.016371356
0000a0 de 52 d2 3a 35 e2 9b 3c f6 61 37 3c 30 80 ed 3c
       0.0016046425 0.019028762 0.011192789 0.028991789
0000b0 e7 64 a7 bc 79 0a 5c 3c 99 6e db 3c 15 5a 36 bc
       -0.020433856 0.013430231 0.026786136 -0.011129876
0000c0 91 fd 51 3c 6d 30 a2 3c fa 9e 71 3c f1 d9 79 3c
       0.012816803 0.019798482 0.014747376 0.015249715
0000d0 a9 c6 01 bd e4 f1 d3 bc 97 63 e3 ba 04 4d c4 3c
       -0.031683598 -0.025872178 -0.0017348406 0.023962505
0000e0 2b a2 ce 3c cc a3 af 3c 8d 5d 13 3d 6b 42 ef bc
       0.025223812 0.02144041 0.03597789 -0.029206475
0000f0 e9 e0 1d 3d 70 7b 0f bd ee 14 52 bc 6e 93 99 3c
       0.03854457 -0.03502983 -0.012822373 0.018747058

conv3d_extractor.branch2_bn2.weight f4 [64]
000000 41 1c 7e 3f 24 15 7a 3f 92 e9 7a 3f 7d 86 7b 3f
       0.9926186 0.9768851 0.9801265 0.9825209
000010 7d c2 7c 3f 90 22 7e 3f 47 b9 7c 3f 3d 31 7c 3f
       0.98734266 0.9927149 0.9872021 0.9851263
000020 cd 3a 7e 3f 78 b5 7c 3f cb 8a 7f 3f fb d3 7d 3f
       0.9930847 0.987144 0.99821156 0.9915158
000030 82 14 7d 3f 18 d6 79 3f 43 21 7d 3f 74 67 7c 3f
       0.9885942 0.97592306 0.9887888 0.98595357
000040 e1 b6 7b 3f 0c 91 79 3f fb 39 7d 3f 2b c5 7c 3f
       0.98325926 0.9748695 0.98916596 0.98738354
000050 2f d2 7e 3f 0f 61 7d 3f 99 50 7c 3f 59 b6 7c 3f
       0.99539465 0.98976225 0.9856048 0.9871574
000060 ae dd 79 3f 33 f6 7d 3f d7 79 7d 3f c1 7f 7d 3f
       0.9760388 0.99203795 0.9901404 0.9902306
000070 79 c3 7d 3f 34 12 7d 3f 8a c3 7d 3f 55 f2 7b 3f
       0.9912639 0.988559 0.99126494 0.98416644
000080 49 4b 7d 3f 96 ba 7d 3f 93 8a 7c 3f 97 e3 7d 3f
       0.98943 0.9911283 0.9864895 0.991754
000090 3e dd 7f 3f d3 26 7c 3f df 5f 7a 3f 38 bc 7c 3f
       0.99946964 0.9849674 0.9780254 0.987247
0000a0 b2 5d 7e 3f 27 fd 7c 3f 1f 4e 79 3f 90 b3 7d 3f
       0.9936172 0.9882378 0.9738483 0.99102116
0000b0 c6 de 7b 3f 37 f3 7c 3f 2a bc 7d 3f a7 f1 7c 3f
       0.983868 0.98808616 0.9911524 0.9880623
0000c0 11 e8 7d 3f 04 e4 7d 3f cd 5c 7d 3f 16 8a 80 3f
       0.9918223 0.9917605 0.9896973 1.004214
0000d0 86 d7 7d 3f c4 85 7e 3f 5b 1d 7e 3f 9b 6a 7d 3f
       0.9915699 0.9942286 0.9926354 0.9899079
0000e0 c9 98 79 3f de ca 7d 3f 1e a0 7d 3f 0d 05 7e 3f
       0.97498757 0.99137676 0.99072444 0.99226457
0000f0 6a f4 7c 3f 75 8f 7e 3f 4f c4 7c 3f fb 64 7c 3f
       0.98810446 0.9943765 0.98737043 0.98591584
