init/hsi_pipeline_models/hsi_denoising_pipeline.pth (torch, 839217 bytes, 41 tensors)

conv3d_extractor.branch1_conv1.weight f4 [32, 1, 3, 3, 3]
0	0xbdf6648d	-0.12030897
1	0xbd472e26	-0.048627995
2	0xbe021fc4	-0.1270743
3	0xbdacef54	-0.08444086
4	0xbd041d69	-0.03225461
5	0xbdc7f34b	-0.09763201
6	0x3dc9b119	0.09848232
7	0xbd61a66c	-0.055090353
8	0x3e320711	0.17385508
9	0xbd9760c8	-0.073915064
10	0xbe32e334	-0.17469484
11	0xbca8e2be	-0.020615932
12	0x3ae17a6b	0.0017202621
13	0x3d43c19e	0.04779207
14	0x3e2449c0	0.16043758
15	0x3e09f40d	0.13472004
16	0x3dbb433f	0.091436855
17	0x3e0c34e7	0.13692056
18	0xbddafe15	-0.106929936
19	0xbbb535e6	-0.005530107
20	0x3de5d3bf	0.11222028
21	0x3d16bb57	0.036799755
22	0xbdd06177	-0.1017484
23	0x3dd68081	0.10473729
24	0x3e0cb5c3	0.13741212
25	0x3cb36d52	0.021902714
26	0xbd98b226	-0.07455854
27	0x3d39c8a1	0.04535735
28	0x3e2e7145	0.17035396
29	0x3e4bd30f	0.19904731
30	0x3e12f870	0.14352584
31	0xbc79c8c2	-0.015245618
32	0xbe1fef4e	-0.15618631
33	0xbdb60f81	-0.08889676
34	0x3d9a20d6	0.07525794
35	0xbd893b8e	-0.06700812
36	0x3d316986	0.043313526
37	0x3d5a0225	0.0532247
38	0x3dd7eebb	0.10543581
39	0x3df57e84	0.119870216
40	0xbe162e7c	-0.1466617
41	0xbd800e19	-0.06252689
42	0x3d647311	0.0557738
43	0x3ca0b54a	0.019617695
44	0x3e018019	0.12646522
45	0xbcf5983a	-0.029979814
46	0xbe1832c6	-0.14863119
47	0xbdc74efc	-0.09731862
48	0x3c72c794	0.014818091
49	0x3da1907a	0.07888885
50	0xbd88a041	-0.06671191
51	0xbdf715c2	-0.12064697
52	0x3da92080	0.08258152
53	0x3e215335	0.15754397
54	0xbe1b156c	-0.1514489
55	0xbdba5f19	-0.0910017
56	0xbe43d6e4	-0.19124943
57	0x3d5dfd14	0.054196432
58	0xbd4189d2	-0.047250576
59	0xbdd1f123	-0.10251071
60	0x3e1d52b1	0.15363576
61	0xbe1186e7	-0.14211617
62	0xbd163c39	-0.036678527
63	0xbd805fc0	-0.06268263
64	0xbdaf91d0	-0.085727334
65	0xbe058664	-0.13039547
66	0x3d85c84e	0.06532346
67	0xbdd46366	-0.10370521
68	0xbd391ac8	-0.045191556
69	0xbde7262b	-0.11286577
70	0x3ccc0386	0.024904024
71	0xbd52b3c6	-0.051440977
72	0x3d9e981a	0.07743855
73	0xbe208d21	-0.15678836
74	0xbcb96d68	-0.022635177
75	0xbe021623	-0.12703757
76	0xbe1e1117	-0.15436207
77	0x3d8570da	0.06515665
78	0x3dbddcae	0.09270607
79	0x3dc1e32b	0.09467157
80	0xbdb84a25	-0.08998517
81	0x3d5652f3	0.0523252
82	0xbd88c62b	-0.066784225
83	0xbdc0ef3e	-0.09420632
84	0x3ca1e9da	0.01976483
85	0x3d7515db	0.059835296
86	0xbdbf735b	-0.09348174
87	0xbe0d59b2	-0.13803747
88	0xbdf3755d	-0.1188762
89	0xbd6c8d6b	-0.057752054
90	0xbd3dd48a	-0.04634527
91	0xbd1126cd	-0.035437394
92	0xbdc9f878	-0.09861845
93	0xbda02038	-0.07818645
94	0xbe06031c	-0.13087124
95	0x3e0059f0	0.12534308
96	0xbdfba304	-0.12286952
97	0x3e078fb8	0.13238418
98	0x3c1a7e2f	0.009429499
99	0x3cc9b0ef	0.024620501
100	0xbe1b23a3	-0.15150313
101	0x3d873547	0.06601959
102	0xbe311cfc	-0.17296213
103	0xbd04e158	-0.032441467
104	0xbe428d02	-0.18999103
105	0xbe26bf75	-0.16283973
106	0x3cc721c2	0.02430809
107	0xbe48ae9e	-0.19597861
108	0xbd06105f	-0.032730456
109	0xbd2cb9c1	-0.042169336
110	0x3e25d56b	0.16194694
111	0x3e199807	0.149994
112	0xbda25cb5	-0.07927839
113	0x3d87574e	0.06608449
114	0x3dfee800	0.12446594
115	0x3e1ec21e	0.15503737
116	0x3db86e9f	0.09005474
117	0x3da3493e	0.07972954
118	0xbe0d2b89	-0.13786139
119	0x3d3339cd	0.043756295
120	0xbddd4dec	-0.10805878
121	0xbc8413a7	-0.016122652
122	0xbd56156e	-0.05226653
123	0x3e371d43	0.17882256
124	0x3d81eb84	0.06343749
125	0x3e33788b	0.17526452
126	0x3db524c5	0.08844904
127	0xbdcfbbe2	-0.10143258
128	0x3e34e47c	0.17665285
129	0x3e36a109	0.17834868
130	0x3e2e8cf6	0.1704596
131	0xbcea8086	-0.028625738
132	0xbdb824f2	-0.08991422
133	0xbd38e1ba	-0.045137145
134	0xbd562af2	-0.05228705
135	0xbd10e2f3	-0.035372686
136	0xbe2823fc	-0.16419977
137	0xbe1f8b95	-0.1558059
138	0x3d868ea1	0.06570173
139	0xbd5202b4	-0.05127211
140	0xbd88d873	-0.066819094
141	0xbe13c8e4	-0.14432102
142	0xbd178932	-0.036996074
143	0xbd821d29	-0.06353218
144	0x3c7c246a	0.015389541
145	0xbbd4154a	-0.0064722644
146	0xbe0258a5	-0.12729128
147	0xbdb7d84b	-0.089768015
148	0xbe425dbe	-0.18981072
149	0xbe55cef5	-0.20879729
150	0x3e088cc1	0.13334943
151	0x3d9a18b9	0.07524247
152	0xbe27c1e8	-0.16382563
153	0x3d811fb7	0.06304877
154	0xbdf3e4ae	-0.119088516
155	0xbdd2363c	-0.10264251
156	0x3cc86675	0.024462918
157	0x3d68b5fe	0.056814186
158	0xbc731c53	-0.014838296
159	0x3e12061e	0.14260146
160	0x3cac42dc	0.021027975
161	0xbdc1bcb1	-0.09459818
162	0x3de5cb8b	0.11220463
163	0xbe21c905	-0.15799339
164	0xbd27f786	-0.04100754
165	0xbdcbd1a7	-0.099520974
166	0x3e1b2f1a	0.15154687
167	0xbd01f1be	-0.031724684
168	0x3df6f0c6	0.12057643
169	0x3dca330c	0.09873018
170	0x3dd3387f	0.1031351
171	0xbd79bdc3	-0.060971987
172	0xbdeec703	-0.11659052
173	0x3df9c8f2	0.121965304
174	0xbd34f9cc	-0.044183537
175	0x3c74808b	0.014923225
176	0xbe0ac266	-0.1355072
177	0x3dd5ae13	0.10433593
178	0x3c9b7681	0.018977406
179	0x3e4d03b5	0.20020945
180	0x3d981ad4	0.07426992
181	0x3e207fa4	0.15673691
182	0x3d75f473	0.060047578
183	0xbd10deba	-0.03536866
184	0x3e22ed88	0.15910923
185	0x3e02c70b	0.12771241
186	0xbdb4c16f	-0.08825957
187	0x3e11f116	0.14252123
188	0x3e10286b	0.14077918
189	0xbd56c635	-0.05243512
190	0xbdbf356c	-0.09336361
191	0x3d8e7219	0.06955356
192	0xbe2c63bf	-0.16834925
193	0xbd3caaa1	-0.046061162
194	0xbdf60b1c	-0.12013838
195	0x3d587b46	0.052851938
196	0x3e06c6a0	0.13161707
197	0x3e35d262	0.17756036
198	0xbe23ff53	-0.16015367
199	0x3ddb2a14	0.10701385
200	0xbca83225	-0.020531723
201	0xbdb88082	-0.09008886
202	0xb7d3e21d	-2.5258452e-05
203	0xbe1e8a8d	-0.1548254
204	0xbd239bfb	-0.039943676
205	0xbd25354d	-0.040334035
206	0xbd9f91a8	-0.077914536
207	0x3dad1069	0.084503956
208	0xbe400dd4	-0.18755275
209	0x3d5940c0	0.053040266
210	0xbd2ff01c	-0.042953596
211	0xbe2bfb4e	-0.16795084
212	0xbdd3d5cb	-0.10343512
213	0xbdf23c39	-0.11827893
214	0x3d1ad80a	0.037803687
215	0xbe49e0a8	-0.19714606
216	0xbdf57502	-0.11985208
217	0xbe1bedef	-0.15227483
218	0x3d51d181	0.05122519
219	0x3e2bddd6	0.16783842
220	0x3e515db2	0.20445898
221	0x3e1e4375	0.1545542
222	0x3b445859	0.0029959886
223	0x39d01053	0.00039685014
224	0x3e42a9d4	0.19010097
225	0x3e119b41	0.14219381
226	0x3c2a787b	0.010404701
227	0x3c43fc42	0.011961998
228	0xbc8f0a02	-0.017460827
229	0x3e016726	0.12637004
230	0x3d8702ee	0.06592356
231	0x3ce110c9	0.027473824
232	0xbd9cfc96	-0.076653644
233	0x3da61cc5	0.08110956
234	0xbe13abae	-0.1442096
235	0xbc9b1472	-0.018930648
236	0x3d9a457c	0.07532784
237	0xbd01cd6a	-0.03169004
238	0x3cd521c7	0.026017083
239	0x3e4dd979	0.2010249
240	0x3d1c7c7e	0.038204663
241	0xbe32b38a	-0.17451301
242	0x3d1f6a5c	0.03891979
243	0x3d8ef53d	0.06980369
244	0x3e5267e6	0.20547447
245	0x3e303970	0.1720941
246	0xbe0a2a1e	-0.13492629
247	0x3d4db1d3	0.050218415
248	0x3dbd6c17	0.09249132
249	0xbb6ed235	-0.003644121
250	0x3dc11fa6	0.094298646
251	0x3bca38dc	0.006171329
252	0x3d09b047	0.033615377
253	0xbd4e6da8	-0.050397545
254	0x3e242462	0.16029504
255	0x3e4d7519	0.200642

conv3d_extractor.branch1_conv1.bias f4 [32]
0	0x3d77f81f	0.06053936
1	0xbe438ec2	-0.19097427
2	0x3ce338fc	0.027737133
3	0xbde6a005	-0.1126099
4	0x3d854fdf	0.06509375
5	0x3e3cf860	0.18454123
6	0xbe0f8c45	-0.14018352
7	0xbdd2a49d	-0.10285304
8	0x3d9dc1bc	0.077029675
9	0x3d04c86c	0.0324177
10	0xbdb6bc22	-0.08922602
11	0xbc2a38a2	-0.010389479
12	0x3d46a649	0.048498426
13	0x3dbf587b	0.09343048
14	0xbd5357f7	-0.05159756
15	0xbde10bfd	-0.10988615
16	0xbcf778c5	-0.030208955
17	0xbccea181	-0.025223495
18	0xbe04d3e8	-0.12971461
19	0xbddb862f	-0.10718953
20	0x3d246c3f	0.040142294
21	0xbdbfa1cf	-0.093570344
22	0xbcd6fd98	-0.02624397
23	0x3cdbf8b3	0.026851987
24	0x3d8ccb96	0.068747684
25	0xbdddaa6f	-0.10823523
26	0x3d95602c	0.07293734
27	0xbd90d16f	-0.07071196
28	0x3b946b25	0.004529374
29	0xbd3531f1	-0.04423708
30	0x3d6672d5	0.056261856
31	0xbcf363b3	-0.029710626

conv3d_extractor.branch1_bn1.weight f4 [32]
0	0x3f7f819a	0.9980713
1	0x3f811502	1.0084536
2	0x3f832798	1.0246458
3	0x3f803314	1.0015588
4	0x3f865921	1.049595
5	0x3f8062df	1.0030173
6	0x3f81bad6	1.0135143
7	0x3f7f8691	0.9981471
8	0x3f839603	1.0280155
9	0x3f856b74	1.0423417
10	0x3f7e4db3	0.9933731
11	0x3f7afefe	0.9804534
12	0x3f76d1f2	0.964141
13	0x3f7a52f5	0.9778283
14	0x3f827596	1.0192134
15	0x3f86d11c	1.0532565
16	0x3f79ff3c	0.9765508
17	0x3f7962ce	0.9741639
18	0x3f7e1e86	0.99265325
19	0x3f769280	0.9631729
20	0x3f7f2a79	0.99674183
21	0x3f7d6cb5	0.98994
22	0x3f7d617f	0.9897689
23	0x3f7d3869	0.989142
24	0x3f8004b5	1.0001436
25	0x3f81265e	1.0089834
26	0x3f7ca99c	0.98696303
27	0x3f7ea9c5	0.994778
28	0x3f7f3a8d	0.99698716
29	0x3f826e40	1.0189896
30	0x3f7c850c	0.98640513
31	0x3f801a28	1.0007982

conv3d_extractor.branch1_bn1.bias f4 [32]
0	0xbc2dba21	-0.010603459
1	0x3bd5d50b	0.006525641
2	0x3cb4b788	0.02206017
3	0xbc0fc7e7	-0.008775688
4	0x3c45eff1	0.012081132
5	0xbc241313	-0.010014313
6	0x3c141882	0.009039046
7	0xbb8fda9a	-0.004390073
8	0x3c83677d	0.016040558
9	0x3c7d7247	0.01546914
10	0x3a751497	0.00093490764
11	0xbc854ba4	-0.01627142
12	0xbd25ad37	-0.040448394
13	0xbb93cec2	-0.0045107314
14	0x3c220d1c	0.009890821
15	0x3caed8bb	0.02134358
16	0x3aa09ea4	0.001225431
17	0xbb78f8d6	-0.0037990115
18	0xbbf2f679	-0.0074146357
19	0xbc96cea8	-0.018409088
20	0x3ca9fb6a	0.020749766
21	0xbc4b1af1	-0.01239656
22	0xbb78c361	-0.0037958252
23	0xbc2aa161	-0.010414452
24	0x3b5aa0a7	0.0033359916
25	0x3be897f0	0.0070981905
26	0xbb9eb963	-0.004843877
27	0xbbce59df	-0.0062973346
28	0xbb81babf	-0.0039590294
29	0x3c566faa	0.013088146
30	0xbc4e5983	-0.012594583
31	0xbbe373a9	-0.006941278

conv3d_extractor.branch1_bn1.running_mean f4 [32]
0	0x3dce705f	0.10080027
1	0xbd1b184f	-0.03786498
2	0xbec25256	-0.37953442
3	0xbf14107d	-0.5783766
4	0x3ed3c4ba	0.41361028
5	0xbe56a603	-0.20961766
6	0x3e53bbfa	0.20677176
7	0xbef3fcd9	-0.47653845
8	0x3eb7e652	0.35917908
9	0x3f0163e4	0.50543046
10	0xbe7c7cff	-0.24657057
11	0x3d00f442	0.031482942
12	0x3d7d887a	0.061897732
13	0x3d43f203	0.047838222
14	0x3eaae097	0.33374473
15	0xbf05bead	-0.52244073
16	0xbdffbf0d	-0.12487612
17	0xbdec8286	-0.11548333
18	0x3b95b839	0.00456908
19	0xbd90250e	-0.070383176
20	0xbe371bae	-0.17881653
21	0x3ccc6cab	0.02495416
22	0xbe42cfd5	-0.19024594
23	0xbd861b5f	-0.06548189
24	0x3e668a17	0.22513615
25	0x3e3b3683	0.18282513
26	0xbe57b731	-0.21065976
27	0x3daec713	0.08534064
28	0x3e122a72	0.14274004
29	0x3df7cc19	0.120994754
30	0x3dd6ceb4	0.10488644
31	0xbef1dcf2	-0.4723888

conv3d_extractor.branch1_bn1.running_var f4 [32]
0	0x3ca003f2	0.019533131
1	0x3c5896b1	0.013219521
2	0x3d98d09e	0.074616656
3	0x3dafd448	0.08585411
4	0x3d51dc32	0.051235385
5	0x3d9c3553	0.07627358
6	0x3d65562a	0.055990376
7	0x3d748c80	0.059704304
8	0x3d360f37	0.044448104
9	0x3dc7f1a7	0.097628884
10	0x3cc6e982	0.024281267
11	0x3c017005	0.007900243
12	0x3beb94fb	0.0071893907
13	0x3c33b8c6	0.010969346
14	0x3d80f832	0.062973395
15	0x3d980433	0.07422676
16	0x3c6725a7	0.014108098
17	0x3c18bb4d	0.009322
18	0x3c82cc5c	0.015966587
19	0x3c80c1f0	0.015717477
20	0x3d2c88c0	0.042122602
21	0x3c55bec9	0.013045975
22	0x3c8d45ec	0.017245255
23	0x3c63d568	0.0139058605
24	0x3c63262a	0.0138640795
25	0x3d24a380	0.04019499
26	0x3d3094ea	0.043110766
27	0x3ca23bf7	0.019803984
28	0x3cd232cd	0.02565899
29	0x3c948e25	0.018134186
30	0x3c904bf5	0.017614344
31	0x3da34b7a	0.079733804

conv3d_extractor.branch1_conv2.weight f4 [64, 32, 3, 3, 3]
0	0x3c701a1a	0.014654661
1	0x3b7481fd	0.0037308924
2	0xbc95cb65	-0.018285463
3	0xbd0c91a4	-0.03431858
4	0x3c82c3d0	0.015962511
5	0x3ba5df25	0.0050620013
6	0x3c567b6c	0.0130909495
7	0x3b862118	0.0040933006
8	0xbcfa0b81	-0.030523064
9	0x3c65eed2	0.01403399
10	0x3c91b653	0.017787134
11	0xbb5bc247	-0.0033532546
12	0xbc97b48f	-0.018518714
13	0xbcea0bee	-0.028570142
14	0xbb9b0bc7	-0.0047316286
15	0xbcf8848f	-0.030336646
16	0xbcc2fa43	-0.023800975
17	0x3cc834df	0.024439273
18	0xbc46653a	-0.012109095
19	0xbb2f7906	-0.0026775016
20	0xbc6254ea	-0.01381419
21	0xbc2b4269	-0.010452845
22	0x3c972f1b	0.018455079
23	0xbb289775	-0.002572504
24	0x3b73f748	0.0037226249
25	0x3ced75cc	0.028986834
26	0xbbcc794e	-0.0062400466
27	0xbc9304e8	-0.017946675
28	0xbc1fd634	-0.00975566
29	0xbd136742	-0.035987146
30	0xbcb390e0	-0.021919668
31	0x3c6fcc3e	0.0146360975
32	0x3aa395fe	0.0012480614
33	0xbce60025	-0.02807624
34	0x3a895798	0.0010478375
35	0x3ba307b5	0.004975284
36	0x3cb219f6	0.021740895
37	0x3c5bc812	0.0134144
38	0xbb9d67c9	-0.004803632
39	0xbc45f0b2	-0.012081312
40	0xbc783dff	-0.0151515
41	0xbcb8a957	-0.022541685
42	0xbc22ba45	-0.009932105
43	0xbc05ac13	-0.0081587015
44	0xbc543834	-0.012952853
45	0xbbfdd954	-0.007746855
46	0xbc5cd2dc	-0.013478007
47	0xbbb99906	-0.005663994
48	0x3c4fbe82	0.012679698
49	0xba240f4b	-0.00062583823
50	0xbca89974	-0.020580985
51	0x3ced8cd4	0.028997816
52	0xbb8d9644	-0.0043208916
53	0x3bebc78c	0.0071954187
54	0xbd81a86e	-0.063309535
55	0x3b2a1ff6	0.0025958992
56	0xbccdb0ec	-0.025108777
57	0xbd22d852	-0.03975708
58	0xbd647dd2	-0.055784054
59	0x3cc10db2	0.0235661
60	0xbd60cfd9	-0.05488572
61	0xbd5e4678	-0.054266423
62	0x3c22e6cd	0.0099427225
63	0xbc5ff121	-0.013668329
64	0xbd1f4b5f	-0.03889024
65	0xbbd1b2eb	-0.0063995025
66	0xbbe99b50	-0.0071291104
67	0xbd258cbd	-0.04041742
68	0x3c999c13	0.01875118
69	0xbd84cfbb	-0.06484934
70	0xbc89d5b7	-0.01682554
71	0x3b485825	0.0030570116
72	0xbd5c9286	-0.053850673
73	0x3c07ccd9	0.008288586
74	0xbc73d4ae	-0.01488225
75	0xbd3efc9f	-0.046627637
76	0xbcf643a7	-0.030061556
77	0x3ccf58ee	0.02531096
78	0xbcbf09d6	-0.02332012
79	0xbbff6ac5	-0.0077947103
80	0x3caeee6a	0.021353919
81	0xbc6c21ce	-0.014412357
82	0xbd92d150	-0.071688294
83	0xb98ac0ea	-0.00026465143
84	0xbd59d690	-0.05318314
85	0xbcd63ced	-0.026152099
86	0xbcc75f7a	-0.024337519
87	0xbcc7533d	-0.024331683
88	0xb8bccb6b	-9.002428e-05
89	0x3cbd68e8	0.023121312
90	0xbcd1114d	-0.025520945
91	0xbd67d292	-0.0565973
92	0xbcb9c76a	-0.022678096
93	0xbc11fab5	-0.008909871
94	0xbccfb1d5	-0.025353352
95	0xbd0dc631	-0.03461284
96	0xbd3e4faf	-0.04646271
97	0xbd5dfaeb	-0.054194372
98	0x3cba5ec6	0.02275027
99	0xbd6b5459	-0.057453487
100	0xbc9f3efc	-0.019439213
101	0xbcef6602	-0.029223446
102	0xbd2c5a19	-0.04207811
103	0xbd8fcd8b	-0.07021626
104	0xbc92b2ef	-0.017907588
105	0xbd3e9b81	-0.04653502
106	0xbd6dfafb	-0.05810068
107	0xbc81e15b	-0.015854528
108	0xbc64a08f	-0.013954296
109	0xbcb8e82d	-0.022571648
110	0x3c1a2022	0.009407075
111	0xbc0e1883	-0.008672836
112	0x3bb8c871	0.005639129
113	0xbc46a29e	-0.012123732
114	0xbcf194bf	-0.029489873
115	0xbcb4b84e	-0.02206054
116	0xbb08db3e	-0.0020882632
117	0x3ceb71a9	0.02874072
118	0x3bf88b53	0.007584968
119	0x3ca25789	0.01981713
120	0x3ca2bffd	0.019866938
121	0x3c13a381	0.00901115
122	0x3c6af7dd	0.014341322
123	0xbcbd6b0e	-0.023122337
124	0xbbdf038e	-0.0068058437
125	0xbbc21c78	-0.005923804
126	0x3ca50c09	0.02014734
127	0x3ca7c163	0.020477956
128	0xbd20707e	-0.03916978
129	0xbceb0553	-0.028689062
130	0x3a2267f0	0.00061952975
131	0xbb98f89e	-0.0046683094
132	0xbbddeedd	-0.0067728595
133	0xbc9e3200	-0.019310951
134	0x3cb66205	0.022263536
135	0xbd58e742	-0.05295492
136	0xbc1b74f1	-0.00948833
137	0xbbd716b9	-0.006563988
138	0xbd29b0ac	-0.041428253
139	0xbcc7d97a	-0.024395693
140	0x3ce9fb53	0.028562224
141	0xbd1a99cc	-0.03774433
142	0xbc1befae	-0.009517593
143	0x3c9b4c13	0.018957173
144	0xbc271b2a	-0.0101993475
145	0xbcf46f69	-0.02983828
146	0x3cba3a3b	0.022732845
147	0xbd7691c9	-0.060197625
148	0x3bf3a71f	0.007435694
149	0x3c757e70	0.014983758
150	0xbd38c088	-0.045105487
151	0x3cd5d374	0.026101805
152	0xbcfb2064	-0.030655093
153	0xbcac59ed	-0.021038974
154	0x396f2ea8	0.00022810197
155	0xbc9fa9e7	-0.019490195
156	0xbd78bbb9	-0.0607259
157	0xbab7179e	-0.001396883
158	0x3d02bc4f	0.031917866
159	0xbc8ad810	-0.01694873
160	0x3cdc9e42	0.026930932
161	0x3cfc6d25	0.030813763
162	0xba5c59f6	-0.0008405739
163	0x3c81a48f	0.015825538
164	0xbcd6e2a2	-0.026231114
165	0x3b458183	0.003013701
166	0xbcbfb619	-0.02340226
167	0x3bb2187c	0.0054350477
168	0x3cd190c0	0.025581717
169	0xbc4cf9c0	-0.012510717
170	0x3c8dc0a6	0.017303776
171	0xbb947020	-0.004529968
172	0xbd1069d2	-0.035257168
173	0x39d6a6ed	0.0004094163
174	0x3aa5a41b	0.0012637408
175	0x3bdcfd34	0.0067440514
176	0x3cc73fca	0.02432241
177	0x3cf42d62	0.029806796
178	0xbc9f64d9	-0.019457268
179	0x3c633ba0	0.013869196
180	0xbcad1eeb	-0.021132907
181	0x3c2661c1	0.010155142
182	0xbc1f755b	-0.00973257
183	0x3cdcda00	0.02695942
184	0xbc3f7b0e	-0.011687053
185	0xbb9f615c	-0.004863901
186	0x3bbf8d50	0.005845703
187	0x3c842844	0.016132481
188	0x3c081a79	0.008307093
189	0xbd6d36f1	-0.057913724
190	0xbd3d6b32	-0.046244808
191	0xbc679a95	-0.014135976
192	0xbd4ad407	-0.04951861
193	0xbd2ca9a6	-0.042153977
194	0xbb86d826	-0.0041151224
195	0xbd6f9f83	-0.05850173
196	0xbd52effd	-0.051498402
197	0x3b532f0e	0.0032224092
198	0xbd35d7a9	-0.044395123
199	0xbd176168	-0.03695813
200	0xbc34b167	-0.011028624
201	0xbcbc7676	-0.023005705
202	0xbd512cba	-0.051068045
203	0xbd1bcc1f	-0.038036462
204	0xbcf9030b	-0.030396959
205	0xbceb30b0	-0.02870974
206	0xbceffc47	-0.0292951
207	0xbd489b0c	-0.04897599
208	0xbd5f9efe	-0.054594986
209	0xbd175f5c	-0.036956176
210	0xbb70f056	-0.0036764345
211	0xbd12f43a	-0.035877444
212	0xbcc513f8	-0.024057373
213	0xbcd3f34e	-0.025872853
214	0xbd4e6e80	-0.05039835
215	0xbb4b5bd7	-0.0031030083
216	0xbcb19b08	-0.02168037
217	0xbc68ce25	-0.014209305
218	0xbc9ba4c9	-0.018999474
219	0xbbbc476e	-0.00574582
220	0xbc6fc32d	-0.014633936
221	0xbb372f5b	-0.002795181
222	0x3aff8348	0.0019494081
223	0xbd16a938	-0.036782473
224	0xbbd707f2	-0.0065622265
225	0xbcdb2962	-0.026753131
226	0xbd151c77	-0.0364041
227	0x3c5903dd	0.01324555
228	0x3c869905	0.016430387
229	0xbac6728d	-0.001514034
230	0x3c86a8e4	0.016437955
231	0x3bbdc8d0	0.005791761
232	0xbbce3976	-0.006293471
233	0xbb91bdbd	-0.0044476674
234	0x3cee66f6	0.02910183
235	0xbabfe98d	-0.0014641747
236	0xba065528	-0.00051243836
237	0x3be09261	0.006853387
238	0x3b142406	0.002260448
239	0xbc92e2dc	-0.01793044
240	0x3cc94293	0.024567878
241	0xbd052e5a	-0.032514907
242	0xbd0127ec	-0.031532213
243	0x3ca374ce	0.019953158
244	0xbccfbe54	-0.02535931
245	0x3c16422d	0.009171051
246	0xbc27beae	-0.010238333
247	0x3c9d47ad	0.019199217
248	0x3b888906	0.004166725
249	0x3c97abb8	0.018514499
250	0x3c188c00	0.009310722
251	0xbcab8c93	-0.020941054
252	0x3b957563	0.0045611127
253	0x3c9d3c95	0.019193927
254	0x3bb11c0e	0.0054049557
255	0x3b56e07b	0.003278761

conv3d_extractor.branch1_conv2.bias f4 [64]
0	0x3d0d0d0d	0.034436274
1	0x3c2a0d03	0.010379079
2	0xbb655e31	-0.003499877
3	0xbd38165e	-0.044943206
4	0x3cacf9ba	0.021115173
5	0x3c72fda6	0.014830982
6	0xbcde862e	-0.027163591
7	0x3c9a1973	0.018810963
8	0xbcc80f07	-0.024421228
9	0x3d0c2275	0.03421255
10	0x3bf3f5f1	0.00744509
11	0xbc9df44b	-0.019281527
12	0x3d1e6ee0	0.038679957
13	0x3c94d187	0.018166317
14	0xba88c98a	-0.001043604
15	0x3bc1875d	0.005906029
16	0x3c179e9f	0.009254127
17	0x3c9f7883	0.019466644
18	0xbcaa048f	-0.020754127
19	0xbacd4650	-0.0015661214
20	0xbc6f32e8	-0.014599539
21	0xbc9e3626	-0.01931293
22	0xbc4d433c	-0.012528237
23	0xbc4c70c0	-0.012478054
24	0x3b0372dc	0.0020057475
25	0x3cdb489b	0.02676802
26	0xbcca0ff8	-0.024665818
27	0x3d34aae3	0.044108283
28	0x3cc408d2	0.023929987
29	0xbca72abe	-0.020406123
30	0x3ca2d623	0.019877499
31	0x3c88db98	0.016706273
32	0xbcaa9867	-0.020824624
33	0x3c96f970	0.018429488
34	0x3be81412	0.0070824707
35	0x39cf5207	0.00039543232
36	0x3cd64eab	0.026160559
37	0xbd11e9d2	-0.03562338
38	0xb9b9f6f0	-0.00035469932
39	0x3d3483a0	0.04407084
40	0x3cc0b97e	0.02352595
41	0xbd29a030	-0.041412532
42	0x3ca9b93f	0.020718215
43	0x3c5f7813	0.013639468
44	0xbcb474d4	-0.022028364
45	0x3c035eaa	0.008018175
46	0xbcbd6253	-0.023118174
47	0x3cd69b9f	0.026197253
48	0xbc46d788	-0.012136348
49	0xbb653182	-0.0034972136
50	0x3cb1c4a9	0.02170022
51	0x3c991f40	0.018691659
52	0x3bc2fa01	0.005950213
53	0xbbbcad64	-0.0057579745
54	0x3d2058a8	0.03914705
55	0xbc9c9750	-0.01911512
56	0x3ce8c9e0	0.028416574
57	0xbcb33052	-0.021873627
58	0xbb882238	-0.00415447
59	0x3cde4505	0.02713252
60	0x3cc2fde4	0.023802705
61	0xbb13b7d0	-0.002253998
62	0xbcab57e7	-0.020915939
63	0x3cf62ad5	0.03004972

conv3d_extractor.branch1_bn2.weight f4 [64]
0	0x3f73b959	0.95204693
1	0x3f782886	0.96936834
2	0x3f751da7	0.9574837
3	0x3f7b3585	0.9812854
4	0x3f7c2e6b	0.9850833
5	0x3f6fa2f3	0.93608016
6	0x3f7acabc	0.979656
7	0x3f7889b8	0.9708514
8	0x3f74c71a	0.95616305
9	0x3f713b31	0.94230944
10	0x3f7c1cf7	0.98481697
11	0x3f7ab3a3	0.97930354
12	0x3f709970	0.9398413
13	0x3f785781	0.9700852
14	0x3f79abda	0.9752785
15	0x3f782c40	0.9694252
16	0x3f72ddfd	0.9486998
17	0x3f7415c2	0.953457
18	0x3f78e091	0.9721766
19	0x3f76eb40	0.96452713
20	0x3f78ba9e	0.97159755
21	0x3f79600a	0.9741217
22	0x3f7e1c0b	0.9926154
23	0x3f741ffa	0.9536129
24	0x3f764827	0.96203846
25	0x3f75412a	0.9580256
26	0x3f7c03dc	0.9844339
27	0x3f789584	0.9710314
28	0x3f78d4fb	0.9719998
29	0x3f79c8ce	0.9757203
30	0x3f79f7a6	0.97643507
31	0x3f766464	0.96246934
32	0x3f76ac97	0.963571
33	0x3f6f451d	0.93464833
34	0x3f7a5e23	0.9779989
35	0x3f7ac0f8	0.97950697
36	0x3f7470a4	0.95484376
37	0x3f7734f9	0.96565205
38	0x3f6d7394	0.92754483
39	0x3f7cd6fb	0.98765534
40	0x3f7b287a	0.9810864
41	0x3f752e73	0.95774
42	0x3f7f8f6b	0.99828213
43	0x3f78564b	0.9700667
44	0x3f7932eb	0.9734332
45	0x3f7a0a7f	0.97672266
46	0x3f7c4db4	0.98556066
47	0x3f744a56	0.9542593
48	0x3f7b9319	0.9827133
49	0x3f76e392	0.96440995
50	0x3f78065c	0.96884704
51	0x3f745149	0.9543653
52	0x3f7af54a	0.9803053
53	0x3f7514ea	0.9573504
54	0x3f7c25e8	0.9849534
55	0x3f795cfc	0.9740751
56	0x3f78f925	0.97255164
57	0x3f7c15a2	0.9847051
58	0x3f799f97	0.9750914
59	0x3f7684ad	0.962962
60	0x3f72b2c4	0.94804025
61	0x3f7d2bf1	0.98895174
62	0x3f74447b	0.9541699
63	0x3f78b12d	0.9714535

conv3d_extractor.branch1_bn2.bias f4 [64]
0	0xbd59d0ad	-0.053177524
1	0xbcc6ec10	-0.024282485
2	0xbd2564a7	-0.040379193
3	0xbcafcfdb	-0.021461418
4	0xbc2573cd	-0.01009841
5	0xbd3084c1	-0.043095354
6	0xbc7a2c1f	-0.015269308
7	0xbcfe90f3	-0.031074977
8	0xbd09b62d	-0.033621002
9	0xbd45c47d	-0.04828309
10	0xbc0c6b6f	-0.008570536
11	0xbc2ad92a	-0.0104277525
12	0xbd405b24	-0.04696192
13	0xbd20ba24	-0.039240018
14	0xbc865ec5	-0.016402612
15	0xbcbbefda	-0.022941519
16	0xbd354dc9	-0.044263635
17	0xbd203e42	-0.039121874
18	0xbce8ab99	-0.028402137
19	0xbd027091	-0.031845633
20	0xbcb401bc	-0.021973483
21	0xbc58cdd2	-0.013232665
22	0xbb20f3a1	-0.0024559277
23	0xbd65777f	-0.056022163
24	0xbc7f5ce1	-0.015586109
25	0xbd201187	-0.039079215
26	0xbc4a4cbf	-0.012347399
27	0xbcce7f98	-0.025207326
28	0xbcb412c6	-0.021981608
29	0xbc6f723a	-0.014614636
30	0xbcf93b59	-0.030423807
31	0xbd224a14	-0.039621428
32	0xbcafa201	-0.021439554
33	0xbd27adda	-0.040937282
34	0xbccba7e5	-0.024860332
35	0xbc8c6eec	-0.017142735
36	0xbd2be83d	-0.041969527
37	0xbcd4a674	-0.025958277
38	0xbd356f32	-0.044295497
39	0xbc517092	-0.0127831865
40	0xbc50feea	-0.012756089
41	0xbce420d6	-0.027847689
42	0x3c3327f6	0.01093482
43	0xbcdae21b	-0.026719144
44	0xbcc74191	-0.024323257
45	0xbcbe79a5	-0.023251364
46	0xbbecdb34	-0.0072282795
47	0xbd564c5a	-0.05231891
48	0xbc209ab6	-0.009802511
49	0xbceb8bb2	-0.028753135
50	0xbcda326a	-0.026635367
51	0xbd2473ff	-0.040149685
52	0xbc6d2618	-0.014474414
53	0xbd0f0b96	-0.03492316
54	0xbc588d8e	-0.013217343
55	0xbcaa19d2	-0.020764265
56	0xbcee3431	-0.029077621
57	0xbc44b824	-0.012006793
58	0xbccaae71	-0.024741383
59	0xbd025131	-0.03181571
60	0xbd3ee09b	-0.04660092
61	0xbc2d3118	-0.010570787
62	0xbd5b0b4c	-0.05347757
63	0xbcc39985	-0.023876915

conv3d_extractor.branch1_bn2.running_mean f4 [64]
0	0xc0079c25	-2.1189053
1	0xbf0a7460	-0.54083824
2	0xbf91c610	-1.1388569
3	0xbeeb2151	-0.45923856
4	0xbf6649e0	-0.89956474
5	0x3e2c6813	0.16836576
6	0xbf6fb7d9	-0.93639904
7	0xbf823b4d	-1.0174347
8	0x3f6ac92f	0.9171323
9	0xbf646a3c	-0.892246
10	0xbf121f83	-0.57079333
11	0xbf2e7249	-0.68143135
12	0x3e25f8f5	0.16208251
13	0xbf882f5d	-1.0639454
14	0xbf357f2d	-0.7089718
15	0x3e5ea84e	0.2174389
16	0xbf5a3bf5	-0.8524774
17	0xbd8d7dca	-0.06908758
18	0xbff78b62	-1.9339411
19	0xbfcbc5c9	-1.5919734
20	0xbf419ae2	-0.7562696
21	0xbefbfe31	-0.4921737
22	0xbfbd1a54	-1.477366
23	0xbffd027f	-1.9766387
24	0xbf8a5493	-1.080706
25	0xbf84dfac	-1.0380759
26	0xbf7aef8f	-0.9802179
27	0xbfdc319d	-1.7202641
28	0x3ec126ce	0.37724918
29	0xbf36d206	-0.7141422
30	0xbf4ec248	-0.807652
31	0xbf65a8f2	-0.89710915
32	0xbf2b10c8	-0.6682248
33	0xbf97046f	-1.1798228
34	0xbf12a218	-0.57278585
35	0xbf840160	-1.031292
36	0xbf9dadb4	-1.2318635
37	0xc00887df	-2.133293
38	0xbfaf3bb7	-1.3690099
39	0x3e9282fd	0.2861556
40	0x3d8a3d84	0.067500144
41	0x3f0c78a0	0.5487156
42	0xbfa0addf	-1.2553061
43	0xbf365ade	-0.712324
44	0xc006895b	-2.1021335
45	0xbf03e373	-0.51518935
46	0xbf723d2e	-0.946246
47	0xbf108062	-0.56445897
48	0xbf6e2f62	-0.9304105
49	0xbfbb8658	-1.4650373
50	0xbfa9df8e	-1.3271348
51	0xbfd81b51	-1.6883336
52	0xbfa7beab	-1.3105062
53	0xbfe37275	-1.7769305
54	0x3e94d645	0.29069725
55	0xbf3b15c8	-0.7308011
56	0xbd740701	-0.059576992
57	0xbf3200f7	-0.6953272
58	0xbf122e60	-0.5710201
59	0xbf9e9da3	-1.2391857
60	0xbf9070ce	-1.1284425
61	0x3e879438	0.2648027
62	0xbfe7d153	-1.8110756
63	0xbf2d69da	-0.6773964

conv3d_extractor.branch1_bn2.running_var f4 [64]
0	0x40148594	2.320653
1	0x40166dfe	2.3504634
2	0x40dd9c8e	6.9253607
3	0x40aaf2fc	5.342161
4	0x4049dc10	3.1540565
5	0x405232c0	3.2843475
6	0x403e0740	2.9691925
7	0x407b8460	3.9299545
8	0x40562bf8	3.3464336
9	0x3fd0c644	1.6310506
10	0x4037ddde	2.8729167
11	0x4075c727	3.8402803
12	0x403e7cbe	2.9763637
13	0x405bc509	3.433901
14	0x404404d2	3.0627942
15	0x403ab6b2	2.9174008
16	0x3feaf095	1.835467
17	0x405253cb	3.2863643
18	0x3fd2a75e	1.6457326
19	0x40d41edf	6.6287684
20	0x40034df3	2.0516326
21	0x404cc470	3.1994896
22	0x40db26d7	6.848491
23	0x40f18a9a	7.548169
24	0x40865b43	4.1986403
25	0x408737d5	4.2255654
26	0x40bc1b8e	5.8783636
27	0x3f8a8749	1.0822536
28	0x404ae904	3.1704721
29	0x4053d4c8	3.3098621
30	0x401b992b	2.4312236
31	0x406a2705	3.6586316
32	0x3feac695	1.8341852
33	0x3ffe14e4	1.9850125
34	0x40966bf2	4.700677
35	0x403bac2c	2.9323835
36	0x4090aaa5	4.5208306
37	0x40270881	2.609894
38	0x40a5a3a7	5.176227
39	0x40c092e0	6.017929
40	0x407c6bbe	3.944076
41	0x403659b6	2.8492255
42	0x40901af6	4.503291
43	0x3f8d1914	1.1023278
44	0x40107d5c	2.2576513
45	0x40177816	2.3667045
46	0x404274f2	3.0383878
47	0x401be2a2	2.4357076
48	0x405f3af7	3.487974
49	0x4060d402	3.51294
50	0x40b30a19	5.5949826
51	0x407c69a0	3.9439468
52	0x40c8d8a9	6.276448
53	0x40503a3b	3.253554
54	0x404460b4	3.0684023
55	0x401098d8	2.2593288
56	0x405511cc	3.3292112
57	0x4078de90	3.8885841
58	0x403bd3ca	2.9348016
59	0x4016f397	2.3586175
60	0x4083bee0	4.11705
61	0x404e53e1	3.2238696
62	0x3fd2b651	1.6461889
63	0x40963eff	4.69519

conv3d_extractor.branch2_conv1.weight f4 [32, 1, 3, 3, 3]
0	0xbe284d6a	-0.16435781
1	0x3e3a8f78	0.18218791
2	0xbdb4ca23	-0.08827617
3	0x3e294e58	0.16533792
4	0x3e0e44a9	0.1389338
5	0x3cd11606	0.025523197
6	0x3d204dfa	0.039136864
7	0xbdaae890	-0.08345139
8	0xbc2aa1d5	-0.01041456
9	0x3d8f3036	0.069916174
10	0xbc374cab	-0.011187713
11	0xbd876e86	-0.066128775
12	0xbe10a9d3	-0.14127283
13	0x3dc7da28	0.09758407
14	0x3e2b6a97	0.1673988
15	0x3d6472dc	0.0557736
16	0xbd8e9842	-0.069626346
17	0x3d559396	0.052142702
18	0xbc852a54	-0.016255535
19	0xbe39868e	-0.18117735
20	0x3e01ebc1	0.12687589
21	0x3d013adb	0.03155027
22	0xbd305bee	-0.04305642
23	0xbd95e908	-0.07319838
24	0xbdb62d7c	-0.08895394
25	0x3de58fdc	0.112090796
26	0xbda9128b	-0.0825549
27	0xbe1bd8a5	-0.15219362
28	0x3d1cc1d0	0.03827077
29	0xbc9bd8e4	-0.01902432
30	0x3d2940fb	0.041321736
31	0xbd3c2c0a	-0.045940436
32	0xbda592db	-0.08084651
33	0x3de80692	0.11329378
34	0xbce10517	-0.027468247
35	0xbdbf7a1e	-0.09349464
36	0xbde26134	-0.11053696
37	0x3d781ff5	0.06057735
38	0x3e1e0df4	0.1543501
39	0x3cf43756	0.029811542
40	0xbc602254	-0.013680059
41	0xbe3d4ddc	-0.18486732
42	0xbe1004a9	-0.14064278
43	0x3d5647a5	0.05231442
44	0x3d6ee8cf	0.058327492
45	0xbc6ce5df	-0.014459102
46	0x3e26497c	0.1623897
47	0xbcac70fc	-0.021049969
48	0xbcc6ecdc	-0.024282865
49	0x3d64427f	0.055727478
50	0xbe2eae24	-0.17058617
51	0xbc0ecd9a	-0.008716011
52	0x3d10754e	0.03526812
53	0xbe144608	-0.1447984
54	0xbe09be1f	-0.13451432
55	0xbd46c331	-0.048525993
56	0x3dbccc55	0.09218661
57	0xbe3c6652	-0.18398407
58	0x3d9f74c1	0.07785941
59	0xbd5a9de4	-0.053373232
60	0xbda11fb1	-0.07867373
61	0xbdfd0536	-0.123545095
62	0xbdbe907b	-0.09304901
63	0x3d188eb1	0.037245456
64	0x3ba7ef86	0.005124989
65	0xbdd345ab	-0.103160225
66	0xbdbbbaaa	-0.09166463
67	0xbc12eb54	-0.008967239
68	0x3c6c7439	0.0144320065
69	0x3d7912c4	0.060808912
70	0x3e049aaa	0.12949625
71	0x3c0c00ea	0.00854514
72	0xbc213aa8	-0.009840645
73	0x3d3170ee	0.04332059
74	0x3d8563f5	0.06513206
75	0xbc391f30	-0.01129894
76	0xbe2fb906	-0.17160425
77	0xbe0d6a0e	-0.13809988
78	0x3d6b0140	0.05737424
79	0xbe3ef18f	-0.18646835
80	0x3d5c76cf	0.053824242
81	0xbe39aca1	-0.18132259
82	0xbda08390	-0.078375936
83	0x3e0d9483	0.13826184
84	0x3d845128	0.06460792
85	0x3e2a9cd4	0.16661388
86	0x3db52cde	0.08846448
87	0xbdb07083	-0.0861521
88	0xbe040b4e	-0.12894937
89	0xbe00a2d4	-0.12562114
90	0xbe148c7e	-0.14506719
91	0xbddd394c	-0.10801944
92	0x3e2c413b	0.16821758
93	0xbcb714d2	-0.022348795
94	0x3e05de22	0.13073018
95	0x3e10b7bc	0.14132589
96	0xbdc608ec	-0.096696705
97	0xbdacd638	-0.084392965
98	0xbde51ee6	-0.11187534
99	0xbd3cde84	-0.046110645
100	0x3d6f8347	0.058474805
101	0x3d7386e4	0.059454814
102	0xbd9acd0c	-0.07558641
103	0xbe2039e0	-0.15647078
104	0xbd8b45ad	-0.06800399
105	0xbdcc4ed5	-0.099759735
106	0xbc84d959	-0.01621692
107	0xbc51abbe	-0.012797294
108	0xbdefea5e	-0.11714624
109	0x3cfbb8c4	0.030727752
110	0x3e224ca3	0.15849547
111	0x3cd63673	0.02614901
112	0x3c2d8b7b	0.010592337
113	0xbe2b02d4	-0.16700298
114	0xbdd5e9a8	-0.10444957
115	0xbe1bcf53	-0.15215807
116	0x3e166f98	0.14691007
117	0xbdf8e293	-0.121525906
118	0x3e238439	0.15968408
119	0xbdbd7cdc	-0.09252331
120	0xbd3065d4	-0.04306586
121	0xbe3b33a8	-0.18281424
122	0xbdbadd81	-0.0912428
123	0xbe3cfe68	-0.18456423
124	0x3e3c918a	0.18414894
125	0x3db90257	0.090336494
126	0xbc60be10	-0.013717189
127	0x3e1d71d7	0.15375458
128	0x3d984f12	0.074369565
129	0x3d22bcea	0.039730944
130	0xbe0bcb3f	-0.13651751
131	0x3e26997f	0.16269492
132	0x3dcb5a17	0.09929293
133	0x3dac4c41	0.08412982
134	0xbdc738af	-0.097276084
135	0x3dd98d14	0.10622612
136	0x3e01246c	0.1261155
137	0xbd98a2c3	-0.07452919
138	0xbe3643fb	-0.1779937
139	0xbbd87d28	-0.0066067167
140	0xbe102729	-0.14077438
141	0x3d1cabf0	0.03824991
142	0x3dbb362c	0.09141192
143	0xbdb38aeb	-0.08766731
144	0x3e1eebea	0.15519682
145	0xbd7f918c	-0.062394664
146	0x3d7de773	0.061988305
147	0xbdc1a34e	-0.09454976
148	0xbe2f0404	-0.17091376
149	0xbe188b18	-0.1489681
150	0x3e1c62e7	0.15272103
151	0x3dc69b0f	0.09697544
152	0x3d1967f5	0.037452657
153	0x3e319999	0.17343749
154	0xbd93aa8e	-0.07210265
155	0x3cebd50b	0.02878811
156	0x3e2a25c0	0.16615963
157	0xbe39c354	-0.18140918
158	0x3d8d1a7b	0.068898164
159	0x3e109f3c	0.14123243
160	0x3da4ce76	0.08047192
161	0xbdcfa1fa	-0.101383165
162	0xbd109375	-0.035296876
163	0x3e1f2764	0.1554237
164	0x3e4420e0	0.19153166
165	0x3dacb4c8	0.08432919
166	0x3e1bcd4d	0.15215035
167	0xbe33590b	-0.17514436
168	0xbd22c818	-0.039741606
169	0xbd854e0a	-0.065090254
170	0xbdcee11e	-0.101015314
171	0x3e260329	0.16212143
172	0x3e460401	0.19337465
173	0xbd263b9c	-0.04058419
174	0xbe37cd32	-0.1794937
175	0x3e2e1c40	0.17002964
176	0x3d6db2a5	0.058031697
177	0x3dcc7f37	0.09985202
178	0x3d305b20	0.043055654
179	0x3d5c8b7c	0.05384396
180	0x3e011ca6	0.12608585
181	0x3e39fb1a	0.18162194
182	0x3ddd3e39	0.10802884
183	0x3d41ba9b	0.0472971
184	0xbe183cad	-0.14866896
185	0xbde8999f	-0.11357426
186	0x3e18b44e	0.14912531
187	0xbdc13b08	-0.094350874
188	0xbdad538a	-0.084631994
189	0xbd62f31a	-0.05540762
190	0xbd6311a7	-0.055436756
191	0xbe28d688	-0.16488087
192	0xbe0f6494	-0.14003211
193	0xbdabb9d7	-0.083850555
194	0xbc9506a2	-0.01819164
195	0x3de07524	0.10959843
196	0xbe25fb8c	-0.16209239
197	0x3dd8a6a8	0.10578662
198	0xbd3c0063	-0.045898806
199	0xbb8279d4	-0.003981808
200	0x3deeb41a	0.116554454
201	0xbc0ca2de	-0.008583752
202	0xbd897716	-0.06712167
203	0xbe471313	-0.1944087
204	0x3e199b7d	0.1500072
205	0x3d24f92f	0.040276702
206	0xbc90b9da	-0.017666746
207	0x3e2d1026	0.16900691
208	0x3d8cd9b6	0.068774626
209	0x3d65988e	0.05605369
210	0x3c9b2212	0.018937144
211	0x3e1ee6fa	0.15517798
212	0xbd1b482c	-0.037910625
213	0xbcf7d76b	-0.030254086
214	0xbde4f99b	-0.11180421
215	0xbe25986c	-0.16171426
216	0xbe41bc92	-0.1891959
217	0xbd870f08	-0.06594664
218	0xbd6319db	-0.05544458
219	0x3d283ad0	0.041071713
220	0xbe3c3a31	-0.18381573
221	0xbdd1529f	-0.10220837
222	0x3ccfd544	0.025370248
223	0x3d0df3c5	0.034656305
224	0xbda72281	-0.08160878
225	0xbe192fc0	-0.14959621
226	0xbdb41685	-0.08793358
227	0xbdb43432	-0.08799018
228	0x3d187a70	0.03722614
229	0x3e21edef	0.1581342
230	0x3dd685b9	0.10474724
231	0xbe3c8f2b	-0.18413989
232	0x3e1f2d9e	0.15544745
233	0x3e119a20	0.1421895
234	0x3e15bfda	0.14623967
235	0xbd669454	-0.0562938
236	0x3e0b7798	0.1361984
237	0x3e0d0b11	0.13773753
238	0xbe4498b5	-0.19198878
239	0xbd84d8b3	-0.064866446
240	0xbe2a4ac7	-0.16630088
241	0xbdd238c2	-0.10264732
242	0x3e322896	0.17398295
243	0xbe4ca706	-0.1998559
244	0x3dae57a6	0.08512811
245	0x3e106aed	0.14103289
246	0x3da7dae5	0.08196048
247	0xbe4307f4	-0.19046003
248	0xbe3bc607	-0.1833726
249	0x3dd674aa	0.10471471
250	0x3dcb5d2d	0.09929881
251	0x3e39ed0e	0.18156835
252	0xbcf8a676	-0.030352812
253	0x3d99e741	0.07514811
254	0xbe09fd4c	-0.13475531
255	0x3d8d2a3f	0.068928234

conv3d_extractor.branch2_conv1.bias f4 [32]
0	0xbdb96e6d	-0.09054265
1	0xbde8a563	-0.1135967
2	0x3da0cdeb	0.07851776
3	0x3d155ff4	0.03646846
4	0x3e377f19	0.17919578
5	0xbd9b23e5	-0.07575206
6	0xbd8d9e70	-0.06914985
7	0x3d9764bc	0.073922604
8	0x3d28c357	0.041201916
9	0xbc992e4d	-0.018698836
10	0x3e124191	0.14282824
11	0xbdce206f	-0.1006478
12	0xbdb06bfe	-0.08614348
13	0xbd7f0088	-0.062256366
14	0xbe04e621	-0.12978412
15	0x3c9bcafc	0.019017689
16	0xbcc5bee5	-0.024138877
17	0xbc824db6	-0.015906196
18	0x3e3913e1	0.1807399
19	0xbd92e88b	-0.0717326
20	0x3d7de60c	0.061986968
21	0x3d925618	0.07145327
22	0x3d53524a	0.05159215
23	0xbce5dd9b	-0.028059771
24	0xbd84a5d6	-0.06476943
25	0xbe1471a6	-0.14496478
26	0x3d9ec54a	0.07752474
27	0xbde7b349	-0.11313493
28	0xbda9bed6	-0.08288352
29	0xbc974afb	-0.01846837
30	0x3c9b44f3	0.018953776
31	0x3e2496ea	0.16073194

conv3d_extractor.branch2_bn1.weight f4 [32]
0	0x3f7bd3cc	0.9837005
1	0x3f7c28ac	0.9849956
2	0x3f7edb90	0.99553776
3	0x3f7ddbb6	0.9916338
4	0x3f78419b	0.96975106
5	0x3f7bef77	0.9841227
6	0x3f80307b	1.0014795
7	0x3f7dbaf9	0.9911342
8	0x3f7bc454	0.9834645
9	0x3f81eea1	1.0150949
10	0x3f828bf3	1.0198959
11	0x3f818f1a	1.0121796
12	0x3f7da59a	0.9908081
13	0x3f813d01	1.0096742
14	0x3f825ef8	1.0185232
15	0x3f811111	1.0083333
16	0x3f7d0548	0.98836184
17	0x3f7e1e57	0.99265045
18	0x3f7f9b55	0.9984639
19	0x3f8019a8	1.000783
20	0x3f7b60ed	0.9819477
21	0x3f7c3b19	0.98527676
22	0x3f7fff42	0.9999887
23	0x3f80e409	1.0069591
24	0x3f7b4750	0.9815569
25	0x3f7ef959	0.99599224
26	0x3f7fee8f	0.99973387
27	0x3f812894	1.0090508
28	0x3f7f879d	0.99816304
29	0x3f81ab9b	1.0130495
30	0x3f8293d3	1.0201362
31	0x3f81510e	1.0102861

conv3d_extractor.branch2_bn1.bias f4 [32]
0	0xbc52cac8	-0.01286573
1	0xbc57cab7	-0.01317089
2	0xbb2c2c7a	-0.0026271627
3	0x39608c05	0.00021414466
4	0xbcd426b4	-0.025897361
5	0xbc366960	-0.011133522
6	0xb8487054	-4.778833e-05
7	0x3b945e6e	0.0045278585
8	0xba177f9a	-0.0005779207
9	0x3c7e4392	0.01551904
10	0x3c4c24b1	0.01245992
11	0xbb9955e9	-0.0046794307
12	0xbc2c209a	-0.01050582
13	0x3b849e20	0.0040471703
14	0xbbad9431	-0.005297207
15	0x3aad8dad	0.0013241075
16	0xbc6305d7	-0.013856373
17	0xbbdc2871	-0.006718688
18	0xbb9da36b	-0.0048107407
19	0x3a57ad7e	0.00082274515
20	0xbc879f31	-0.0165554
21	0xbb85c05b	-0.0040817684
22	0xbb17e2f8	-0.0023176055
23	0x3c509389	0.012730488
24	0xbc2051e9	-0.009785154
25	0xbb824e34	-0.0039766077
26	0xb85b5502	-5.229284e-05
27	0x3c4ea087	0.012611515
28	0x3b01cce0	0.0019805953
29	0x3c2353f3	0.0099687455
30	0x3a3305ba	0.00068291614
31	0x3c67ea60	0.014155

conv3d_extractor.branch2_bn1.running_mean f4 [32]
0	0xbd272502	-0.040806778
1	0xbe81e013	-0.25366268
2	0xbe327b0e	-0.17429754
3	0xbe209eb3	-0.15685539
4	0x3e1bbef7	0.15209566
5	0xbcaaf9e2	-0.020871107
6	0x3e5b6f05	0.2142907
7	0xbd3fa3b4	-0.04678698
8	0xbdde8cb8	-0.10866684
9	0xbee3f7dd	-0.44525042
10	0x3f04e760	0.5191555
11	0x3ea6defd	0.32592002
12	0x3dd78a21	0.10524393
13	0x3e1fc53e	0.15602586
14	0x3e57ec74	0.21086293
15	0x3e8255d7	0.25456116
16	0x3e501c10	0.20323205
17	0x3e386c55	0.18010075
18	0x3ed20723	0.4102107
19	0x3e0e853d	0.13918014
20	0x3e693d96	0.227774
21	0x3c5c86b7	0.013459853
22	0x3e98ca87	0.29842016
23	0xbe6d17ec	-0.23153657
24	0x3cc850b2	0.024452541
25	0x3db96a2b	0.09053453
26	0x3e3952f2	0.18098047
27	0xbed2eac4	-0.41194737
28	0x3b2a89a9	0.0026021993
29	0x3e82f529	0.25577667
30	0x3f1a07e5	0.60168296
31	0xbdc78aeb	-0.097432934

conv3d_extractor.branch2_bn1.running_var f4 [32]
0	0x3b9f0e56	0.004854004
1	0x3c63a9c9	0.01389546
2	0x3ce909cc	0.028447054
3	0x3d03320d	0.032030154
4	0x3c16f31c	0.009213235
5	0x3c9c4045	0.019073615
6	0x3d4f5338	0.050616473
7	0x3c3e02d1	0.011597351
8	0x3c8d903b	0.017280689
9	0x3d9a49d4	0.07533613
10	0x3d7b22ff	0.06131267
11	0x3d9cb593	0.0765182
12	0x3cd9baae	0.026578274
13	0x3ce36dc7	0.027762307
14	0x3d4f76a0	0.05065024
15	0x3d1ed083	0.03877307
16	0x3ceae972	0.028675769
17	0x3cbc3f06	0.02297927
18	0x3ce9a854	0.028522648
19	0x3cc24041	0.02371228
20	0x3ccfaa12	0.02534965
21	0x3c271402	0.010197641
22	0x3d009ca9	0.031399403
23	0x3cd6612f	0.026169388
24	0x3c840d18	0.016119525
25	0x3cdbd455	0.026834646
26	0x3cab0d98	0.020880505
27	0x3d2f31a4	0.04277195
28	0x3cae46c4	0.021273978
29	0x3d1745bd	0.036931742
30	0x3e181aeb	0.14854018
31	0x3d09f752	0.03368313

conv3d_extractor.branch2_conv2.weight f4 [64, 32, 3, 3, 3]
0	0xbbae3374	-0.0053161923
1	0x3b30488d	0.0026898712
2	0x3c497199	0.01229515
3	0x3cb7ae4b	0.022421977
4	0x3bf8626f	0.0075800936
5	0x3c8824a3	0.016619032
6	0xbbe84b7c	-0.0070890766
7	0xb8f83221	-0.00011834899
8	0x3cffea58	0.031239673
9	0x3b94f838	0.0045461915
10	0xbb9ecc44	-0.0048461277
11	0x3d0e0f2a	0.03468243
12	0x3c906592	0.017626557
13	0x3d22d629	0.03975502
14	0x3cc46173	0.023972249
15	0x3d117581	0.03551245
16	0x3d22b4ec	0.03972332
17	0xbcb3fff1	-0.021972628
18	0x3ca2b618	0.01986222
19	0xbc806269	-0.015671926
20	0x3d3c3f62	0.045958884
21	0x3d06b04a	0.032882966
22	0xbc25bcaa	-0.010115782
23	0x3b789dc8	0.0037935842
24	0x3d11e328	0.035617024
25	0x3b0ebcb4	0.0021779956
26	0x3c6b4666	0.014360046
27	0xbc934039	-0.01797496
28	0xbc00dc8c	-0.0078650825
29	0x3c96ce55	0.018408934
30	0x3c602a1d	0.013681916
31	0x3ca3ff42	0.020019177
32	0x3cd33e39	0.025786506
33	0x3cd89bad	0.02644142
34	0x3d37206e	0.04470866
35	0x3c439fa0	0.011939913
36	0x3cd3fd80	0.025877714
37	0xbcc7aa75	-0.024373272
38	0xbc0a1079	-0.008426779
39	0xbcdd2d6b	-0.026999196
40	0xbcfaa28b	-0.030595085
41	0x3cbba085	0.02290369
42	0xbc4e9596	-0.012608906
43	0xbc3f902c	-0.011692088
44	0xbc47e756	-0.012201151
45	0xbca57873	-0.020199036
46	0xbc818401	-0.015810015
47	0x3c8a0601	0.016848566
48	0x3c78d12c	0.015186589
49	0xbcd75536	-0.026285749
50	0x3cdda662	0.027056877
51	0xbbcbcd41	-0.0062195365
52	0x3d0d84ce	0.03455048
53	0xbc3a1899	-0.011358404
54	0xbd138785	-0.036017913
55	0xbc890034	-0.01672373
56	0xbd48acdc	-0.048992977
57	0x3cc6f890	0.024288446
58	0xba54251e	-0.0008092689
59	0x3c397d87	0.011321432
60	0x3caf9095	0.021431247
61	0xbcb09f0a	-0.02156021
62	0xbd08d901	-0.033410076
63	0xbce4b80a	-0.027919788
64	0xbcca082b	-0.024662098
65	0xbd3daed4	-0.046309307
66	0xbcd90838	-0.026493177
67	0xbd44856b	-0.0479788
68	0xbcd8891a	-0.026432563
69	0x3cb2c5ad	0.021822775
70	0xba6b0b85	-0.0008966255
71	0xbc791187	-0.015201933
72	0xbc88735d	-0.016656572
73	0xbc8d5082	-0.017250303
74	0xbc47be51	-0.012191371
75	0xbb2fc2aa	-0.002681891
76	0x3b0c9c8d	0.0021455616
77	0xbbd105a3	-0.006378846
78	0xbc877a96	-0.016537946
79	0xbc159fcd	-0.009132338
80	0xbc9ba869	-0.019001203
81	0xbc8ee928	-0.017445162
82	0xbca47bc1	-0.020078542
83	0xbca2c1bc	-0.01986777
84	0xbca198d2	-0.01972619
85	0xbc0f6483	-0.008751991
86	0xbcddf794	-0.027095594
87	0xbc39e653	-0.0113464175
88	0x3d06dd86	0.032926105
89	0x3c13e7d6	0.009027442
90	0x3d0a59a7	0.033776905
91	0xbca8ce84	-0.020606287
92	0xbbd8a82c	-0.0066118445
93	0x3c69475c	0.014238205
94	0x3cea4c6a	0.02860089
95	0x3c965c13	0.018354451
96	0x3c58700f	0.013210311
97	0xbd04897b	-0.032357674
98	0xbca6f7c2	-0.020381812
99	0x3c50be7b	0.012740727
100	0xbc90014a	-0.01757874
101	0xbc1a3e82	-0.009414317
102	0x3cd68af2	0.026189301
103	0xbc7a33a1	-0.015271098
104	0xbbef2ba2	-0.0072989026
105	0x3d0ea8af	0.034828838
106	0xbd012909	-0.031533275
107	0xbcbbad4c	-0.022909783
108	0x3c212681	0.00983584
109	0x3cd3fada	0.025876451
110	0xbc83c53f	-0.016085265
111	0x3c1d0320	0.009583265
112	0xbc9e5700	-0.019328594
113	0x3c8eb15e	0.01741856
114	0xb9b2e32f	-0.0003412007
115	0xbcf9e602	-0.030505184
116	0xbcbf71be	-0.023369666
117	0x3d04bb6f	0.032405313
118	0x3cc2c4ef	0.023775546
119	0xbc085603	-0.008321288
120	0x3cdaf892	0.026729856
121	0x3cd00ffb	0.025398245
122	0x3c7a4a02	0.015276434
123	0x3c81aaa5	0.01582844
124	0xbc8f67f3	-0.017505622
125	0x3cc45dea	0.023970563
126	0xbaac431b	-0.0013142558
127	0xbcb9f4e3	-0.022699779
128	0x3c93353e	0.017969724
129	0x3bf0a15a	0.0073434534
130	0x3c674168	0.014114715
131	0x3cf2cdd9	0.029639171
132	0xbbcf7813	-0.0063314526
133	0x3c032474	0.008004297
134	0x3c99b0f8	0.018761143
135	0x3b3aa201	0.002847791
136	0xbc016f1f	-0.0079000285
137	0xbc93f961	-0.018063249
138	0xbb9ea942	-0.0048419544
139	0xbcd6dd9b	-0.026228717
140	0x3c98f29b	0.01867037
141	0x3d20a16b	0.03921644
142	0x3d1837a1	0.037162427
143	0xbc3e8887	-0.01162923
144	0xbcb0b1a0	-0.021569073
145	0x3c52eb82	0.012873532
146	0x3cb22fc5	0.021751294
147	0x3cfd9431	0.030954452
148	0xbbd940f5	-0.006630058
149	0x3c5153ce	0.012776328
150	0xbbb0cf12	-0.0053957785
151	0x3ce54026	0.02798469
152	0x3d0f9b15	0.035060007
153	0xbc4c3615	-0.012464066
154	0x3cf94d07	0.030432237
155	0xbcc78f3b	-0.02436029
156	0x3b1027ef	0.0021996459
157	0xbb1cd84a	-0.002393263
158	0xbadee5b6	-0.0017005715
159	0xbc6d5c65	-0.014487361
160	0x3c2804d3	0.010255056
161	0xbbb347c8	-0.0054712035
162	0xbc8b3ef5	-0.016997794
163	0x3bc03aa5	0.005866366
164	0x3d18f4e5	0.037342925
165	0xb9b3119b	-0.00034154658
166	0x3c7bb363	0.015362593
167	0xbb2fa4c9	-0.00268011
168	0xbcd78574	-0.026308753
169	0x3b9fee75	0.004880721
170	0x3d1cdf00	0.038298607
171	0xbbe026aa	-0.0068405466
172	0xbcafb181	-0.021446945
173	0x3d35c9b3	0.04438181
174	0x3d0ecf22	0.034865506
175	0xbc180fa7	-0.009281076
176	0xbc693836	-0.014234593
177	0x3c2096a8	0.009801544
178	0xbbc62605	-0.0060470128
179	0x3cb0fd1f	0.021605073
180	0x3cc06bd0	0.023488909
181	0xbc7f15b9	-0.015569144
182	0x3c5f13b4	0.013615537
183	0xbc77ecbc	-0.0151321255
184	0xbc0b3778	-0.0084971115
185	0xb9fcffd0	-0.0004825578
186	0x3aa93c5a	0.0012911663
187	0x3c87ee1c	0.016593032
188	0x3c8281f9	0.015931116
189	0xbd7edd2f	-0.062222656
190	0xbc4aba49	-0.012373515
191	0x3cdae6a2	0.026721302
192	0x3c65a0a2	0.014015349
193	0x3d014fe3	0.031570327
194	0xbc530371	-0.012879238
195	0x3c2e641f	0.010643988
196	0xbc911ae6	-0.017713021
197	0xbc859ffb	-0.016311636
198	0xbc2dbae6	-0.010603642
199	0xbca2b3be	-0.019861098
200	0x3ceaead4	0.028676428
201	0x3ac50a5d	0.0015032996
202	0x3bbad4ee	0.0057016527
203	0xbd033a13	-0.032037806
204	0xbb62a33d	-0.003458216
205	0x3cdfae45	0.027304778
206	0xbadddc61	-0.001692664
207	0xbc4127c6	-0.011789268
208	0xbb93e4a2	-0.004513339
209	0x3c83aa4a	0.016072411
210	0xbcd21944	-0.025646813
211	0xbcbc7f12	-0.02300981
212	0x3ce01698	0.027354524
213	0x39b8adfd	0.00035224846
214	0xbbf219e1	-0.007388339
215	0x3c73fbe0	0.014891595
216	0xbc02f185	-0.007992153
217	0x3c7383fd	0.014863011
218	0x39bf4afc	0.00036486227
219	0x3c836fa6	0.016044449
220	0xbcd33d1b	-0.025785973
221	0xbcde1563	-0.027109807
222	0x3cbcdbe9	0.02305408
223	0xbca6f40d	-0.020380044
224	0xbcd08b57	-0.025457067
225	0xbca448e4	-0.020054288
226	0xbd191608	-0.037374526
227	0xbb8420ee	-0.004032246
228	0x3c86d5a6	0.016459297
229	0xbd198e7b	-0.037489396
230	0xbcfe3b16	-0.031034034
231	0x3cc4d55c	0.024027519
232	0x3bd0a7e2	0.0063676694
233	0x3c33f409	0.0109834755
234	0xbb6322a0	-0.003465809
235	0xbd265509	-0.04060844
236	0xbd3006b7	-0.042975154
237	0xbbd1021d	-0.0063784258
238	0xbbf4c6e4	-0.0074699987
239	0xbb93d575	-0.00451153
240	0xbbd28a49	-0.0064251763
241	0x3b7e273d	0.0038780712
242	0xbd2574a6	-0.040394448
243	0xbcfe6ca1	-0.031057658
244	0xbd482f94	-0.0488735
245	0x3b3eb51b	0.0029099646
246	0x3c47385f	0.012159436
247	0x3bf6f13d	0.007536082
248	0xbafbb25b	-0.0019202934
249	0x3c205517	0.009785912
250	0xbd06dea4	-0.03292717
251	0x3ce6cbba	0.028173316
252	0xbc9f4fe8	-0.019447282
253	0xbcc41366	-0.023935031
254	0xbbb73705	-0.0055912756
255	0x3c1bd033	0.009510088

conv3d_extractor.branch2_conv2.bias f4 [64]
0	0xbc9d94e4	-0.019236036
1	0xbb9e96cd	-0.004839754
2	0xbbafc181	-0.0053636436
3	0xbc273345	-0.010205095
4	0x3b97d117	0.0046330797
5	0x3bc8b3db	0.006124956
6	0xbc7d1b28	-0.015448369
7	0x3ba42c4e	0.0050101643
8	0x3c053dc8	0.008132406
9	0xbc9482d6	-0.018128794
10	0x3bdc29a4	0.006718831
11	0x3c724d60	0.014788955
12	0x3ce1f0f7	0.027580721
13	0xbc5366f9	-0.012902969
14	0x3cb8d81e	0.02256399
15	0xbb9cae46	-0.004781517
16	0xbc3c06e1	-0.011476249
17	0x3ca4753e	0.020075437
18	0xbcfd9571	-0.030955048
19	0xbc95c540	-0.018282533
20	0x3c8c9223	0.017159527
21	0x3c96e9ec	0.01842209
22	0xbcbd0a0f	-0.023076085
23	0x3bcb179f	0.006197884
24	0xbbd7ef50	-0.0065898076
25	0x3c26572c	0.010152619
26	0x3c4cd770	0.012502536
27	0x3c630888	0.0138570145
28	0x3b5a180f	0.00332785
29	0x3c88f527	0.01671846
30	0xbc30c391	-0.010788814
31	0x3ade046c	0.0016938574
32	0xbc086d07	-0.008326775
33	0x3cf19258	0.029488727
34	0xb99a9f89	-0.00029492032
35	0xbc1bbea0	-0.009505898
36	0xbcd08150	-0.025452286
37	0x3cd12073	0.025528168
38	0xbb60a58b	-0.0034278359
39	0xbc908538	-0.017641649
40	0xbd158f30	-0.036513507
41	0xbcc15c08	-0.023603454
42	0x3c71494c	0.014726948
43	0xbcc56c50	-0.024099499
44	0x3cb26c62	0.021780197
45	0xbce25b81	-0.027631523
46	0x3c7fc153	0.015610057
47	0x3c81953b	0.015818229
48	0x3b5c9041	0.0033655318
49	0x3c459cc3	0.012061301
50	0x3be7c4c3	0.0070730164
51	0xbb9710da	-0.004610163
52	0x3a234bef	0.00062292715
53	0x3cbf4372	0.02334759
54	0x3cc6ca22	0.024266306
55	0x3c10a70b	0.008828889
56	0xbca4a79e	-0.020099457
57	0xbbe489f6	-0.006974454
58	0x3c6774f1	0.014127002
59	0xbc986a56	-0.018605392
60	0xbc196901	-0.009363414
61	0x3bf08121	0.007339612
62	0xbccb1197	-0.02478866
63	0x3c897f5c	0.016784362

conv3d_extractor.branch2_bn2.weight f4 [64]
0	0x3f760b39	0.96110874
1	0x3f7c18e0	0.98475456
2	0x3f7a1dcb	0.9770171
3	0x3f764b25	0.9620841
4	0x3f7a11e1	0.9768353
5	0x3f7a200c	0.9770515
6	0x3f7b88f4	0.9825585
7	0x3f794ae3	0.97379893
8	0x3f79350c	0.9734657
9	0x3f788a16	0.970857
10	0x3f7d9a07	0.9906315
11	0x3f7c0400	0.98443604
12	0x3f774a86	0.9659809
13	0x3f7baa51	0.9830676
14	0x3f7b96ea	0.9827715
15	0x3f7a37b3	0.9774124
16	0x3f778312	0.9668437
17	0x3f726581	0.9468613
18	0x3f7a3f9b	0.97753304
19	0x3f7b40ae	0.9814557
20	0x3f7c8c73	0.9865181
21	0x3f798b0b	0.9747779
22	0x3f7c0723	0.9844839
23	0x3f70df3d	0.94090635
24	0x3f7c6da6	0.9860481
25	0x3f715664	0.94272447
26	0x3f7c502a	0.9855982
27	0x3f7b1432	0.9807769
28	0x3f7c27e5	0.98498374
29	0x3f7cdc56	0.98773706
30	0x3f7b68fb	0.9820706
31	0x3f76105c	0.9611871
32	0x3f7adb32	0.97990716
33	0x3f75923c	0.9592626
34	0x3f770176	0.96486604
35	0x3f7907ee	0.97277725
36	0x3f72483c	0.9464147
37	0x3f7ace95	0.9797147
38	0x3f7916cd	0.97300416
39	0x3f7322eb	0.94975156
40	0x3f79ed55	0.97627765
41	0x3f76be9d	0.963846
42	0x3f7292a6	0.9475502
43	0x3f7d0e7d	0.9885023
44	0x3f7d3e98	0.98923635
45	0x3f7b0631	0.9805632
46	0x3f7896b3	0.9710495
47	0x3f776bcd	0.96648866
48	0x3f7f14ab	0.9964091
49	0x3f783675	0.96958095
50	0x3f79a8fa	0.9752346
51	0x3f771fc5	0.9653285
52	0x3f7a6f7b	0.97826356
53	0x3f72c10e	0.9482583
54	0x3f7a6560	0.97810936
55	0x3f7cffde	0.9882792
56	0x3f7b7ae4	0.9823439
57	0x3f7d4c73	0.9894478
58	0x3f77bff0	0.9677725
59	0x3f7b93d0	0.9827242
60	0x3f73b700	0.9520111
61	0x3f7d5875	0.989631
62	0x3f751c1d	0.9574602
63	0x3f798339	0.97465855

conv3d_extractor.branch2_bn2.bias f4 [64]
0	0xbd3e081f	-0.046394464
1	0xbc4c6423	-0.012475046
2	0xbc8e4e63	-0.017371362
3	0xbd1e906d	-0.038711954
4	0xbc5206b3	-0.01281898
5	0xbc406e43	-0.011745038
6	0xbc5e2183	-0.0135577945
7	0xbccdbbd8	-0.025113985
8	0xbc93ecc9	-0.018057244
9	0xbcf3225f	-0.029679475
10	0xbc0df618	-0.00866463
11	0xbc83a1ba	-0.016068328
12	0xbcc2fb00	-0.023801327
13	0xbcdacfde	-0.026710447
14	0xbc777265	-0.015102957
15	0xbc1efe99	-0.0097042555
16	0xbd01fd73	-0.03173585
17	0xbd12a722	-0.03580392
18	0xbcc53e61	-0.024077596
19	0xbc775ae5	-0.015097355
20	0xbc25b3ec	-0.0101136975
21	0xbc948c47	-0.018133296
22	0xbaf11b6f	-0.0018395017
23	0xbd8224c0	-0.06354666
24	0xbc1ac4ce	-0.009446336
25	0xbd43baa1	-0.047785405
26	0xbc2ea260	-0.01065883
27	0xbcb9057b	-0.022585621
28	0xbc37fb92	-0.011229413
29	0xbc9e9e31	-0.01936254
30	0xbd0de5b9	-0.03464291
31	0xbd17fa04	-0.037103668
32	0xbc8f62e1	-0.017503204
33	0xbcd0ad11	-0.02547315
34	0xbd1f330c	-0.03886704
35	0xbc9e710c	-0.019341014
36	0xbd3f18cd	-0.04665451
37	0xbc9b28c9	-0.018940346
38	0xbd3ef2d1	-0.046618287
39	0xbd227379	-0.039660905
40	0xbc92e3e7	-0.017930938
41	0xbd16a444	-0.03677775
42	0xbcfd0b82	-0.030889276
43	0xbc739d2f	-0.014869018
44	0xbc5de458	-0.013543211
45	0xbc8c5b04	-0.017133243
46	0xbcaf81b0	-0.021424145
47	0xbd14667d	-0.036230553
48	0xbb5f0389	-0.0034029207
49	0xbcd0f691	-0.025508197
50	0xbcb4535f	-0.02201241
51	0xbcf4f5ea	-0.029902417
52	0xbcae930b	-0.02131035
53	0xbccfcdf2	-0.025366757
54	0xbc9b409f	-0.018951712
55	0xbc024a24	-0.007952247
56	0xbce6868b	-0.028140327
57	0xbc046a65	-0.008082007
58	0xbc91b2b7	-0.017785413
59	0xbc188ac9	-0.009310433
60	0xbd2e89d5	-0.042611916
61	0xbc1f3b0a	-0.009718666
62	0xbd372464	-0.04471244
63	0xbcc406a5	-0.02392895
