init/hsi_pipeline_models/hsi_denoising_pipeline.pth (torch, 839217 bytes, 41 tensors)

conv3d_extractor.branch1_conv1.weight f4 [32, 1, 3, 3, 3]
0	0x3c3cd60d	0.011525643
1	0x3e1e826f	0.15479444
2	0xbbdd5c3b	-0.0067553795
3	0xbdfa6a8f	-0.12227356
4	0xbe1c883a	-0.15286341
5	0x3dc6009b	0.09668084
6	0xbdc02e8a	-0.093838766
7	0x3e01e3f3	0.12684612
8	0x3dbac499	0.09119529
9	0x3e3435d0	0.17598653
10	0x3c3cc002	0.011520388
11	0xbe024330	-0.12720942
12	0x3dd1db9d	0.10246966
13	0x3e451937	0.192479
14	0xbd7ec33c	-0.06219791
15	0x3dbc79df	0.092029326
16	0xbd96036b	-0.07324871
17	0x3e43a5f2	0.19106272
18	0x3da64a1c	0.08119604
19	0xbdf7a82f	-0.12092625
20	0xbd01aae9	-0.031657133
21	0x3d37aafd	0.0448408
22	0xbe3a6fd3	-0.1820672
23	0xbe21529c	-0.15754169
24	0xbdea74e2	-0.11448075
25	0xbbe2c2c4	-0.0069201905
26	0x3d90529f	0.07047009
27	0xbe318e44	-0.17339426
28	0xbe0f0f26	-0.13970622
29	0x3dcfe6f1	0.101514705
30	0x3e0e7d70	0.13915038
31	0x3db85a67	0.09001618
32	0x3e2a731c	0.16645473
33	0x3dffd617	0.12492006
34	0x3e2f4838	0.17117393
35	0xbe01653d	-0.12636276
36	0x3e0369ff	0.12833403
37	0xbdf67503	-0.12034037
38	0xbd4fd921	-0.05074418
39	0x3c0f64d5	0.008752068
40	0xbe2db224	-0.16962487
41	0x3cd3da16	0.025860827
42	0x3c9247ab	0.01785644
43	0xbe2135b2	-0.1574314
44	0x3e162f8d	0.14666577
45	0x3e39ca73	0.18143634
46	0xbe1f2250	-0.15540433
47	0x3d9902cf	0.07471239
48	0x3d190ce9	0.037365828
49	0x3e46d189	0.19415869
50	0xbe158ae2	-0.14603761
51	0xbd047778	-0.032340497
52	0x3e3ee660	0.18642569
53	0x3d42e47b	0.047581177
54	0x3de7ff13	0.113279484
55	0x3e09e0d0	0.13464665
56	0xbdb46245	-0.08807806
57	0x3cf96492	0.030443463
58	0xbe430d54	-0.19048053
59	0xbdb5062c	-0.08839068
60	0x3e32113b	0.17389385
61	0x3da9dc17	0.08293932
62	0xbb5dc7b9	-0.0033840968
63	0x3e43ce58	0.19121683
64	0x3e0bd9f9	0.13657369
65	0x3e137384	0.14399534
66	0x3e3f8bd9	0.18705691
67	0xbd83139a	-0.06400223
68	0xbc9b28bd	-0.018940324
69	0x3b8780f0	0.0041352436
70	0x3ca805c5	0.020510564
71	0x3d974fe7	0.07388287
72	0x3d7244fd	0.059147824
73	0x3df167fd	0.11787412
74	0x3d2b61f5	0.041841466
75	0xbdbb966e	-0.091595516
76	0xbda5b543	-0.080912136
77	0xbddcc8b5	-0.10780469
78	0x3dae3e89	0.085080214
79	0x3b3be2ca	0.0028669112
80	0xbdb23664	-0.087017804
81	0x3e3d80f2	0.1850622
82	0x3cbf4b9b	0.023351481
83	0x3e3757da	0.17904606
84	0x3d77f1a7	0.060533192
85	0xbc666155	-0.014061292
86	0xbd828302	-0.06372644
87	0xbd940311	-0.07227147
88	0x3e1cf2df	0.15327023
89	0x3dab8c64	0.08376387
90	0x3cf3a4c5	0.029741654
91	0x3e2e6a4c	0.17032737
92	0xbdcdc7e5	-0.100478925
93	0x3e356b1a	0.17716637
94	0xbdca7fc3	-0.0988765
95	0x3d99fd6f	0.07519042
96	0xbcaab4c4	-0.020838149
97	0xbe098122	-0.13428167
98	0x3d1e1bc3	0.038600694
99	0x3e4aeb68	0.19816363
100	0x3dad23b4	0.084540755
101	0x3cc84e66	0.024451446
102	0xbe1f59e4	-0.15561634
103	0x3e3e1413	0.18562345
104	0xbe359aa6	-0.17734775
105	0x381e06f9	3.767663e-05
106	0x3e002e21	0.12517597
107	0x3d6e6945	0.05820586
108	0xbd1667b9	-0.03672001
109	0x3e0ee5ab	0.13954799
110	0x3d9a3bc3	0.0753093
111	0xbe37c9ef	-0.17948125
112	0x3cd9f65b	0.02660673
113	0xbd96cef5	-0.07363693
114	0xbe1f30a5	-0.155459
115	0x3e10f7ab	0.14156978
116	0xbcfa8acd	-0.030583763
117	0xbd7fe430	-0.062473476
118	0xba595ebf	-0.00082920113
119	0xbe1cf829	-0.1532904
120	0x3d8c948a	0.06864269
121	0x3c89709b	0.016777327
122	0x3e1fb397	0.15595852
123	0xbde187ee	-0.11012255
124	0x3d6c527b	0.057695847
125	0x3be09ee6	0.0068548797
126	0x3e106c83	0.14103894
127	0x3e1b414f	0.15161632
128	0xbe26a1ac	-0.1627261
129	0x3d96871a	0.07349987
130	0xbd4e27ca	-0.050330915
131	0xbe2ee304	-0.17078787
132	0x3bac81b9	0.0052644876
133	0x3da05f6f	0.078307025
134	0xbe484226	-0.19556484
135	0x3d9b5e9e	0.07586406
136	0x3e0b199e	0.13583991
137	0xbda855c8	-0.082194865
138	0xbe1f9ec5	-0.1558791
139	0x3dfe9898	0.12431449
140	0x3d8721f5	0.06598274
141	0x3bf8a9c9	0.0075885993
142	0x3e147510	0.14497781
143	0xbd760ab7	-0.060068812
144	0xbd42b619	-0.047536943
145	0x3e093c9d	0.13402028
146	0xbda29be3	-0.07939889
147	0xbe284df8	-0.16435993
148	0xbd6962c3	-0.056978952
149	0xbddc9234	-0.107700735
150	0xbdcf20f5	-0.10113708
151	0xbd69e378	-0.057101697
152	0xbe29102f	-0.1651008
153	0xbddf8a3a	-0.109150365
154	0x3d8407ae	0.06446777
155	0x3d09acd1	0.033612076
156	0x3d3b4c67	0.04572716
157	0xbdc17e0e	-0.09447871
158	0x3d39b159	0.045335148
159	0x3e258c4d	0.16166802
160	0xbe08cc86	-0.1335927
161	0x3dca9f54	0.09893671
162	0xbdb06dd8	-0.08614701
163	0xbe2d2271	-0.1690767
164	0x3e38c40b	0.18043534
165	0x3e39c4e6	0.18141517
166	0xbd0bad36	-0.034100734
167	0x3e30194a	0.17197147
168	0x3d04f671	0.032461587
169	0x3d46a6c0	0.04849887
170	0x3dab2893	0.08357348
171	0xbe03c711	-0.12868907
172	0xbd0ac9cc	-0.033883855
173	0x3e433506	0.19063196
174	0xbdc3b23e	-0.095554814
175	0x3dd6682f	0.1046909
176	0x3df1f4fb	0.118143044
177	0xbe31af7a	-0.17352095
178	0x3c8dc362	0.01730508
179	0xbd2aea62	-0.04172743
180	0xbdfb108a	-0.12259014
181	0x3d049a24	0.032373562
182	0xbe08ad29	-0.13347305
183	0x3e3e5036	0.18585286
184	0x3c99a143	0.018753653
185	0x3dcf8898	0.10133475
186	0x3ce9e272	0.02855036
187	0x3e1c5f40	0.1527071
188	0x3d9e797a	0.077380136
189	0xbd001b81	-0.03127623
190	0x3ccb90be	0.024849292
191	0x3d4cf70c	0.05004029
192	0x3c07988b	0.008276115
193	0xbbe908aa	-0.0071116285
194	0xbe191ba3	-0.14951949
195	0xbdc4a5fd	-0.09601972
196	0x3e32e8ca	0.17471614
197	0xbd0e884f	-0.034797963
198	0x3e0e7bbd	0.1391439
199	0xbdf3c0d3	-0.11902013
200	0xbd070690	-0.032965243
201	0xbe1edfd6	-0.15515074
202	0xbdecba1b	-0.11558934
203	0xbe303569	-0.17207874
204	0x3ba0c0d9	0.0049058017
205	0x3e14b470	0.14521956
206	0x3e06b631	0.13155438
207	0xbe2e9854	-0.17050296
208	0xbe381080	-0.17975044
209	0xbdc6da07	-0.09709554
210	0xbd1e6e39	-0.038679335
211	0x3d4ac040	0.04949975
212	0xbe4a7c8c	-0.19774073
213	0xbc74a1db	-0.0149311675
214	0xbcb6f2ba	-0.022332538
215	0xbd4e7e9a	-0.050413705
216	0xbd81da64	-0.06340483
217	0xb9d76374	-0.00041082094
218	0x3d638a0b	0.05555157
219	0xbe44edd8	-0.19231355
220	0xbd913e00	-0.07091904
221	0x3e2f779f	0.17135476
222	0xbe3e31aa	-0.18573633
223	0x3da86a32	0.0822338
224	0xbe3be93f	-0.18350695
225	0xbd8a5ea0	-0.067563295
226	0x3d646197	0.05575713
227	0x3cf0803a	0.029358018
228	0x3d6e4548	0.05817154
229	0x3e01b38d	0.1266615
230	0x3cab65b0	0.020922512
231	0xbd231146	-0.039811395
232	0xbcbcef15	-0.023063222
233	0xbe2f70ff	-0.17132948
234	0xbc93102c	-0.017952047
235	0x3e3f29fc	0.1866836
236	0xbd23c607	-0.039983775
237	0xbde79942	-0.113085285
238	0x3d9eb7e6	0.077499196
239	0x3dced6e5	0.10099582
240	0xbdf3a52d	-0.11896739
241	0xbdbf2e11	-0.09334958
242	0x3d4bb09e	0.049728982
243	0x3e322fcc	0.17401046
244	0x3e42d407	0.19026195
245	0x3de581ba	0.11206384
246	0x3e2887c1	0.16458036
247	0xbd4390d9	-0.04774556
248	0x3dca926e	0.098912105
249	0x3c375aa4	0.011191044
250	0x3d791098	0.06080684
251	0xbdd95599	-0.106120296
252	0xbd65892e	-0.056039028
253	0x3dbb8fcf	0.09158289
254	0x3defd36e	0.11710249
255	0x39d507f0	0.0004063244

conv3d_extractor.branch1_conv1.bias f4 [32]
0	0xbd426628	-0.047460705
1	0x3e0813b6	0.13288769
2	0xbd8a10de	-0.067414984
3	0xbe24b816	-0.16085848
4	0xbd8c2a1a	-0.06843968
5	0xbddf9d79	-0.109187074
6	0xbe3941b2	-0.18091467
7	0x3e0d2fe8	0.13787806
8	0xbdca4f3a	-0.098783925
9	0x3e077757	0.13229118
10	0x3e1b3d00	0.15159988
11	0x3d528cbe	0.051403753
12	0x3d9590e7	0.073030286
13	0x3c60523f	0.013691484
14	0xbe08fea9	-0.13378395
15	0xbdb2a89e	-0.087235674
16	0x3e237df2	0.15966013
17	0x3da2d5f6	0.07950966
18	0xb9db940d	-0.00041881241
19	0x3e3d51ee	0.18488285
20	0xbbf437e3	-0.0074529513
21	0x3e04285e	0.12906024
22	0x3dec996c	0.115527004
23	0xbd2b5416	-0.041828237
24	0x3dd3cae5	0.103414334
25	0x3d0056ce	0.031332783
26	0xbe215dd3	-0.15758447
27	0x3e275647	0.16341506
28	0xbe1a75d8	-0.15084016
29	0xbd438ce5	-0.04774179
30	0x3c0bc3f3	0.008530605
31	0xbd40dda3	-0.04708637

conv3d_extractor.branch1_bn1.weight f4 [32]
0	0x3f78232c	0.9692867
1	0x3f7f9b0f	0.99845976
2	0x3f7e8343	0.9941904
3	0x3f81888d	1.0119797
4	0x3f7c1ca7	0.9848122
5	0x3f7adf1d	0.97996694
6	0x3f8009cb	1.0002989
7	0x3f80298d	1.001268
8	0x3f7bd471	0.98371035
9	0x3f82a793	1.020739
10	0x3f811c38	1.0086737
11	0x3f7d21b8	0.98879576
12	0x3f80369f	1.0016669
13	0x3f804070	1.0019665
14	0x3f8172fa	1.0113213
15	0x3f7e966b	0.9944827
16	0x3f80fa2f	1.007635
17	0x3f818de0	1.0121422
18	0x3f809a79	1.0047141
19	0x3f7da626	0.9908165
20	0x3f7e160d	0.99252397
21	0x3f804efb	1.0024103
22	0x3f7905cb	0.97274464
23	0x3f80afb7	1.0053624
24	0x3f81a1fa	1.0127556
25	0x3f7fa3b7	0.99859184
26	0x3f7868ac	0.97034717
27	0x3f818bcd	1.0120789
28	0x3f7c10c9	0.9846311
29	0x3f80a5f2	1.0050642
30	0x3f7a2210	0.97708225
31	0x3f7e6784	0.993767

conv3d_extractor.branch1_bn1.bias f4 [32]
0	0xbc9af06f	-0.018913476
1	0xbbdba811	-0.0067033847
2	0xbb83d152	-0.0040227557
3	0x3bb1b13d	0.00542274
4	0xbc3917b8	-0.011297159
5	0xbbc2135b	-0.0059227175
6	0xbb79b3c7	-0.003810154
7	0x3bb25b34	0.005443001
8	0xbc818ad9	-0.015813278
9	0x3c5398a3	0.012914809
10	0x3bd1c3d0	0.0064015165
11	0xbc25bf85	-0.010116463
12	0x3a935057	0.0011239153
13	0x3b9932b2	0.004675233
14	0x3ba0c62f	0.004906438
15	0x3c15c880	0.009142041
16	0xbbb72350	-0.0055889264
17	0x3bb6e67b	0.0055816746
18	0x3b4b4b86	0.0031020357
19	0xbbce907c	-0.006303845
20	0xbba08c0b	-0.004899507
21	0x3ad452c6	0.0016198985
22	0xbca4a89d	-0.020099932
23	0x3c3b8a28	0.011446513
24	0x3c1eaeef	0.009685262
25	0x3b35fdb9	0.0027769639
26	0xbc9a4d29	-0.018835621
27	0x3ba1d802	0.00493908
28	0xbbf87c9c	-0.007583214
29	0xbb5540c4	-0.0032539824
30	0xbbc49d21	-0.0060001765
31	0xbba58315	-0.0050510266

conv3d_extractor.branch1_bn1.running_mean f4 [32]
0	0x3c850ffe	0.016242977
1	0x3e9f6361	0.31130508
2	0x3e3e8cf5	0.18608458
3	0x3e2a13b7	0.16609083
4	0xbe0f9a50	-0.1402371
5	0xbe4dd3d9	-0.20100345
6	0x3d381852	0.04494507
7	0xbe2d4cfa	-0.16923895
8	0xbe5779d2	-0.21042565
9	0x3f16581b	0.5872819
10	0x3f0079ff	0.5018615
11	0x3e18452b	0.14870135
12	0xbe933e00	-0.2875824
13	0xbe7f5daa	-0.24938074
14	0x3edbe9ab	0.42951712
15	0xbeb5576b	-0.35418257
16	0x3ec515b3	0.38493118
17	0x3e9a705a	0.30163842
18	0x3eae22fa	0.3401106
19	0x3ea75056	0.3267848
20	0xbe739823	-0.23788504
21	0x3e96ec39	0.294771
22	0x3d43aa55	0.047769863
23	0x3e92ec5d	0.28695956
24	0x3eb36d73	0.3504444
25	0xbe526067	-0.20544587
26	0xbe8fb1b2	-0.28065258
27	0x3ed16514	0.4089743
28	0xbe77dc39	-0.24205102
29	0x3e562d1b	0.20915644
30	0x3db4e49d	0.08832667
31	0xbed83c78	-0.42233634

conv3d_extractor.branch1_bn1.running_var f4 [32]
0	0x3c35ae44	0.011088911
1	0x3c98b55e	0.01864117
2	0x3d177cbc	0.03698419
3	0x3d2e7db0	0.042600334
4	0x3c8abff1	0.016937228
5	0x3c470e46	0.012149399
6	0x3d082dfb	0.033246975
7	0x3d25bbd6	0.040462337
8	0x3ca1118e	0.019661691
9	0x3d9dbc87	0.07701974
10	0x3d470927	0.048592713
11	0x3c4e0b96	0.0125760045
12	0x3d535171	0.05159134
13	0x3ce2bb79	0.027677285
14	0x3df18b96	0.11794202
15	0x3d0368fd	0.032082547
16	0x3d09fc20	0.03368771
17	0x3cacb330	0.021081537
18	0x3d75d1ae	0.06001442
19	0x3c80dc14	0.015729941
20	0x3d02f3a7	0.031970646
21	0x3c7905a0	0.015199095
22	0x3c2752de	0.010212628
23	0x3d368187	0.04455712
24	0x3ce3e3c1	0.027818562
25	0x3ce662a9	0.028123217
26	0x3c6c3ac0	0.014418304
27	0x3d1e5345	0.03865363
28	0x3cabe8bf	0.020985005
29	0x3cf60338	0.030030832
30	0x3c3ec00e	0.011642469
31	0x3d557b18	0.052119344

conv3d_extractor.branch1_conv2.weight f4 [64, 32, 3, 3, 3]
0	0x3ccd87ba	0.025089134
1	0xbc3f2746	-0.011667078
2	0x3b8c829e	0.0042880317
3	0x3c28683c	0.010278758
4	0xbbf7ca00	-0.007561922
5	0x3a0fecdf	0.00054903136
6	0xbb09a463	-0.0021002523
7	0x3b91d3dc	0.0044503044
8	0xbc2437fa	-0.0100231115
9	0xbcba05ce	-0.022707846
10	0xbc3f3da0	-0.011672407
11	0x3c6520f2	0.013984906
12	0x3ce5705e	0.028007682
13	0x3ccebfe7	0.02523799
14	0x3ca4e3b8	0.020128116
15	0x3cbf1469	0.023325162
16	0xbbc47775	-0.0059956857
17	0xbc028930	-0.007967278
18	0xbce28657	-0.027651949
19	0xbd07712b	-0.03306691
20	0x3b82320e	0.003973252
21	0xbccc642b	-0.024950108
22	0xbc0b0890	-0.008485928
23	0xbbab2a21	-0.005223528
24	0xbcce9e2d	-0.025221908
25	0xbb88a27a	-0.0041697593
26	0x3cde28e6	0.027119111
27	0x3cc49259	0.023995565
28	0xbcd90984	-0.026493795
29	0x3ce55c23	0.027998036
30	0x3cce589e	0.02518874
31	0xbc62722a	-0.013821164
32	0x3d1e72a5	0.038683552
33	0xb9fb7092	-0.00047958322
34	0x3cc09a66	0.023511123
35	0xbc927a92	-0.017880712
36	0xbc8ce0f8	-0.017197117
37	0xbc841e03	-0.016127592
38	0xbb0273b0	-0.001990538
39	0x3cec188d	0.0288203
40	0xbccd3c13	-0.02505306
41	0xbb48933c	-0.0030605337
42	0xbbbd7e5f	-0.005782887
43	0x3c8de89d	0.017322833
44	0x3cb3d19c	0.021950535
45	0xbc86c45e	-0.016451057
46	0x3c989278	0.01862453
47	0x3bac5ece	0.005260325
48	0x3c6d8cf1	0.014498935
49	0xbca5025a	-0.020142723
50	0x3c703a7c	0.014662381
51	0x3caf5b10	0.021405727
52	0x3cd7390a	0.026272316
53	0xbb571508	-0.0032818932
54	0x3cabf7ac	0.020992123
55	0xbc31351b	-0.010815884
56	0xbc288100	-0.010284662
57	0xbc94979b	-0.018138697
58	0xb9b87133	-0.00035179555
59	0xbc5889ab	-0.013216416
60	0xbc2fb2ad	-0.010723752
61	0xbca911da	-0.020638395
62	0xbc63de98	-0.013908051
63	0x3b97ad51	0.004628815
64	0x3cbe13c4	0.023202784
65	0xbc86cac5	-0.01645411
66	0x3c26b68d	0.010175359
67	0xbce4e160	-0.027939498
68	0xbc8d5bcb	-0.017255684
69	0x3b002576	0.0019553578
70	0x3d047f01	0.032347683
71	0xbca383e8	-0.019960359
72	0x3b49cdb4	0.0030792775
73	0x3cf62a31	0.030049415
74	0x3b38a7f3	0.0028176277
75	0x3c547cac	0.012969177
76	0xbcc7ff3c	-0.024413697
77	0x3cf59d3c	0.029982202
78	0x3b6353ed	0.0034687475
79	0xbcb4836f	-0.022035329
80	0x3d0d1e5b	0.034452777
81	0xbc8e1c2d	-0.01734742
82	0xbcb5c3d6	-0.022188108
83	0xbb14cae5	-0.0022703942
84	0x3ca7449d	0.02041846
85	0xbca42a4f	-0.020039706
86	0x3c20beb0	0.009811088
87	0xbcef4740	-0.02920878
88	0x3cbf4aed	0.023351157
89	0xbcc2a8ac	-0.02376207
90	0xbbcf570b	-0.006327515
91	0x3c913195	0.017723838
92	0x3a973c45	0.0011538347
93	0x3aeabc88	0.001790897
94	0x3d08c173	0.033387613
95	0x3cf5f1be	0.030022498
96	0x3b346cb9	0.0027530624
97	0x3d01b13e	0.031663172
98	0x3c8a5372	0.016885493
99	0x3d077c78	0.033077687
100	0xbc40c966	-0.011766767
101	0x3cc42347	0.023942603
102	0xbcc71c05	-0.024305353
103	0x39ba0e53	0.00035487357
104	0x3cfe2e88	0.031028047
105	0x3cf3a3ba	0.029741157
106	0x3cb53a42	0.022122506
107	0x3cb1ff99	0.021728324
108	0xbc99bc74	-0.01876662
109	0xbd16cda3	-0.036817204
110	0x3be48b5e	0.0069746217
111	0xbd176914	-0.036965445
112	0xbbe4edbb	-0.0069863475
113	0x3cc460ef	0.023972003
114	0xbbdfee9e	-0.0068338653
115	0xbc1b734d	-0.009487939
116	0x3c3a803a	0.011383111
117	0xbd1d01cd	-0.038331795
118	0xbc34e807	-0.011041648
119	0x3c897220	0.016778052
120	0xbd0f0e5b	-0.0349258
121	0x3cd8bd94	0.026457585
122	0xbcd52767	-0.026019765
123	0xbc72c487	-0.014817364
124	0xbcaac0fb	-0.020843973
125	0xbc51baa3	-0.012800845
126	0x3b9b600b	0.004741674
127	0x3caaa8f0	0.020832509
128	0xbc93b65a	-0.018031288
129	0x3c5722fb	0.013130899
130	0xbd1707fe	-0.036872856
131	0xbb32e372	-0.0027296213
132	0xbd0f58fc	-0.03499697
133	0xbc8fe07f	-0.017563103
134	0xbcb17c8f	-0.02166584
135	0xbc8e844a	-0.017397065
136	0xbb98b387	-0.004660073
137	0xbcae4e4a	-0.021277566
138	0xbd1034ca	-0.035206594
139	0x3c9cb12f	0.019127456
140	0xbb7b898d	-0.0038381547
141	0x3bf22e8f	0.007390804
142	0xbb5d9bd2	-0.00338148
143	0xbbb15426	-0.0054116426
144	0xbc83ec45	-0.016103873
145	0xbcf5a16b	-0.029984197
146	0xbc7486a2	-0.014924677
147	0xbd35c1b4	-0.044374183
148	0xbcaff85d	-0.021480734
149	0x3b27ea9e	0.002562202
150	0x3c974539	0.018465625
151	0x3c95d7b0	0.018291324
152	0xbd14546b	-0.03621332
153	0x3c355402	0.011067392
154	0x3c3495d3	0.011022049
155	0xbd0911ed	-0.03346436
156	0xbd3fbbcc	-0.046809956
157	0x3b43defe	0.0029887552
158	0x3c1abc55	0.009444316
159	0x3c1c52de	0.009541241
160	0x3c982c98	0.018575951
161	0xbd077750	-0.03307277
162	0x3be5e670	0.0070159957
163	0x3d03d6df	0.03218734
164	0x3b86b457	0.0041108537
165	0x3d170f9b	0.036880117
166	0x3d124c54	0.035717323
167	0x3ca16de4	0.01970572
168	0xbcdc4c1e	-0.026891764
169	0x3c46e409	0.012139329
170	0xbc5a2616	-0.013314744
171	0xbcce9eff	-0.0252223
172	0xbc4bb307	-0.01243282
173	0x3c4597cc	0.012060117
174	0xbce650c0	-0.028114676
175	0xbc88ac1c	-0.01668363
176	0x3cae8f78	0.021308646
177	0x3c4373bd	0.01192945
178	0x3d053c98	0.03252849
179	0xbc82715d	-0.015923196
180	0xbc12e05e	-0.008964626
181	0x3ba57648	0.0050495006
182	0xbc0c9d92	-0.00858249
183	0xbc99f51e	-0.018793639
184	0xbc921a91	-0.017834933
185	0xba689a53	-0.0008873094
186	0x3b30b40b	0.0026962783
187	0xbcb70267	-0.022340013
188	0x3cc5ffc5	0.024169812
189	0xbb55fb4c	-0.0032651005
190	0xbc3306ca	-0.010926912
191	0xbbc12c57	-0.0058951783
192	0xbd6085fb	-0.054815274
193	0x3bef650e	0.007305748
194	0x3b8491b3	0.004045689
195	0xbb218610	-0.0024646558
196	0xbd16f540	-0.036854982
197	0xbc345a29	-0.011007824
198	0x3ab09897	0.001347321
199	0xbc1aba6f	-0.009443863
200	0x3c6cdf7f	0.0144575825
201	0xbb6edb46	-0.0036446615
202	0xbc44f4bc	-0.01202124
203	0xbc4803f6	-0.012207976
204	0xbbb12fa6	-0.0054072915
205	0x3c81d2f9	0.01584767
206	0xbc072556	-0.008248648
207	0xbb7fe00a	-0.003904345
208	0xbc6e3fc8	-0.014541574
209	0xbcee8374	-0.029115416
210	0xbd261247	-0.040544774
211	0x3c3adb05	0.011404757
212	0x3c2a80c5	0.010406678
213	0xbd2ff94c	-0.042962357
214	0xbb3206e9	-0.0027164763
215	0xbad47391	-0.0016208758
216	0x3ce410ad	0.027839983
217	0xbc8f0d5b	-0.017462423
218	0x3ab95f3e	0.0014142764
219	0xbceb57b9	-0.028728353
220	0xbc284090	-0.010269299
221	0x3cd86bbe	0.026418563
222	0x3cc33e8b	0.023833534
223	0x3c699bea	0.014258364
224	0x3ccd8487	0.025087608
225	0xbd2d5af3	-0.042323064
226	0x3c502313	0.012703675
227	0x3cc49d94	0.02400092
228	0xbcf106ba	-0.029422153
229	0xbc8acf63	-0.016944593
230	0xbd1c5698	-0.03816852
231	0x3b9bc3d3	0.0047535687
232	0xbca99d13	-0.020704782
233	0xbd0a69af	-0.033792194
234	0x3ca25fd4	0.019821085
235	0xbc61a776	-0.013772836
236	0xbb9fcd59	-0.0048767743
237	0xbc9ed21d	-0.0193873
238	0x3c910652	0.01770321
239	0xbcd7758e	-0.026301172
240	0xbd235a06	-0.039880775
241	0x3c3f221b	0.011665846
242	0x3c5ef63b	0.013608511
243	0xbcbec8bd	-0.023289079
244	0xbca3a1cd	-0.019974614
245	0x3d05a92d	0.03263204
246	0xbbe257b0	-0.006907426
247	0xbc823be3	-0.015897697
248	0x3cd16d68	0.025564864
249	0xbc3b19a6	-0.011419689
250	0xbcb49b7a	-0.022046793
251	0x3cb37eaa	0.021910984
252	0x3c649603	0.013951781
253	0xbb7aa397	-0.003824448
254	0xbcb93d7e	-0.02261233
255	0x3cd6b93f	0.02621138

conv3d_extractor.branch1_conv2.bias f4 [64]
0	0x3cdd4658	0.027011082
1	0xbcc7e389	-0.02440049
2	0x3ce7fdb5	0.02831922
3	0xbd1ac5b9	-0.03778622
4	0x3ae6318c	0.0017562374
5	0xbcc685aa	-0.024233658
6	0x3c9b1748	0.018932
7	0xbc92f514	-0.017939128
8	0x3b291c84	0.002580435
9	0xbce8c866	-0.02841587
10	0xbbcf14f5	-0.006319637
11	0xbb8c4e77	-0.0042818147
12	0x3c719462	0.01474485
13	0x3afc7dc1	0.0019263552
14	0x3d01ac15	0.03165825
15	0x3cdc0c16	0.026861232
16	0xbc9260ba	-0.017868388
17	0xbc8ad9b5	-0.016949514
18	0xbb0c233f	-0.0021383313
19	0x3c0b2d43	0.008494678
20	0xbcf18333	-0.029481506
21	0xbc8f9447	-0.017526759
22	0xbc13866b	-0.009004216
23	0x3c52bd8a	0.012862572
24	0x3ce44e6c	0.027869426
25	0xbcc797b7	-0.024364335
26	0xbc7d4b81	-0.015459896
27	0xbccd4fb3	-0.025062418
28	0x3a5cf18e	0.00084283284
29	0xbcc85321	-0.024453701
30	0x3b656fc2	0.003500924
31	0x3c9ca55d	0.01912182
32	0xba85f6a8	-0.0010220604
33	0xbc8c6d64	-0.017142005
34	0xbc9e6902	-0.019337181
35	0xbca3c84a	-0.019992966
36	0xbc7bdddb	-0.015372719
37	0x3c6da6fa	0.014505142
38	0xbc88b80b	-0.016689321
39	0xbac6378f	-0.0015122759
40	0x3c59258c	0.013253581
41	0x3d2b82f5	0.041872937
42	0xbbfc0793	-0.0076913326
43	0x3c260eb8	0.010135345
44	0xbd02b0e0	-0.031906962
45	0x3c62b6c5	0.013837521
46	0x3bcc47b8	0.0062341355
47	0x3c9f7a63	0.019467538
48	0xba0c4a05	-0.0005351606
49	0x3c4ebde1	0.012618513
50	0xbc4f082c	-0.012636226
51	0xbd14322c	-0.03618066
52	0x3c0481ce	0.0080875885
53	0xbc5fe32e	-0.013665004
54	0xbc62f501	-0.013852359
55	0xbc279247	-0.010227746
56	0xb909b146	-0.00013131378
57	0x3b2a05e5	0.0025943455
58	0x3d1ac32a	0.03778378
59	0x3cca2cc9	0.024679558
60	0x3cb36302	0.021897797
61	0x3c0b036e	0.008484704
62	0xbbb49d49	-0.005511914
63	0x3c9d4be4	0.019201227

conv3d_extractor.branch1_bn2.weight f4 [64]
0	0x3f76675b	0.9625146
1	0x3f7968e0	0.9742565
2	0x3f80de49	1.0067836
3	0x3f7c9267	0.9866089
4	0x3f7a1bd2	0.976987
5	0x3f7825b2	0.9693252
6	0x3f7eafcb	0.9948699
7	0x3f787dfb	0.9706723
8	0x3f77dee5	0.96824485
9	0x3f7fb871	0.9989081
10	0x3f776e8b	0.9665305
11	0x3f77fb9f	0.9686832
12	0x3f7eb429	0.9949365
13	0x3f791ed0	0.9731264
14	0x3f7bd77d	0.98375684
15	0x3f7b4c3e	0.9816321
16	0x3f7c5c54	0.9857838
17	0x3f7cb9cc	0.98721004
18	0x3f7ea2da	0.9946724
19	0x3f790b3b	0.9728276
20	0x3f790105	0.9726718
21	0x3f7d8141	0.9902535
22	0x3f7d8c7a	0.99042475
23	0x3f795b81	0.9740525
24	0x3f7940f6	0.9736475
25	0x3f7c91df	0.9866008
26	0x3f7a5ae8	0.9779496
27	0x3f7c2b7d	0.9850386
28	0x3f762b76	0.96160066
29	0x3f79c219	0.97561795
30	0x3f795d81	0.974083
31	0x3f7878bc	0.97059226
32	0x3f7aee6f	0.9802007
33	0x3f7638dc	0.9618051
34	0x3f7fb418	0.99884176
35	0x3f7b0852	0.9805957
36	0x3f7b1991	0.98085886
37	0x3f782480	0.96930695
38	0x3f7a5643	0.97787875
39	0x3f77cf7b	0.96800965
40	0x3f7b9c9d	0.9828585
41	0x3f7c56bb	0.9856984
42	0x3f7960c0	0.97413254
43	0x3f7908d8	0.9727912
44	0x3f7c72b0	0.986125
45	0x3f7cf8ab	0.9881694
46	0x3f7b8674	0.98252034
47	0x3f7b5767	0.9818024
48	0x3f7cda6e	0.987708
49	0x3f763f35	0.96190196
50	0x3f7c88c3	0.9864618
51	0x3f7ad429	0.9797998
52	0x3f7aed03	0.980179
53	0x3f79dd3b	0.97603196
54	0x3f7d58a6	0.9896339
55	0x3f7b74e0	0.9822521
56	0x3f7c2363	0.98491496
57	0x3f7a233c	0.97710013
58	0x3f798dba	0.9748188
59	0x3f7a6ba5	0.978205
60	0x3f7cd5d0	0.9876375
61	0x3f76e49e	0.9644259
62	0x3f7cd9f4	0.9877007
63	0x3f774406	0.9658817

conv3d_extractor.branch1_bn2.bias f4 [64]
0	0xbcd1ef02	-0.025626663
1	0xbca721f1	-0.020401927
2	0x3c2bd3e2	0.0104875285
3	0xbc05472f	-0.008134647
4	0xbcb73542	-0.022364262
5	0xbd05abee	-0.032634668
6	0xbb461c9c	-0.0030229455
7	0xbd083292	-0.033251353
8	0xbcede652	-0.02904049
9	0x3c096e2c	0.008388083
10	0xbcf75f0a	-0.030196685
11	0xbcb0faf6	-0.021604043
12	0xbb62856c	-0.003456439
13	0xbceac773	-0.028659558
14	0xbc393bdb	-0.011305775
15	0xbc560e0e	-0.013064874
16	0xbc323da9	-0.010878959
17	0xbc0f6239	-0.008751445
18	0xbb314757	-0.0027050579
19	0xbcef238d	-0.029191757
20	0xbcb6160f	-0.022227315
21	0xbbd4f28f	-0.006498642
22	0xbbe50218	-0.006988775
23	0xbc9b9295	-0.018990794
24	0xbc8b8f3a	-0.01703607
25	0xbc47936f	-0.012181147
26	0xbca2326a	-0.01979943
27	0xbc1ff1dd	-0.009762255
28	0xbce052ad	-0.027383173
29	0xbcbd2db0	-0.023093075
30	0xbc908959	-0.017643617
31	0xbd075187	-0.033036735
32	0xbc428db6	-0.011874607
33	0xbcfdd9da	-0.030987669
34	0x3b3e57b2	0.002904397
35	0xbc7804f0	-0.015137896
36	0xbc8a1d7c	-0.016859762
37	0xbd1ed58e	-0.03877788
38	0xbcc9d5b2	-0.02463803
39	0xbd083e2d	-0.03326242
40	0xbc8d75d7	-0.017268104
41	0xbc4bdd9b	-0.012442972
42	0xbcefc5e4	-0.029269166
43	0xbd0fc020	-0.035095334
44	0xbc2ca239	-0.010536724
45	0xbc0b9218	-0.008518718
46	0xbc1baab5	-0.009501149
47	0xbc883ef1	-0.016631575
48	0xbc42bec0	-0.011886299
49	0xbd416dd5	-0.047223885
50	0xbc290b96	-0.010317704
51	0xbc54c910	-0.01298739
52	0xbca97390	-0.020684987
53	0xbcd0beb6	-0.025481563
54	0xb9e3ba93	-0.00043435823
55	0xbbc3a550	-0.0059706345
56	0xbc5b29b1	-0.013376639
57	0xbca7b4d5	-0.02047197
58	0xbc8c3718	-0.017116114
59	0xbc9fcb92	-0.01950625
60	0xbc355113	-0.011066693
61	0xbd1d56c2	-0.038412817
62	0xbc5425f9	-0.0129485065
63	0xbcef6483	-0.029222732

conv3d_extractor.branch1_bn2.running_mean f4 [64]
0	0xbed49e1a	-0.41526872
1	0xbf15c4d9	-0.5850349
2	0xbf805e39	-1.0028754
3	0xc0001eb5	-2.0018742
4	0xbfa3de00	-1.2802124
5	0xbfba6e1d	-1.4564854
6	0xbfe7f734	-1.8122315
7	0xbe8d819f	-0.27637956
8	0xbfb0489b	-1.3772157
9	0xbf810969	-1.0080997
10	0xbe98552c	-0.2975248
11	0x3e6a8207	0.22901164
12	0xbfb5f1a7	-1.4214371
13	0xbf8e63fc	-1.1124263
14	0xbed03763	-0.40667257
15	0xbf808308	-1.0039988
16	0xbf58eb62	-0.84734166
17	0x3f1e3779	0.61803395
18	0xbf3a26f4	-0.7271569
19	0xbfb3ccaa	-1.4046834
20	0xbfd98be8	-1.6995821
21	0xbfba80ca	-1.4570553
22	0xbf9176a6	-1.1364334
23	0x3d0de300	0.034640312
24	0xbf16da8a	-0.58927214
25	0xbe73f933	-0.2382553
26	0x3f8c55ca	1.0963681
27	0xbed4ff83	-0.4160119
28	0xbf148975	-0.5802224
29	0xbf9b7116	-1.2143886
30	0x3f4a1516	0.78938425
31	0xbf467ee0	-0.77537346
32	0xbc5fef41	-0.013667882
33	0x3f902ca3	1.1263622
34	0xbfdf9623	-1.7467693
35	0xbfa33fbf	-1.2753829
36	0xbf41eff2	-0.7575675
37	0xbf5231f8	-0.82107496
38	0xbf5b33ba	-0.85625803
39	0xbf936021	-1.1513711
40	0xbefba951	-0.49152616
41	0xbfb0c150	-1.3808994
42	0xbfdbe4d7	-1.7179211
43	0xbfa67ca0	-1.3006783
44	0xbfa20da0	-1.2660408
45	0xbf93f0fb	-1.1557916
46	0x3e658a41	0.22416021
47	0xbfcadfcd	-1.5849549
48	0x3f078414	0.5293591
49	0xbf78990d	-0.97108537
50	0xbecbc057	-0.3979518
51	0xbfd2f98d	-1.6482407
52	0xbf6ec32c	-0.9326656
53	0xbfd30bcd	-1.6487976
54	0xbfb6af9e	-1.4272344
55	0xbf167f4f	-0.5878801
56	0xbf8a093e	-1.078407
57	0xbf9afb9c	-1.2108035
58	0x3ecb3b0f	0.39693496
59	0xbf21c112	-0.63185227
60	0x3db0d8d3	0.08635106
61	0xbf8bbb3c	-1.0916514
62	0xbde91d18	-0.11382502
63	0xbeff4eab	-0.49864706

conv3d_extractor.branch1_bn2.running_var f4 [64]
0	0x40359a0e	2.8375278
1	0x40494c74	3.1452913
2	0x40b0eea9	5.5291333
3	0x40cf62ec	6.4808254
4	0x40a53f4d	5.163977
5	0x40975548	4.7291603
6	0x40e6f8e5	7.2178826
7	0x3ff5004d	1.9140717
8	0x40ce7ea7	6.4529605
9	0x40c1b124	6.0528736
10	0x4043b7aa	3.058085
11	0x405c63b1	3.4435847
12	0x40cbb376	6.365657
13	0x40695410	3.6457558
14	0x401115c7	2.2669542
15	0x4097d1fe	4.744384
16	0x4022a350	2.5412178
17	0x4067182c	3.6108503
18	0x409696e0	4.7059174
19	0x40922726	4.567279
20	0x40ae2cee	5.4429846
21	0x406347cf	3.5512578
22	0x407801d5	3.8751118
23	0x4074ae05	3.8231213
24	0x3f54dbdf	0.83147997
25	0x401bad42	2.4324498
26	0x4015f849	2.3432791
27	0x402e13b0	2.7199516
28	0x4024546b	2.5676525
29	0x4023c127	2.558664
30	0x3f9b0cdf	1.2113303
31	0x4084c3b2	4.1488886
32	0x4064e769	3.5766242
33	0x404a6a62	3.162743
34	0x40fb6f67	7.857349
35	0x4006382a	2.097178
36	0x4024f47f	2.5774229
37	0x3fb32edf	1.3998679
38	0x4063dca5	3.560342
39	0x3fe546a1	1.7912179
40	0x3fe4d037	1.7876042
41	0x40701f83	3.7519233
42	0x408e5c83	4.448793
43	0x4067e3ce	3.623279
44	0x4079053b	3.8909442
45	0x409f1803	4.971681
46	0x40a9d91b	5.307752
47	0x406c6a3d	3.6939843
48	0x40044e04	2.0672617
49	0x4012d872	2.2944608
50	0x3fe35a5c	1.776195
51	0x409aef41	4.841706
52	0x3f68e181	0.9096909
53	0x3fbbc860	1.4670525
54	0x40da66e2	6.825059
55	0x4035be5d	2.8397439
56	0x40654c0b	3.5827663
57	0x4090715e	4.513839
58	0x408eada7	4.458698
59	0x3ff5e395	1.9210078
60	0x40098f0c	2.149356
61	0x40908b01	4.5169683
62	0x4072a35a	3.7912202
63	0x3fe018c3	1.7507557

conv3d_extractor.branch2_conv1.weight f4 [32, 1, 3, 3, 3]
0	0x3d08045d	0.033207286
1	0xbe197972	-0.14987734
2	0x3d8ce849	0.068802424
3	0x3cea4e9d	0.028601939
4	0xbe191374	-0.14948827
5	0x3d9ce157	0.07660168
6	0xbe0c61df	-0.1370921
7	0xbe3ca63d	-0.1842279
8	0x3deb8625	0.115001954
9	0x3d7a0aa9	0.061045323
10	0xbd75a1bc	-0.059968695
11	0xbcf45e79	-0.029830204
12	0xbdb981cf	-0.09057962
13	0x3c7cd4fa	0.015431637
14	0xbe281c4d	-0.16417046
15	0x3df40b72	0.119162455
16	0xbe30e823	-0.17276053
17	0xbe24edcc	-0.16106337
18	0xbe2ea9a0	-0.17056894
19	0x3bcad31e	0.006189718
20	0x3cdb5cf1	0.026777716
21	0x3d9577e6	0.072982594
22	0xbe0b41fd	-0.13599391
23	0x3cf12be3	0.029439872
24	0x3e11a673	0.14223652
25	0xbe291637	-0.1651238
26	0xbe21c4d1	-0.15797736
27	0xbcb625e7	-0.02223487
28	0xbd5464e3	-0.051854026
29	0xbd31359b	-0.043264013
30	0xbd7d26ac	-0.06180446
31	0x3e01c9f1	0.12674691
32	0x3cc563d1	0.024095448
33	0xbe40d6be	-0.18831918
34	0x3d90cc08	0.07070166
35	0xbd05f9a3	-0.032708775
36	0xbd8816b4	-0.06644955
37	0xbe077d05	-0.13231285
38	0xbe010e34	-0.12603074
39	0x3db3b0ee	0.08773981
40	0x3cbea4f8	0.023272023
41	0x3e215f76	0.15759072
42	0xbe53d936	-0.20688328
43	0xbdd5748a	-0.10422619
44	0xbe38b28b	-0.18036859
45	0xbcb95612	-0.02262405
46	0xbe24d8be	-0.16098306
47	0x3db3140a	0.087440565
48	0xbd47a40b	-0.048740428
49	0xbd91d859	-0.07121343
50	0x3c3a7054	0.01137932
51	0x3dffdac6	0.124928996
52	0xbde5045e	-0.111824736
53	0x3db66892	0.08906664
54	0x3e326515	0.17421372
55	0x3bc8206b	0.00610738
56	0x3caebd7f	0.021330593
57	0x3d06b486	0.032887004
58	0xbe25b763	-0.16183238
59	0xbd713ff5	-0.058898885
60	0xbd015c82	-0.031582363
61	0xbb98b333	-0.004660034
62	0xbe13eba1	-0.14445354
63	0xbd570c9d	-0.052502263
64	0xbe1531c4	-0.14569765
65	0xbca79bf9	-0.020460116
66	0x3c2ae0b6	0.010429552
67	0xbd2bb5ec	-0.04192154
68	0xbe0c2ce6	-0.13689002
69	0x3e145dc2	0.14488891
70	0x3d8a850d	0.06763659
71	0xbd661c2c	-0.05617921
72	0xbdf92fe9	-0.12167341
73	0xbced1939	-0.028942691
74	0xbe4b6f97	-0.19866787
75	0xbde3be2d	-0.111202575
76	0xbd59c945	-0.05317046
77	0x3e232e6f	0.15935682
78	0x3deb9881	0.11503697
79	0x3dec3f78	0.11535543
80	0xbdbee0d6	-0.09320228
81	0xbe0ffdb2	-0.14061621
82	0x3e40a5f8	0.18813312
83	0xbd20b993	-0.039239477
84	0x3e29a1d4	0.16565639
85	0xbdfab7c5	-0.122420825
86	0x3d157834	0.036491588
87	0xbe3fe120	-0.18738222
88	0xbd5e4d47	-0.054272916
89	0xbe11d640	-0.14241886
90	0x3d35ee6e	0.044416837
91	0x3e0772ec	0.13227433
92	0xbd01e779	-0.03171489
93	0x3d550d10	0.05201441
94	0x3e0257b3	0.12728767
95	0xbda3a887	-0.079911284
96	0xbd05498a	-0.032540835
97	0xbe3814c0	-0.17976665
98	0xbda9a187	-0.08282762
99	0xbd88bb44	-0.06676343
100	0x3e30838a	0.17237678
101	0x3ca9f506	0.02074672
102	0xbd0e5004	-0.034744278
103	0x3b95d98c	0.0045730527
104	0xbe1a6400	-0.1507721
105	0x3d816c21	0.06319452
106	0x3d73520d	0.05940442
107	0x3e3b2faf	0.18279909
108	0x3d93a303	0.072088264
109	0xbdb09f1c	-0.08624098
110	0xbe340f0e	-0.17583868
111	0xbdaf6d75	-0.08565799
112	0x3d3d9bc9	0.046291146
113	0xbc308509	-0.010773906
114	0x3e3aabdc	0.18229622
115	0x3e0962f9	0.13416661
116	0xbde261f4	-0.11053839
117	0x3e046870	0.12930465
118	0xbd997044	-0.07492116
119	0x3e1ffc4d	0.15623589
120	0xbd4966b0	-0.049170196
121	0xbe2f4165	-0.1711479
122	0x3e00b18a	0.12567726
123	0x3d9e6302	0.07733728
124	0x3dfaa196	0.12237851
125	0x3ddbd84d	0.107346155
126	0x3da4dd0c	0.08049974
127	0x3e036f88	0.12835515
128	0x3e0889b6	0.13333783
129	0xbe267dca	-0.16258922
130	0xbd990a84	-0.07472709
131	0xbddd8ebe	-0.108182415
132	0xbe2578ef	-0.16159414
133	0x3d6eca32	0.058298297
134	0x3d468a40	0.04847169
135	0x3d3feb4c	0.046855256
136	0x39bc9ce9	0.00035975061
137	0x3c7b1be2	0.015326472
138	0x3c9ff1e5	0.019524524
139	0xbc9b2a7a	-0.018941153
140	0x3d7f78c5	0.062371034
141	0xbe08d3c5	-0.13362034
142	0xbc7e9410	-0.015538231
143	0xbe106ba9	-0.14103569
144	0xbdf96643	-0.12177708
145	0x3dd140f1	0.10217465
146	0x3e1e5210	0.15460992
147	0xbe42ffe0	-0.19042921
148	0x3d237f45	0.039916296
149	0xbdf7b783	-0.12095549
150	0xbdda6f8a	-0.10665806
151	0x3df10e67	0.11770325
152	0xbe18aead	-0.14910384
153	0x3e252cb6	0.16130337
154	0x3e1ff18b	0.15619485
155	0xbdb88f4b	-0.09011706
156	0xbe20ce56	-0.15703711
157	0x3c16c6c5	0.009202664
158	0xbc9bca8b	-0.019017478
159	0x3d55e85b	0.052223545
160	0xbe2e6065	-0.17028959
161	0x3e10ba93	0.14133672
162	0x3e278c46	0.16362104
163	0xbe0f7db7	-0.140128
164	0xbdc226a7	-0.094800286
165	0xbe07dd69	-0.13268055
166	0x3e0acbea	0.1355435
167	0x3cf3f373	0.029779172
168	0xbdd93ae0	-0.10606933
169	0xbe286cb8	-0.16447723
170	0x3e416b28	0.18888533
171	0x3ce25795	0.027629653
172	0xbd38e544	-0.04514052
173	0xbcca9ae8	-0.024732068
174	0x3db2ab99	0.08724136
175	0x3e43ad23	0.19109015
176	0x3e5049f5	0.20340712
177	0xbbf0310e	-0.0073300665
178	0xbd87668e	-0.06611358
179	0x3c4851ad	0.012226504
180	0x3d90f611	0.070781834
181	0x3d1cff82	0.03832961
182	0x3dabf42a	0.0839618
183	0xbd1f440d	-0.038883258
184	0x3e2f519e	0.17120978
185	0x3e3ee0d7	0.18640457
186	0x3d08d298	0.033403963
187	0xbd14402a	-0.036194004
188	0xbe064faf	-0.13116334
189	0xbdcb2a3b	-0.09920164
190	0x3d9676d4	0.073468834
191	0x3cb120ed	0.021622146
192	0xbdff5737	-0.12467807
193	0xbe386699	-0.18007888
194	0x3d7a70c3	0.061142694
195	0xbe1edbd8	-0.15513551
196	0x3e0fcfaa	0.14044061
197	0xbd39cd01	-0.045361523
198	0x3e2ea3cc	0.17054671
199	0x3d502020	0.050811887
200	0xbdcad3f0	-0.09903705
201	0xbcb59a72	-0.022168372
202	0xbdc279aa	-0.09495862
203	0xbc2fadef	-0.010722621
204	0x3d11bac2	0.035578497
205	0x3d5adb90	0.053432047
206	0x3df74303	0.12073328
207	0xbdf57d77	-0.11986821
208	0x3db1f576	0.08689396
209	0x3da9067f	0.08253192
210	0xbcb567f9	-0.022144305
211	0xbd931812	-0.071823254
212	0xbd9c233c	-0.07623908
213	0xbe17f59f	-0.14839791
214	0x3e087e7c	0.133295
215	0xbdd26b73	-0.102744006
216	0x3df2bd1e	0.118524775
217	0xbdbb8717	-0.09156626
218	0x3e32d449	0.17463793
219	0x3d81395f	0.06309771
220	0xbd1071a5	-0.03526463
221	0x3cf63457	0.030054254
222	0xbc892166	-0.016739558
223	0xbc27e9b2	-0.010248588
224	0x3e02c82b	0.1277167
225	0x3d49b551	0.049245182
226	0x3e1cec93	0.15324621
227	0xbc425cdd	-0.011862961
228	0xba8a5177	-0.0010552843
229	0x3d7dea91	0.061991278
230	0xbd8a4b04	-0.06752589
231	0x3dd3d66c	0.10343632
232	0xbe2a1713	-0.16610365
233	0xbe270317	-0.16309772
234	0x3dc420f3	0.09576597
235	0x3e311fd1	0.17297293
236	0x3cbb5e4c	0.022872113
237	0x3d3a3786	0.045463108
238	0x3cf41573	0.029795384
239	0xbdd9789d	-0.10618708
240	0x3e074185	0.13208587
241	0xbd49f97f	-0.049310204
242	0x3d030d6f	0.031995233
243	0xbe248ea6	-0.16070041
244	0x3c585339	0.013203436
245	0xbd19b490	-0.037525713
246	0x3dfea1e8	0.12433225
247	0xbdcd81c7	-0.10034519
248	0x3d95d2b9	0.07315583
249	0x3de91069	0.11380083
250	0x3d07b498	0.033131212
251	0xbe096ad4	-0.13419658
252	0xbc95421d	-0.018220002
253	0xbde1d769	-0.11027414
254	0xbb76d152	-0.0037661386
255	0xbe22980c	-0.15878314

conv3d_extractor.branch2_conv1.bias f4 [32]
0	0x3d13fa43	0.03612734
1	0xbe32875f	-0.17434452
2	0xbc3960f8	-0.011314623
3	0x3d8cde0f	0.06878292
4	0xbe36f663	-0.17867427
5	0xbdfe2c30	-0.12410772
6	0xbe2cf0fb	-0.16888802
7	0x3e3a9e6e	0.18224499
8	0x3defd0d5	0.117097534
9	0xbdbbcb1c	-0.091695994
10	0xbb44406d	-0.0029945627
11	0xbd32422f	-0.04352015
12	0xbdcd40af	-0.10022103
13	0xbe2054f0	-0.15657401
14	0xbd9c91e3	-0.07645013
15	0x3de4f407	0.11179357
16	0x3d1688a5	0.036751408
17	0xbe43f8b8	-0.19137847
18	0x3d8f672b	0.070020996
19	0xbe07efa8	-0.13275015
20	0xbd146763	-0.03623141
21	0x3d64ab0c	0.055827186
22	0x3d2e5e17	0.0425702
23	0x3e16db5d	0.14732118
24	0xbe008c0b	-0.12553422
25	0x3e05caf5	0.13065703
26	0xbe3dfda5	-0.18553789
27	0x3cbd25a9	0.023089247
28	0x3de4283c	0.111404866
29	0x3e0d286a	0.13784948
30	0xbdac53a9	-0.084143944
31	0x3c64bb61	0.01396069

conv3d_extractor.branch2_bn1.weight f4 [32]
0	0x3f8121b7	1.0088414
1	0x3f80dfa7	1.0068253
2	0x3f8031eb	1.0015234
3	0x3f79a6f1	0.9752036
4	0x3f7df702	0.9920503
5	0x3f7c070b	0.98448247
6	0x3f7f9e86	0.9985126
7	0x3f7d89ed	0.99038583
8	0x3f7e4cf3	0.99336165
9	0x3f81f1cd	1.0151917
10	0x3f7cd03a	0.9875523
11	0x3f7f3e3d	0.99704343
12	0x3f815d3f	1.0106581
13	0x3f7c4c0b	0.9855353
14	0x3f80c2e5	1.0059477
15	0x3f7e2d7d	0.9928816
16	0x3f801c28	1.0008593
17	0x3f800dc6	1.0004203
18	0x3f80c290	1.0059376
19	0x3f807088	1.0034342
20	0x3f79db92	0.9760066
21	0x3f8103ca	1.0079281
22	0x3f80a8cf	1.0051516
23	0x3f7fac7d	0.9987257
24	0x3f7f2189	0.99660546
25	0x3f800d02	1.000397
26	0x3f7cc408	0.9873662
27	0x3f80e9b5	1.0071322
28	0x3f7bf17f	0.9841537
29	0x3f821f9c	1.0165896
30	0x3f7cfd05	0.9882358
31	0x3f81675d	1.0109669

conv3d_extractor.branch2_bn1.bias f4 [32]
0	0x3b8a563c	0.0042217057
1	0x3c19c296	0.009384772
2	0x3c801da2	0.01563913
3	0xbc6d8542	-0.014497103
4	0xbbfe5ecb	-0.007762765
5	0xbb710bb9	-0.003678067
6	0xb9db37a3	-0.00041812388
7	0xbab08c72	-0.001346959
8	0xbbdb7020	-0.006696716
9	0x3c4cbb15	0.012495776
10	0xbb7aa88d	-0.0038247437
11	0xba0bbbc5	-0.0005330409
12	0x3bb9daae	0.0056718206
13	0xbbd84300	-0.006599784
14	0x3afe377f	0.0019395201
15	0x3b99cf6a	0.004693915
16	0x39b6cea9	0.0003486772
17	0xbb2f1f19	-0.0026721417
18	0x3bf159ff	0.0073654647
19	0x3a661e9d	0.00087783654
20	0xbc7c799e	-0.015409855
21	0x3b9af72a	0.0047291713
22	0x3b9a3bc9	0.004706834
23	0xb739c3b8	-1.1072429e-05
24	0xba0a86d6	-0.00052843743
25	0x3aebf13c	0.0018000971
26	0xbc39f3f6	-0.011349669
27	0x3b405d33	0.0029352426
28	0xbb8b8e83	-0.004258932
29	0x3c20f1e8	0.0098233
30	0xbb1b0e24	-0.0023659552
31	0x3b7565e7	0.0037444772

conv3d_extractor.branch2_bn1.running_mean f4 [32]
0	0xbeace43e	-0.33767885
1	0xbee41efe	-0.44554895
2	0xbe583af4	-0.21116239
3	0x3d2c2d4b	0.042035382
4	0xbd8f563a	-0.06998868
5	0xbe72db3a	-0.23716441
6	0x3d1f60da	0.038910724
7	0x3d9e0e96	0.07717626
8	0x3eac809d	0.33691874
9	0xbf0088bc	-0.5020864
10	0xbe304ece	-0.17217562
11	0xbe881d47	-0.26584837
12	0xbf16c688	-0.58896685
13	0xbe99082d	-0.2988905
14	0x3e0b11c0	0.1358099
15	0xbd9f84b9	-0.07788987
16	0x3e90cabe	0.2827968
17	0xbb8d6e18	-0.0043161027
18	0x3e759b83	0.23985104
19	0x3e0263c8	0.12733376
20	0xbb6f7c10	-0.0036542453
21	0x3eeaeae5	0.45882335
22	0x3e974cda	0.2955082
23	0x3e90bef6	0.28270692
24	0x3d63e89d	0.05564176
25	0xbe399c54	-0.1812604
26	0xbdd3fdc0	-0.10351133
27	0xbeb2539d	-0.34829417
28	0xbd3cb8c9	-0.046074662
29	0x3ebd11ec	0.36927736
30	0xbe85d4f8	-0.26139045
31	0x3ed1b033	0.40954742

conv3d_extractor.branch2_bn1.running_var f4 [32]
0	0x3d7b6678	0.06137702
1	0x3d066a79	0.032816384
2	0x3cb8b480	0.022547007
3	0x3c13cb0b	0.009020577
4	0x3c2f0828	0.010683097
5	0x3c4a21d6	0.012337169
6	0x3cb636b9	0.02224289
7	0x3c30b4ea	0.010785321
8	0x3ccaa772	0.024738047
9	0x3d9073e4	0.070533544
10	0x3cbcb0c5	0.023033509
11	0x3cbac9dc	0.022801332
12	0x3daffee7	0.08593541
13	0x3c4e6033	0.012596178
14	0x3cd6c0f8	0.026215062
15	0x3cec89e7	0.02887435
16	0x3d1783d3	0.03699095
17	0x3c8b4b0e	0.017003562
18	0x3cd7f50b	0.026361963
19	0x3cf858d9	0.030315803
20	0x3b9fef8a	0.00488085
21	0x3d78309c	0.060593233
22	0x3d0c93e6	0.034320734
23	0x3ca2d842	0.01987851
24	0x3c810d0f	0.015753297
25	0x3d335bc7	0.043788698
26	0x3c705232	0.014668034
27	0x3d85918f	0.06521904
28	0x3c61cf2b	0.013782303
29	0x3d04c6b1	0.03241605
30	0x3cabf30d	0.02098992
31	0x3d94e609	0.07270438

conv3d_extractor.branch2_conv2.weight f4 [64, 32, 3, 3, 3]
0	0xbcff6c1e	-0.031179484
1	0xbc9b38e5	-0.018948028
2	0xbc7f34b0	-0.0155765265
3	0xbcbb408a	-0.022857923
4	0xbc314789	-0.010820278
5	0x3b8626b1	0.004093968
6	0x3b5e8349	0.0033952764
7	0xbcdd8de9	-0.027045207
8	0x3b8cb58b	0.0042941025
9	0xbd0c63a0	-0.034274697
10	0xbce0a75f	-0.027423559
11	0xbc86c28f	-0.016450195
12	0xbcfb127c	-0.030648462
13	0xba2d32a5	-0.0006606973
14	0xbd0a8d9d	-0.03382646
15	0xbd0e015c	-0.034669265
16	0xbcfcd318	-0.030862376
17	0x3b9dbada	0.004813534
18	0xbb5aa6c2	-0.0033363556
19	0xbc0493d6	-0.008091887
20	0xbcd3d9f8	-0.025860772
21	0x3aa0ddee	0.0012273171
22	0xbba2b0ea	-0.0049649375
23	0xbc36028b	-0.011109005
24	0x3af3e103	0.0018606487
25	0x3cb0358a	0.021509904
26	0xbb5c0a69	-0.003357554
27	0xbb726d4e	-0.003699142
28	0xbb0f3ea4	-0.0021857405
29	0x3be1db87	0.006892625
30	0xbceb8ebc	-0.028754584
31	0xbcb30d32	-0.021856878
32	0xbd06aca7	-0.032879498
33	0xbd10978d	-0.03530078
34	0xbcb00898	-0.021488473
35	0xbc4b408d	-0.012405527
36	0xbd24019c	-0.040040597
37	0x3c09818f	0.008392706
38	0xbd1c190e	-0.03810983
39	0xbcd2ccf0	-0.025732487
40	0x3c148d41	0.009066881
41	0x3c118b6a	0.008883337
42	0x3a0bac7f	0.0005328133
43	0x3c24be6b	0.010055165
44	0xbb7fc079	-0.0039024635
45	0x3be4e010	0.006984718
46	0xbd0ab193	-0.033860754
47	0x3cc4cf9f	0.024024783
48	0x3c2cdd90	0.0105508715
49	0xbcaed66f	-0.021342484
50	0x3caee54b	0.02134957
51	0xbd19b149	-0.037522588
52	0xbb5d027f	-0.0033723412
53	0xbced058d	-0.02893331
54	0x3c30b1d7	0.010784588
55	0xbb60c3b0	-0.0034296326
56	0xbcb6f353	-0.022332823
57	0x3cc44384	0.023957975
58	0x3c90bc9b	0.01766806
59	0xbd000d27	-0.031262543
60	0xba60c015	-0.00085735443
61	0x3c540442	0.012940468
62	0xbb928d2d	-0.004472396
63	0xbc60980b	-0.013708125
64	0xbcd86d5c	-0.026419334
65	0xbd067977	-0.03283068
66	0xbc087bef	-0.008330329
67	0xbd0bd105	-0.034134883
68	0xbb7ce8c7	-0.0038590895
69	0xbd10173c	-0.035178408
70	0x3b440d60	0.0029915199
71	0xbd15ef77	-0.036605325
72	0xbd091ad9	-0.03347287
73	0x3aad8e05	0.0013241178
74	0x3c4cec42	0.0125075
75	0xbd1437f2	-0.036186166
76	0xbd0023ac	-0.03128402
77	0x3c137a97	0.009001396
78	0xbd01c806	-0.031684898
79	0xbc53d87c	-0.012930032
80	0x3aba3765	0.0014207183
81	0xbbf9d2f6	-0.0076240255
82	0xbd14b359	-0.03630385
83	0x3c007079	0.007839316
84	0x3c843534	0.01613865
85	0x3c12b5c6	0.008954471
86	0xbc6c1145	-0.014408414
87	0xbcbfc28f	-0.023408202
88	0xbc215d73	-0.00984894
89	0x3b28a066	0.002573037
90	0xbc99da81	-0.018780949
91	0xbcce0934	-0.025150873
92	0xbc84a6d5	-0.016192833
93	0x3c169b04	0.009192232
94	0x3c9a79c6	0.018856894
95	0xbbf9dfd2	-0.0076255584
96	0xbcd45498	-0.025919244
97	0x3b996310	0.0046809986
98	0xbcf879b2	-0.030331466
99	0x3b5e8706	0.0033954992
100	0xbc801855	-0.015636602
101	0xbcb61aa0	-0.022229493
102	0x3cc266ff	0.023730753
103	0xbcecf7c1	-0.028926732
104	0xbd1b1910	-0.0378657
105	0x3ca56f2c	0.020194612
106	0x3c8ccccc	0.017187499
107	0x3ca32694	0.019915856
108	0xbcb4c116	-0.022064727
109	0xbc30f180	-0.010799766
110	0x3a83cd82	0.0010055753
111	0x3c9f685c	0.019458942
112	0xbccaca1e	-0.02475458
113	0xbc413918	-0.011793397
114	0x3cbaaa6c	0.022786342
115	0xbbacdd8f	-0.0052754353
116	0xbb569df0	-0.0032747947
117	0xbbfad03a	-0.007654217
118	0xbc3fbf12	-0.01170327
119	0x3b348401	0.00275445
120	0x3c9016b4	0.01758895
121	0x3cf5fcaa	0.030027706
122	0x3cd1d416	0.025613826
123	0xbc6324ee	-0.013863785
124	0x3cee33a1	0.029077353
125	0xbcb227b7	-0.021747453
126	0xbbd1c81a	-0.006402028
127	0x3cbcde66	0.023055267
128	0xbc86186b	-0.016369065
129	0x3d1ae103	0.037812244
130	0x3cab91b9	0.02094351
131	0x3b0bb404	0.0021317014
132	0xbcd314b4	-0.025766708
133	0xbc863e62	-0.016387168
134	0xbcad6437	-0.02116595
135	0x3cbc63d7	0.022996826
136	0x3b3a93a0	0.002846934
137	0xbc945e62	-0.018111411
138	0x3cc63988	0.024197355
139	0x3c72cda3	0.014819535
140	0xbcb560b0	-0.02214083
141	0xbcd99b1c	-0.02656322
142	0xbd1ba9b5	-0.038003642
143	0xbc3ed550	-0.011647537
144	0x3b9855dd	0.0046489076
145	0xbce8f1e6	-0.028435659
146	0xbc600a9f	-0.013674407
147	0x3c2e0e2d	0.010623497
148	0xbc5da737	-0.013528637
149	0x3c0aec9b	0.008479263
150	0x3cc83ea4	0.024443932
151	0xbbd9245d	-0.0066266493
152	0x3b9fcfc0	0.0048770607
153	0xbbff85e4	-0.0077979434
154	0x3cb45382	0.022012476
155	0xbca3d77f	-0.020000217
156	0xba1459da	-0.0005659141
157	0x3b33315b	0.002734265
158	0x3b821fc3	0.0039710714
159	0x3cf192ba	0.02948891
160	0xbc4aa70b	-0.012368928
161	0x3cb9d1df	0.022683082
162	0xbbfe5fe8	-0.0077628978
163	0xbbd70e91	-0.0065630157
164	0xbc9e6cb8	-0.01933895
165	0x3c912f9a	0.017722894
166	0xbc61639a	-0.013756657
167	0x3c1a90f3	0.009433973
168	0xbd188252	-0.037233658
169	0xbd0482ba	-0.032351233
170	0xbb6e95cc	-0.0036405204
171	0xbd0daca8	-0.034588486
172	0xbc87215f	-0.016495405
173	0x3c9b0139	0.018921481
174	0xbc255d9e	-0.010093121
175	0x3c34e07e	0.011039851
176	0xbb25a8d8	-0.002527764
177	0x3b55f85c	0.0032649254
178	0xbcdd6bff	-0.027029036
179	0x3b1ca861	0.0023904073
180	0x3af26c76	0.0018495459
181	0xbcb72dc7	-0.022360696
182	0x3afcf17f	0.0019298046
183	0x3bd4dce3	0.0064960583
184	0x3ca46b33	0.020070648
185	0x3caf26dc	0.021380834
186	0xbad85eaf	-0.001650771
187	0x3d0eb684	0.03484203
188	0x3c6b98ac	0.0143796615
189	0x3cbecec3	0.023291951
190	0x3ca795df	0.020457206
191	0x3ca61f18	0.020278499
192	0x3cd9ff5e	0.026611026
193	0x3c045145	0.008076017
194	0xb8e7bb4f	-0.00011049827
195	0xbca89983	-0.020581013
196	0xbcafd4f0	-0.021463841
197	0xbccc26e1	-0.024920883
198	0x3c697753	0.0142496405
199	0xbc1d9a28	-0.009619273
200	0xbc8ccfcc	-0.017188929
201	0x3cc7c0f7	0.024384005
202	0xbcf62a2c	-0.030049406
203	0xbcd52728	-0.026019648
204	0x3d0915df	0.033468124
205	0xbd1a928e	-0.03773742
206	0x3b07fe80	0.002075106
207	0xbc0aa00b	-0.008461009
208	0xbc995004	-0.018714912
209	0xbbd8a7d7	-0.006611805
210	0xbc5f4da5	-0.013629352
211	0x3ca5d320	0.020242274
212	0x3c6bf470	0.01440154
213	0xbcb4e78e	-0.02208307
214	0x3adbd82e	0.0016772801
215	0x3c5ebd7e	0.013594983
216	0xbc23413e	-0.009964285
217	0x3b9bc182	0.0047532925
218	0xbc4dc09f	-0.0125581315
219	0x3ccc0927	0.024906708
220	0xbbe43dde	-0.006965383
221	0xbc9130f4	-0.017723538
222	0x3cd71924	0.026257105
223	0xbc144cf8	-0.009051554
224	0xbce4ad3b	-0.027914634
225	0x3cfcfc2a	0.03088196
226	0xbcb9ceab	-0.022681555
227	0xbccc5d2d	-0.024946773
228	0x3b3cdf18	0.0028819498
229	0x3cc67eb4	0.024230339
230	0x3bd0e6b7	0.0063751596
231	0x3bf896b3	0.007586324
232	0xbc1a07fd	-0.009401319
233	0xbc6c4298	-0.014420174
234	0x3d1adb15	0.03780659
235	0xbc8c2fcf	-0.01711264
236	0x3bcae890	0.0061922744
237	0x3cbdcf09	0.023170011
238	0xbcc61537	-0.024180038
239	0xbc6671ee	-0.014065249
240	0x3b4bd42b	0.0031101804
241	0xbcd406bf	-0.025882123
242	0xbc55d077	-0.01305019
243	0xbc8f90d5	-0.017525116
244	0xbd0236af	-0.03179043
245	0xbcf18e6a	-0.029486854
246	0x3bbe9a4d	0.005816734
247	0xbd28930f	-0.04115587
248	0xbcb1ea99	-0.02171831
249	0xbcedae26	-0.029013705
250	0xbc01c8ea	-0.007921437
251	0xbc5535e5	-0.013013338
252	0x38261cb0	3.96042e-05
253	0xbc2394c5	-0.0099842
254	0x3b812a70	0.0039418265
255	0xbc315ae8	-0.010824896

conv3d_extractor.branch2_conv2.bias f4 [64]
0	0x3cdb9628	0.026804999
1	0xbce6ec9e	-0.028189
2	0xbbb7f941	-0.00561443
3	0x3a90fa50	0.0011060927
4	0xbb4ff8c0	-0.003173396
5	0xbccad85a	-0.024761368
6	0xbcb6b623	-0.022303646
7	0xbb411f8e	-0.002946827
8	0x3c1c1483	0.009526375
9	0xbbeb124d	-0.0071738125
10	0xbd0136c3	-0.031546365
11	0x3caca468	0.021074489
12	0xbb25b2da	-0.0025283606
13	0x3b2cb217	0.0026351267
14	0xbc9894a7	-0.01862557
15	0x3c70890d	0.014681113
16	0xbca0be3a	-0.019621957
17	0xbc1fe4c1	-0.009759129
18	0xbd13fdcc	-0.03613071
19	0x3ca38c55	0.019964376
20	0xbcd481a7	-0.02594073
21	0xbcbaacb0	-0.022787422
22	0xbc084aa4	-0.008318577
23	0x3ccb7fca	0.024841208
24	0x3ca99134	0.020699121
25	0x3cc69aad	0.024243677
26	0xbc38d966	-0.011282301
27	0xbb076218	-0.0020657834
28	0x3c9eaa27	0.019368244
29	0xbc8676d3	-0.016414082
30	0xbc45902a	-0.012058297
31	0xbcb3fad7	-0.021970196
32	0x3aa5fb84	0.0012663458
33	0x3cca32b8	0.024682388
34	0x3cbcd991	0.023052962
35	0xbcb3a5e5	-0.02192969
36	0x3b783d25	0.0037878242
37	0x3c0ca90b	0.008585225
38	0x3aba7717	0.0014226165
39	0x3c968e22	0.018378321
40	0x3a27a74d	0.0006395474
41	0x3c13073b	0.008973892
42	0x3cf46c73	0.029836869
43	0x3c80ea98	0.015736863
44	0x3c424f9b	0.0118598
45	0xbb273683	-0.002551467
46	0x3cb12a96	0.021626752
47	0x3c71f027	0.014766729
48	0xbc5c26aa	-0.013436953
49	0x3a4681e8	0.0007572458
50	0xbca389ee	-0.019963231
51	0xbc4c2643	-0.012460294
52	0x3c08be11	0.008346097
53	0xbcc89526	-0.024485182
54	0x3cd2c685	0.025729427
55	0xbbd70a62	-0.006562517
56	0x3c74afd0	0.014934495
57	0xbaaa6e48	-0.0013002837
58	0xbb8d8afe	-0.0043195477
59	0xbbcbc726	-0.0062188087
60	0x3d0d6bf6	0.034526788
61	0xbbf2cee1	-0.007409916
62	0xbb5896d1	-0.0033048878
63	0xbca06b42	-0.019582395

conv3d_extractor.branch2_bn2.weight f4 [64]
0	0x3f77061a	0.96493685
1	0x3f78e7bf	0.97228616
2	0x3f7bb3e8	0.9832139
3	0x3f7b7ba8	0.9823556
4	0x3f79c139	0.9756046
5	0x3f7676df	0.9627513
6	0x3f7df150	0.9919634
7	0x3f763050	0.9616747
8	0x3f79a4ec	0.97517276
9	0x3f79218d	0.9731682
10	0x3f76c596	0.9639524
11	0x3f79f945	0.9764598
12	0x3f7cf0d8	0.98805
13	0x3f799343	0.9749033
14	0x3f7ce5fc	0.9878843
15	0x3f7bc5c3	0.98348635
16	0x3f7b25c6	0.9810451
17	0x3f7cfffd	0.9882811
18	0x3f7a9c4e	0.9789475
19	0x3f7c296f	0.9850072
20	0x3f7b2781	0.98107153
21	0x3f7b71bc	0.9822042
22	0x3f7c7708	0.9861913
23	0x3f797526	0.9744438
24	0x3f7aacd7	0.9791998
25	0x3f7953c3	0.97393435
26	0x3f7b184b	0.98083943
27	0x3f7ce86a	0.98792136
28	0x3f7a8e10	0.9787302
29	0x3f7a43dc	0.97759795
30	0x3f7bc801	0.98352057
31	0x3f7d7cf8	0.9901881
32	0x3f79ed94	0.9762814
33	0x3f74e5f2	0.9566337
34	0x3f7d1990	0.9886713
35	0x3f794403	0.973694
36	0x3f7ca6fa	0.98692286
37	0x3f77a960	0.9674282
38	0x3f7bd71f	0.98375124
39	0x3f787c06	0.97064245
40	0x3f7aaf6d	0.9792393
41	0x3f7b807b	0.9824292
42	0x3f789ce1	0.9711438
43	0x3f7617ef	0.9613027
44	0x3f7af033	0.98022765
45	0x3f7ac903	0.9796297
46	0x3f79eeaa	0.976298
47	0x3f764b6a	0.9620882
48	0x3f7b81e5	0.9824508
49	0x3f777f89	0.9667898
50	0x3f77184e	0.9652146
51	0x3f7ab0fd	0.9792631
52	0x3f790f67	0.9728913
53	0x3f79dbce	0.9760102
54	0x3f7a44fa	0.977615
55	0x3f78ecf7	0.9723658
56	0x3f7a9ae2	0.9789258
57	0x3f7e95de	0.9944743
58	0x3f7842fd	0.96977216
59	0x3f798320	0.97465706
60	0x3f7aa8a0	0.9791355
61	0x3f76e304	0.9644015
62	0x3f7b5e8c	0.9819114
63	0x3f75b445	0.95978194

conv3d_extractor.branch2_bn2.bias f4 [64]
0	0xbcbd7072	-0.023124907
1	0xbc9e1e94	-0.01930169
2	0xbbaeaa6f	-0.005330376
3	0xbc5446bb	-0.012956317
4	0xbca4513f	-0.020058272
5	0xbd0701e2	-0.03296078
6	0xbb2b85d9	-0.0026172309
7	0xbd0d543c	-0.03450416
8	0xbcc4b4a7	-0.024011923
9	0xbca223c5	-0.019792447
10	0xbd005633	-0.031332206
11	0xbc9dc934	-0.01926098
12	0xbc0359b1	-0.00801699
13	0xbcbf235c	-0.02333229
14	0xbc0ae4a0	-0.00847736
15	0xbc7f1b29	-0.01557044
16	0xbc814e9f	-0.01578456
17	0xbbe9e14e	-0.007137454
18	0xbc669274	-0.014073003
19	0xbc0777f1	-0.008268342
20	0xbc4b3a28	-0.012404002
21	0xbc9c907a	-0.01911186
22	0xbc154414	-0.009110469
23	0xbc9dd584	-0.019266851
24	0xbc93eb95	-0.01805667
25	0xbcc16001	-0.023605349
26	0xbc415d24	-0.011801992
27	0xbb7742aa	-0.0037728944
28	0xbc66c126	-0.014084136
29	0xbca1a8c7	-0.0197338
30	0xbbf92222	-0.007602946
31	0xbbda8937	-0.0066691893
32	0xbcb53cb2	-0.022123668
33	0xbd0d8206	-0.03454783
34	0xbbc46304	-0.005993249
35	0xbc76a668	-0.015054323
36	0xbc14efa2	-0.009090336
37	0xbd010a3a	-0.031503893
38	0xbc694c58	-0.014239393
39	0xbcfe6cd7	-0.031057758
40	0xbc9840e1	-0.018585624
41	0xbc8eb8e2	-0.017422143
42	0xbd004a66	-0.031320952
43	0xbd09d3d1	-0.03364927
44	0xbc8a8033	-0.016906833
45	0xbc940aeb	-0.018071612
46	0xbc4442ce	-0.011978818
47	0xbd0c94db	-0.034321647
48	0xbc5dab6f	-0.0135296425
49	0xbd1c9127	-0.038224366
50	0xbcf9f0aa	-0.030510265
51	0xbc5f3c63	-0.013625237
52	0xbcbb341a	-0.022851992
53	0xbcb6691d	-0.022266919
54	0xbc5287fc	-0.012849804
55	0xbc3b8d55	-0.01144727
56	0xbc833acd	-0.01601925
57	0x3b4184c4	0.0029528597
58	0xbd19903d	-0.037491072
59	0xbcb4449f	-0.022005377
60	0xbcbe6902	-0.023243431
61	0xbd194467	-0.03741875
62	0xbc9441e6	-0.01809783
63	0xbcfa407b	-0.030548325
