init/hsi_pipeline_models/hsi_denoising_pipeline.pth (torch, 839217 bytes, 41 tensors)

conv3d_extractor.branch1_conv1.weight f4 [32, 1, 3, 3, 3]
0	0x3df3608c	0.11883649
1	0x3dda1791	0.10649026
2	0x3e0588f6	0.13040528
3	0x3d382a23	0.04496206
4	0x3d579c9e	0.052639596
5	0x3e194582	0.14967921
6	0x3d8455f1	0.064617045
7	0x3cf465ab	0.029833635
8	0xbe0d393a	-0.13791361
9	0x3d579cb8	0.052639693
10	0x3db01199	0.085971065
11	0x3e310d79	0.17290296
12	0xbe2b2398	-0.16712797
13	0xbcf35af5	-0.029706458
14	0x3d83a4dc	0.06427929
15	0x3d3ff06a	0.046860136
16	0x3d93b384	0.07211974
17	0xbd9ce397	-0.07660597
18	0xbe14a49a	-0.14515916
19	0x3e1adf6b	0.1512429
20	0xbb854d0f	-0.004068024
21	0x3e2bddc7	0.1678382
22	0xbc2dfc0b	-0.010619174
23	0x3d85afab	0.06527647
24	0x3e209fdd	0.15685983
25	0xbe17130d	-0.14753361
26	0x3de60c98	0.11232871
27	0x3e005072	0.12530687
28	0x3e230e81	0.15923502
29	0x3dde1ac3	0.10844948
30	0xbe3f8700	-0.18703842
31	0x3e3dc65f	0.18532704
32	0x3d5cd11b	0.053910356
33	0xbdc2b043	-0.095062755
34	0xbc2520c0	-0.010078609
35	0x3d62f420	0.055408597
36	0xbdbcb0a4	-0.09213379
37	0x3d3e4f4d	0.046462346
38	0x3b7f83c1	0.0038988444
39	0xbe19ace8	-0.15007365
40	0xbc51c4b9	-0.01280325
41	0xbda81be1	-0.082084425
42	0xbd2b4063	-0.04180945
43	0xbd363742	-0.04448629
44	0xbd6e9d8c	-0.058255717
45	0x3e2e79ee	0.170387
46	0x3c0041e3	0.007828209
47	0xbcb09fc0	-0.02156055
48	0x3c429034	0.011875201
49	0xbe03c89f	-0.128695
50	0x3e17b1b7	0.14813887
51	0xbe26100b	-0.16217057
52	0x3d99ef73	0.075163744
53	0xbd55bdc6	-0.052182935
54	0xbd92a787	-0.071608596
55	0xbdd49285	-0.10379509
56	0x3dc9905e	0.09841989
57	0x3de98778	0.11402792
58	0xbe002d03	-0.1251717
59	0xbe0aaccb	-0.13542478
60	0x3e0ebda6	0.13939533
61	0xbd83853f	-0.06421899
62	0xbe0020f3	-0.12512569
63	0x3e299c04	0.16563421
64	0xbb446e62	-0.002997302
65	0x3dc329b8	0.095294416
66	0xbe24d034	-0.16095048
67	0xbe110564	-0.14162213
68	0xbd818295	-0.06323735
69	0xbdab7a6b	-0.08372959
70	0x3bc21656	0.005923073
71	0x3d9643fa	0.07337184
72	0x3d8fa7ab	0.07014402
73	0xbe31eba4	-0.17375046
74	0xbe2f49e6	-0.17118034
75	0x3d244f26	0.040114544
76	0x3e141f20	0.14464998
77	0x3e18ffa8	0.14941275
78	0x3d3cf2d9	0.046130035
79	0xbdb7460b	-0.089489065
80	0x3dd0cd3f	0.101953976
81	0xbdcab353	-0.09897485
82	0x3e12012f	0.14258264
83	0x3cfc17c9	0.03077306
84	0x3e258f6b	0.16167991
85	0x3e2dadb9	0.16960801
86	0x3c03bb63	0.008040282
87	0x3cc95b1f	0.024579583
88	0x3d02f11e	0.03196823
89	0xbe2ff5b0	-0.17183566
90	0x3e06e1aa	0.13172022
91	0x3d860c50	0.06545317
92	0x3e1ae5a8	0.1512667
93	0x3deb2dbd	0.11483333
94	0x3bb4678e	0.0055055087
95	0x3bd99bfb	0.006640909
96	0x3d4b6ed1	0.04966623
97	0xbdea925b	-0.11453696
98	0xbdc299ff	-0.09502029
99	0x3e4c9656	0.19979224
100	0xbd729e76	-0.05923315
101	0xbdb77d8f	-0.08959495
102	0xbd8313f0	-0.06400287
103	0xbcac0c7f	-0.021002052
104	0xbdc44a5f	-0.09584498
105	0xbcf495a7	-0.029856516
106	0x3ddaf537	0.10691302
107	0xbe0734f3	-0.13203792
108	0x3dc16999	0.09443969
109	0x3dac4888	0.08412272
110	0x3e28b2cb	0.16474454
111	0xbdef0609	-0.11671073
112	0x3e375b62	0.17905954
113	0xbdce4211	-0.10071195
114	0xbe386928	-0.18008864
115	0xbdbcee50	-0.09225142
116	0x3d31f227	0.043443825
117	0x3d85a900	0.06526375
118	0xbe4b6097	-0.19861065
119	0x3d457cae	0.048214607
120	0xbd94e63d	-0.07270477
121	0x3e03ac55	0.12858708
122	0xbddfee95	-0.10934178
123	0xbe306c4d	-0.17228813
124	0xbbf57167	-0.0074903253
125	0xbe407c9e	-0.18797538
126	0xbe25a2db	-0.16175406
127	0xbe40d9e6	-0.18833122
128	0xbad54455	-0.0016270975
129	0xbe2c3592	-0.1681731
130	0xbddbbc57	-0.10729282
131	0x3e2ee21b	0.1707844
132	0xbd7b2047	-0.06131008
133	0xbe2070bb	-0.15668003
134	0x3e01bff7	0.12670885
135	0x3dad1d2f	0.08452832
136	0xbd90731f	-0.070532076
137	0xbe4d7704	-0.20064932
138	0xbd9898ab	-0.07450994
139	0x3c46dccf	0.012137606
140	0xbda95f80	-0.08270168
141	0xbd7fe17e	-0.062470905
142	0x3df10730	0.11768949
143	0xbe424391	-0.18971087
144	0xbd9da2c9	-0.076970644
145	0x3dca867c	0.09888932
146	0xbda709f9	-0.08156199
147	0x3dcc4e80	0.0997591
148	0xbde3bd0e	-0.11120044
149	0xbc9aad94	-0.018881597
150	0xbd248c1e	-0.04017269
151	0xbdac114d	-0.08401737
152	0x3e39ac7d	0.18132205
153	0x3e10ae20	0.14128923
154	0xbc21f48d	-0.009884966
155	0xbe35e04a	-0.1776134
156	0xbe293e35	-0.16527636
157	0x3d864131	0.06555403
158	0xbe32ec2a	-0.17472902
159	0x3e2319d5	0.15927823
160	0x3e1a0394	0.15040427
161	0xbe3004ca	-0.17189327
162	0x3e3cf0d7	0.18451248
163	0x3e3c5e5b	0.18395369
164	0x3df3cb68	0.11904031
165	0xbda5153b	-0.0806069
166	0x3e3853ee	0.18000767
167	0xbddbd725	-0.10734395
168	0xbce244a9	-0.02762063
169	0x3de999e4	0.114063054
170	0xbdeea59b	-0.116526805
171	0xbdb3e7e7	-0.08784466
172	0xbe3d153e	-0.18465135
173	0xbe3525f0	-0.17690253
174	0x3e090cb6	0.13383755
175	0x3e0f0211	0.13965632
176	0xbe2f2790	-0.17104936
177	0x3e03b698	0.12862623
178	0xbd01a3eb	-0.031650465
179	0xbdbe8e10	-0.0930444
180	0xbe30b3b7	-0.17256056
181	0xbdf1cbfb	-0.11806484
182	0xbe2d6fe5	-0.16937216
183	0x3db10a14	0.086445004
184	0xbe380bd7	-0.17973267
185	0x3a71b9b4	0.00092210923
186	0x3e15bbc7	0.14622413
187	0x3a9281b4	0.001117757
188	0xbd9c703e	-0.07638596
189	0x3e17035a	0.14747372
190	0x3d9f3cc7	0.07775264
191	0xbe4f18a8	-0.2022425
192	0x3e09739d	0.13423009
193	0x3ddabf7c	0.10681054
194	0x3df29a51	0.1184584
195	0xbce2da45	-0.02769197
196	0xbcffe588	-0.031237379
197	0x3d120922	0.03565324
198	0x3cc532ae	0.024072018
199	0xbe2d5642	-0.16927436
200	0xbe148dac	-0.14507169
201	0x3e143c27	0.14476071
202	0xbe2af896	-0.1669639
203	0xbe2fd395	-0.17170556
204	0xbc6d7e46	-0.014495438
205	0xbb057765	-0.0020365354
206	0xbd34139c	-0.043964013
207	0x3d71216e	0.05886977
208	0xbdebb682	-0.1150942
209	0xbd6288a7	-0.055306103
210	0xbdd54084	-0.10412696
211	0xbc976982	-0.018482927
212	0x3d8e95cc	0.06962165
213	0x3e2d2eaa	0.16912332
214	0xbe14c1d4	-0.14527065
215	0xbe24ed64	-0.16106182
216	0xbe2901ec	-0.1650464
217	0x3e2c6dae	0.16838714
218	0x3e1a59a0	0.15073252
219	0x3e02ed74	0.12785894
220	0xbd4cf3a4	-0.05003704
221	0xbdb9fd12	-0.090814725
222	0xbdb51941	-0.088427074
223	0x3de910b5	0.1138014
224	0xbd05f578	-0.0327048
225	0x3e151ef6	0.14562592
226	0xbd914fc9	-0.07095296
227	0x3bcb12b4	0.006197298
228	0x3e14f888	0.14547932
229	0xbde75955	-0.112963356
230	0xbd78dd4a	-0.060757913
231	0xbc16d6cb	-0.009206484
232	0x3e198f3b	0.14996044
233	0x3dd1f76c	0.1025227
234	0x3e244004	0.16040045
235	0x3e0a463a	0.13503352
236	0xbdfa485e	-0.12220834
237	0x3e391450	0.18074155
238	0xba94a803	-0.0011341575
239	0xbd10ce15	-0.035352785
240	0x3e2399c1	0.15976621
241	0x3e1f866b	0.1557862
242	0x3d6c1879	0.057640526
243	0x3db3bd30	0.08776319
244	0x3da83776	0.08213703
245	0xbdef2696	-0.116772816
246	0x3e333077	0.17498957
247	0x3dc13a72	0.09434976
248	0xbe1520ad	-0.14563246
249	0xbd361dc5	-0.044461984
250	0xbcbdfb07	-0.023190988
251	0x3dd92b1f	0.10603928
252	0x3d3093c8	0.043109685
253	0xbc341758	-0.010991894
254	0x3e00aca7	0.12565862
255	0x3e1966ed	0.1498067

conv3d_extractor.branch1_conv1.bias f4 [32]
0	0x3c3feeb8	0.01171463
1	0x3e26ddb7	0.16295515
2	0xbc4459d6	-0.011984309
3	0xbddcab2d	-0.10774837
4	0xbe25dcff	-0.16197585
5	0x3cc8d1aa	0.024514038
6	0xbdb1b85f	-0.08677744
7	0x3e25b9a4	0.16184098
8	0xbb3b66d1	-0.002859522
9	0xbe2457a7	-0.16049062
10	0xbe0e9f21	-0.1392789
11	0x3db58409	0.08863074
12	0x3e15b262	0.14618829
13	0xbdd8f355	-0.10593287
14	0x3d8b74dc	0.068093985
15	0xbd00dfe0	-0.031463504
16	0x3ae5d990	0.0017536152
17	0x3c86009b	0.01635771
18	0xbd9cfd7d	-0.076655366
19	0xbd64dec2	-0.0558765
20	0x3cf3e9d2	0.02977458
21	0x3e22ac23	0.15885977
22	0xbdccdcea	-0.100030735
23	0xbd96200f	-0.073303334
24	0x3d6bc7f3	0.057563733
25	0xbda0e29c	-0.07855722
26	0x3e14a7dd	0.1451716
27	0xbd5fa603	-0.05460168
28	0xbe29938d	-0.16560192
29	0xbe08d6a6	-0.13363132
30	0xbc8861d0	-0.016648203
31	0x3d98dd0f	0.074640386

conv3d_extractor.branch1_bn1.weight f4 [32]
0	0x3f835761	1.0261041
1	0x3f7b0640	0.9805641
2	0x3f7bfc1a	0.9843155
3	0x3f7dd08c	0.9914634
4	0x3f7ee6c3	0.99570864
5	0x3f7f5b1a	0.99748385
6	0x3f7e0f7c	0.9924238
7	0x3f7d74da	0.99006426
8	0x3f80b866	1.0056274
9	0x3f7cc8e4	0.98744035
10	0x3f800e30	1.000433
11	0x3f805d70	1.0028515
12	0x3f7ec52d	0.99519616
13	0x3f833577	1.0250691
14	0x3f7f6516	0.9976362
15	0x3f7e4614	0.9932568
16	0x3f7ca7d9	0.98693615
17	0x3f826714	1.0187707
18	0x3f7a41f6	0.977569
19	0x3f7e799c	0.9940431
20	0x3f811066	1.008313
21	0x3f806f7c	1.0034022
22	0x3f81ff5a	1.0156052
23	0x3f7fd30b	0.999314
24	0x3f80ac75	1.005263
25	0x3f7a38a1	0.9774266
26	0x3f7cb984	0.98720574
27	0x3f81169f	1.0085028
28	0x3f815131	1.0102903
29	0x3f8100ce	1.007837
30	0x3f806370	1.0030346
31	0x3f80256d	1.0011421

conv3d_extractor.branch1_bn1.bias f4 [32]
0	0x3c95ca11	0.01828483
1	0xbc771154	-0.015079815
2	0xbc92afda	-0.017906118
3	0xbc610523	-0.013734135
4	0xba9643dc	-0.0011464315
5	0x3b0751b2	0.002064806
6	0xbbb9b512	-0.005667337
7	0xbbf12b18	-0.0073598735
8	0x3b55fb56	0.0032651029
9	0xbc0433ee	-0.008069022
10	0x3a2c9245	0.0006583075
11	0x3b65696d	0.0035005466
12	0xbc0bba29	-0.008528271
13	0x3c8fc7e0	0.017551363
14	0x3af30877	0.0018541951
15	0x3a5d2e36	0.0008437367
16	0xbc73ca26	-0.014879739
17	0x3c18b290	0.009319916
18	0xbc64f72a	-0.013974944
19	0xba26f732	-0.00063692324
20	0x3b9f3f95	0.0048598745
21	0x3ab691b6	0.0013928923
22	0x3c58146d	0.013188464
23	0xbb665e51	-0.0035151432
24	0x3b61d7ec	0.0034460975
25	0xbc76b3ab	-0.015057485
26	0xbc4bb468	-0.012433149
27	0x3c74caa5	0.014940892
28	0x3bf30e32	0.0074174637
29	0x3b4e0f4a	0.0031442218
30	0x3c3e899c	0.011629488
31	0xb9950f3b	-0.00028430842

conv3d_extractor.branch1_bn1.running_mean f4 [32]
0	0x3eb98837	0.36236736
1	0x3e28f808	0.16500866
2	0xbdcde972	-0.10054292
3	0x3cf3730f	0.02971795
4	0xbef0f578	-0.47062278
5	0xbe3bb820	-0.18331957
6	0xbe51c147	-0.20483886
7	0x3b0613e2	0.0020458628
8	0x3eb26ea1	0.34850028
9	0x3c60813b	0.013702686
10	0x3c266b86	0.0101574715
11	0xbea10ada	-0.31453592
12	0x3ea32f9e	0.31872267
13	0x3e876b37	0.26448986
14	0xbe1a155a	-0.15047207
15	0xbea06022	-0.31323344
16	0x3ddef276	0.108860895
17	0x3f0463a8	0.51714563
18	0xbe7ba618	-0.24575078
19	0xbe9fb262	-0.31190783
20	0x3ec684e0	0.3877325
21	0x3ec6af9d	0.38805857
22	0x3e20df1f	0.15710114
23	0x3dea1fdb	0.11431857
24	0x3e75d477	0.2400683
25	0xbe8e2a6d	-0.27766743
26	0x3e7a7449	0.24458422
27	0x3e3983d8	0.181167
28	0x3c955d74	0.018233038
29	0x3e9283d7	0.2861621
30	0xbe971d32	-0.29514462
31	0x3ea077df	0.31341454

conv3d_extractor.branch1_bn1.running_var f4 [32]
0	0x3d36033e	0.044436686
1	0x3c32ac5d	0.010905352
2	0x3c446fcf	0.011989548
3	0x3cad9c19	0.021192597
4	0x3d4ecae6	0.050486468
5	0x3d027a36	0.03185483
6	0x3d099ea2	0.03359855
7	0x3d0577f6	0.032585107
8	0x3d5cd062	0.053909667
9	0x3c81bdbe	0.015837546
10	0x3ca561d2	0.020188246
11	0x3d9b3bbf	0.07579755
12	0x3ca2e5d3	0.01988498
13	0x3d59430d	0.05304246
14	0x3cbddb6e	0.023175921
15	0x3d1a8668	0.037725836
16	0x3c768fac	0.0150489025
17	0x3dba4059	0.090943046
18	0x3c706cdd	0.0146743925
19	0x3d106a45	0.035257597
20	0x3d4ae7e3	0.04953755
21	0x3cca9448	0.02472891
22	0x3d11974e	0.035544686
23	0x3cb362d8	0.021897718
24	0x3caf5d26	0.021406721
25	0x3cc83b6a	0.024442393
26	0x3c308a95	0.010775228
27	0x3cc87b23	0.024472779
28	0x3c94f4bc	0.018183105
29	0x3d8e4f08	0.06948668
30	0x3d1238bb	0.035698634
31	0x3ce336da	0.027736116

conv3d_extractor.branch1_conv2.weight f4 [64, 32, 3, 3, 3]
0	0x3c2ce6b8	0.0105530545
1	0x3cb57df3	0.022154784
2	0x3cb0effd	0.02159881
3	0xbc5073af	-0.012722894
4	0x3d0ec862	0.03485907
5	0x3ce5212a	0.027969915
6	0x3ce1e2be	0.02757394
7	0xbcbf29ec	-0.02333542
8	0x3c12df5b	0.008964385
9	0xbc1e9491	-0.009678976
10	0x3d1caf16	0.038252912
11	0x3c11a61a	0.008889699
12	0x3cdcf33f	0.026971458
13	0xbce7a835	-0.02827845
14	0xbb8aeebc	-0.004239885
15	0xbc59c609	-0.013291844
16	0x3c5ae015	0.013359089
17	0xbcce67a0	-0.025195897
18	0x3bce3c26	0.0062937913
19	0x3c3991ba	0.011326248
20	0xbc4b06b2	-0.012391733
21	0x39c696a7	0.00037877748
22	0xbcc74647	-0.024325503
23	0xbbb0778f	-0.0053853462
24	0x3d17c54f	0.037053403
25	0xbbba640d	-0.0056881965
26	0xbbaa9b59	-0.005206507
27	0x3c2395bd	0.009984431
28	0x3c9dc052	0.019256745
29	0xbcf278a2	-0.029598538
30	0xbb672bf8	-0.003527401
31	0x3b9f3e01	0.0048596864
32	0xbc2001f0	-0.009766087
33	0x3ccfc23c	0.025361173
34	0xbd02dfa8	-0.031951576
35	0xbcfe3d65	-0.031035135
36	0x3cd97d2d	0.026548946
37	0xbcf966bc	-0.030444495
38	0xbcd28fab	-0.025703272
39	0x3b7bc8a1	0.0038419145
40	0x3c8f2c0b	0.017477056
41	0xbc7884d0	-0.015168384
42	0xbc31e56c	-0.010857921
43	0x3c946d3f	0.018118499
44	0xbcc18c7f	-0.023626564
45	0x3cb72b47	0.022359503
46	0xbcb4574f	-0.022014288
47	0x3b9b5cc8	0.004741285
48	0x3b5daa17	0.0033823305
49	0x3cf8ae73	0.030356621
50	0xbc03335e	-0.008007852
51	0x3bb8a94f	0.0056354175
52	0x3c16d41a	0.009205842
53	0xbc08a292	-0.008339541
54	0x3cff9c5b	0.031202486
55	0xbd03ce9a	-0.032179452
56	0x3cca321f	0.024682103
57	0x3c98ed0a	0.018667717
58	0xbcdcb370	-0.026941031
59	0x3b1781c4	0.0023118118
60	0xbc0f37d0	-0.008741334
61	0x3ca794ed	0.020456756
62	0xbcfad00c	-0.030616783
63	0xbd02e3df	-0.031955596
64	0x3cea54a4	0.028604813
65	0xbb618624	-0.003441223
66	0xbbad19b5	-0.0052826055
67	0x3b9cea9e	0.0047887107
68	0x3cde072a	0.027103025
69	0xbc4e790f	-0.012602105
70	0x3cea1ede	0.028579172
71	0xbc47de5c	-0.012199011
72	0xbd162f98	-0.036666483
73	0x3ce39ba3	0.027784174
74	0xbcfb6c0b	-0.030691167
75	0x3ccb17bc	0.02479159
76	0x3cc6e6d3	0.024279987
77	0xbcc4006d	-0.023925984
78	0xbc8d2f28	-0.0172344
79	0x3ce78fed	0.028266871
80	0x3bc6bd4c	0.0060650464
81	0x3bcac31d	0.00618781
82	0x399173b3	0.00027742758
83	0x3ce7ea93	0.028310096
84	0x3cfc21b2	0.030777786
85	0xbd090e24	-0.03346075
86	0xbc974265	-0.018464277
87	0xbc6538b3	-0.013990569
88	0x3cd9709c	0.026542954
89	0xbb1252ea	-0.0022327253
90	0x3c3d5d90	0.011557952
91	0xbc96fba2	-0.018430535
92	0xbcee8391	-0.02911547
93	0xbc8c2480	-0.017107248
94	0x3c52ae7a	0.012858981
95	0xbc8cd833	-0.017192936
96	0x3caca814	0.02107624
97	0x3bf11f89	0.0073584956
98	0xbbe6e04c	-0.0070457812
99	0xbcba1219	-0.022713708
100	0x3c8d7494	0.017267503
101	0x3c01e9bc	0.007929262
102	0xbc2e1d47	-0.010627097
103	0x3a436758	0.0007454059
104	0xbc874643	-0.016512996
105	0x3bf594f4	0.0074945632
106	0x3cff60b8	0.031174049
107	0x3d0152bb	0.03157304
108	0xbd143dfb	-0.03619192
109	0xbd33f19d	-0.043931592
110	0x3c32e66a	0.010919193
111	0xbc9ab1ee	-0.018883672
112	0xbb596763	-0.0033173196
113	0xbd0e2ab1	-0.034708682
114	0xbbb11e12	-0.005405196
115	0x3c6079ce	0.0137009155
116	0x3c132cac	0.008982819
117	0x3c865563	0.016398137
118	0xbd3a15bc	-0.045430884
119	0x3c929a3a	0.017895807
120	0xbcee4aeb	-0.029088458
121	0xbd281ee0	-0.04104507
122	0xbd11d76f	-0.035605844
123	0x3c7049a6	0.014665997
124	0xbcf1ac78	-0.029501185
125	0x3b4228cc	0.0029626368
126	0xbcdfb80f	-0.027309446
127	0x3c21dffe	0.009880064
128	0x3c367265	0.011135672
129	0xbc9195fe	-0.017771717
130	0x3cb15949	0.02164902
131	0xbca60294	-0.020264901
132	0xbcf5675e	-0.029956516
133	0xbcb09304	-0.021554478
134	0x3bca08fe	0.0061656227
135	0x3b4cf4c7	0.0031273828
136	0x3c464498	0.012101315
137	0xbb9e0134	-0.004821921
138	0xbd163647	-0.036672857
139	0xbcd313d9	-0.0257663
140	0xbc3d0e88	-0.011539109
141	0x3b4ef8c4	0.0031581381
142	0x3ca56957	0.020191832
143	0x3ccdc50a	0.02511837
144	0xbc885c40	-0.01664555
145	0x3c18cfc1	0.009326876
146	0x3c62f697	0.013852737
147	0xbce67070	-0.028129786
148	0x3ccbf9c2	0.024899367
149	0xbc6d86b0	-0.014497444
150	0x3c98fe3e	0.01867592
151	0xbcaced70	-0.021109313
152	0x3c0a5689	0.008443483
153	0x3c3cf9f7	0.011534206
154	0x3cc9561a	0.02457719
155	0xbd11c196	-0.03558501
156	0xbb056417	-0.0020353848
157	0xbc20c865	-0.009813403
158	0xbc642fa9	-0.013927379
159	0x3cbc5d2e	0.02299365
160	0x3b1af8c1	0.0023646804
161	0xbc91686f	-0.017749993
162	0x3bc88762	0.0061196545
163	0x3ca8cf5c	0.02060669
164	0xbd03ddd5	-0.032193977
165	0xbb9b6375	-0.004742081
166	0xbcb35a84	-0.021893747
167	0xbd01f384	-0.031726375
168	0xbd0f863b	-0.03504012
169	0xbc1d662f	-0.009606882
170	0xbbd150f4	-0.006387824
171	0x3c05dd4c	0.008170437
172	0xbd06efa6	-0.03294339
173	0xbccee148	-0.025253907
174	0xbc907a3d	-0.017636413
175	0x3b8617ca	0.0040921913
176	0x3cf77799	0.030208396
177	0xbd184fc3	-0.03718544
178	0xbb6f6cbf	-0.0036533324
179	0xbcb6c3c8	-0.022310153
180	0xbc757110	-0.0149805695
181	0xbca0bf90	-0.019622594
182	0xbab95cc1	-0.0014142023
183	0xbd171a59	-0.03689036
184	0x3d00e4c8	0.031468183
185	0xbbd53998	-0.00650711
186	0x3cc5a8c3	0.024128323
187	0x3ad24199	0.0016041278
188	0x3ce4c7de	0.027927335
189	0xbd3488fe	-0.04407596
190	0x3cb4ccca	0.022070307
191	0xbc0500f1	-0.0081179
192	0xbd02649c	-0.03183423
193	0x3c8224a2	0.015886609
194	0x3ce6ebb4	0.028188564
195	0xbd1d3731	-0.038382713
196	0x3be01149	0.006837998
197	0x3cc3cd78	0.023901686
198	0x3be02397	0.00684018
199	0xbc36562d	-0.011128944
200	0xbce5bf93	-0.028045451
201	0xbc24ffca	-0.0100707505
202	0x3c731f55	0.014839013
203	0xbc1a89d9	-0.0094322795
204	0xbc5f0c93	-0.013613838
205	0x3b9f5157	0.0048619914
206	0x3ceba36e	0.028764453
207	0x3c96e636	0.01842032
208	0xbb183a23	-0.0023228012
209	0xbc46fc21	-0.012145073
210	0x3bf87a2c	0.0075829234
211	0x3cd48154	0.025940575
212	0xbd05a112	-0.03262431
213	0xbd2b4b2f	-0.041819748
214	0x3c95eacb	0.018300435
215	0x3c422aa1	0.011850984
216	0xbce6ea5f	-0.028187929
217	0x3bc4a073	0.0060005723
218	0x3c96adfd	0.018393511
219	0x3d12ba47	0.03582218
220	0xbcb092fc	-0.021554463
221	0x3c9ecbb6	0.019384246
222	0xbcd0e5c4	-0.025500186
223	0x3ccb46fa	0.024814118
224	0x3c93e719	0.018054532
225	0xba744aad	-0.0009318989
226	0x3b089eed	0.002084668
227	0xbcb3df9b	-0.02195721
228	0xbcc6f159	-0.024285005
229	0xbc382934	-0.011240292
230	0x3ce5bac2	0.028043155
231	0x3c65c02e	0.01402287
232	0x3cf0e857	0.029407663
233	0x3d05b3b8	0.032642096
234	0xbc7e2a0d	-0.015512955
235	0xb9dd2b67	-0.00042184742
236	0x3ccacb7c	0.024755232
237	0xbc203cc7	-0.009780115
238	0x3bb68629	0.0055701924
239	0x3d1154cf	0.03548127
240	0x3ba65c0e	0.0050768917
241	0x3be9f556	0.007139842
242	0x3be54fb9	0.006998029
243	0xbc8c9822	-0.017162386
244	0x3ceeea99	0.0291646
245	0xbc3805eb	-0.01123188
246	0xbc808162	-0.015686695
247	0x3c7a5c5c	0.015280809
248	0xbc85af06	-0.01631881
249	0xbcbea693	-0.023272788
250	0xbcf2bfbe	-0.029632445
251	0xbc735dd3	-0.014853912
252	0xbca6bee1	-0.02035469
253	0xbcc55f69	-0.024093347
254	0xbc795035	-0.015216877
255	0xbc863648	-0.016383305

conv3d_extractor.branch1_conv2.bias f4 [64]
0	0x3c470ab9	0.012148553
1	0x3d0079a3	0.031366
2	0xbd2444cd	-0.040104676
3	0x3cb93d60	0.022612274
4	0xbc5e5f11	-0.01357247
5	0x3d175111	0.036942545
6	0xb99c68f7	-0.00029832844
7	0x3c6ae030	0.014335677
8	0xbbf2d157	-0.007410209
9	0xbb8103bd	-0.003937213
10	0xbb99cef2	-0.0046938593
11	0xbbcec81c	-0.006310476
12	0xbc3f7d67	-0.011687613
13	0x3d178489	0.03699163
14	0xbce488f6	-0.02789734
15	0x3cf513a9	0.029916601
16	0xbc8569a7	-0.01628573
17	0xbc940806	-0.018070232
18	0x3c43863d	0.01193386
19	0xbc799edd	-0.01523563
20	0xbcd5da46	-0.026105057
21	0x3c12d4b1	0.008961842
22	0xbc50e804	-0.012750629
23	0x3cdd87f3	0.027042365
24	0x3c56e09a	0.013115073
25	0x3d09c7b0	0.033637702
26	0xbc0cf20d	-0.008602631
27	0xbcb23b61	-0.02175683
28	0x3c150874	0.009096254
29	0x3b8fcadd	0.004388197
30	0xbcc429a4	-0.023945637
31	0xbc3a1e91	-0.011359827
32	0x3c83ce5d	0.016089613
33	0x3c778ab7	0.015108756
34	0x3c2066fa	0.0097901765
35	0xbbe06e8a	-0.006849115
36	0x3c9b5622	0.01896197
37	0xbc2efe00	-0.0106806755
38	0x3b8fa580	0.004383743
39	0xbcb34c44	-0.021886952
40	0x3cf8ee5b	0.030387094
41	0xbc2b3983	-0.010450724
42	0x3cd6791b	0.026180794
43	0x3d0344d4	0.03204806
44	0xbb748f5a	-0.003731689
45	0xbc734dde	-0.014850108
46	0xbcaa2a45	-0.020772109
47	0x3ccc3bd8	0.02493088
48	0x3c66dc3b	0.014090593
49	0x3b6f1138	0.003647877
50	0x3d092e60	0.033491492
51	0xbbf0acde	-0.007344826
52	0x3c25d44f	0.010121419
53	0x3d052fb4	0.032516196
54	0xbd05baa8	-0.032648712
55	0xbcd602d1	-0.02612439
56	0xbc9fa532	-0.019487951
57	0xbd12284e	-0.03568297
58	0x3ce4c454	0.027925648
59	0x3cbd798f	0.023129253
60	0xbcce6a62	-0.025197212
61	0x3ceb2a27	0.028706623
62	0xbce74990	-0.02823332
63	0x3d0888c3	0.03333355

conv3d_extractor.branch1_bn2.weight f4 [64]
0	0x3f798b95	0.9747861
1	0x3f7da42c	0.9907863
2	0x3f803223	1.00153
3	0x3f79f89f	0.9764499
4	0x3f76e6d5	0.9644597
5	0x3f7e08cb	0.99232167
6	0x3f7cd56c	0.98763156
7	0x3f7a76e3	0.97837657
8	0x3f7ae940	0.9801216
9	0x3f7a3331	0.9773436
10	0x3f7b858a	0.9825064
11	0x3f76d62e	0.9642056
12	0x3f801dd7	1.0009106
13	0x3f7934ee	0.9734639
14	0x3f7b381a	0.9813248
15	0x3f7aaeb9	0.97922856
16	0x3f7a7b18	0.97844076
17	0x3f79b652	0.97543824
18	0x3f7b530d	0.981736
19	0x3f7d4d27	0.9894585
20	0x3f7bccf6	0.9835962
21	0x3f7a1b42	0.9769784
22	0x3f7c95a7	0.9866585
23	0x3f7d1a47	0.9886822
24	0x3f7c5806	0.98571813
25	0x3f7cad7f	0.98702234
26	0x3f7ab893	0.9793789
27	0x3f7a018f	0.9765863
28	0x3f7c42a0	0.9853916
29	0x3f76b728	0.96373224
30	0x3f7b6498	0.9820037
31	0x3f7907c6	0.97277486
32	0x3f7c98c0	0.9867058
33	0x3f7ae5fe	0.9800719
34	0x3f793a8b	0.97354954
35	0x3f7c9cd9	0.9867683
36	0x3f7dea32	0.9918548
37	0x3f7b1cc7	0.98090786
38	0x3f79cfeb	0.9758288
39	0x3f778c00	0.96698
40	0x3f7c110e	0.98463523
41	0x3f7cd5de	0.98763835
42	0x3f76b0d7	0.96363586
43	0x3f7a13f5	0.976867
44	0x3f7a4ae2	0.9777051
45	0x3f790552	0.97273743
46	0x3f75e108	0.96046495
47	0x3f7f8e01	0.99826056
48	0x3f7bc4c8	0.9834714
49	0x3f7b0cb6	0.9806627
50	0x3f7c0635	0.9844697
51	0x3f7c77a9	0.98620087
52	0x3f7d908f	0.99048704
53	0x3f78afd2	0.9714328
54	0x3f7c36dd	0.98521215
55	0x3f7923d4	0.97320294
56	0x3f7bf36d	0.98418313
57	0x3f7abcd9	0.9794441
58	0x3f7f1f04	0.996567
59	0x3f7c6662	0.98593724
60	0x3f78b0e5	0.9714492
61	0x3f7b3c04	0.9813845
62	0x3f7aae7b	0.97922486
63	0x3f79f954	0.9764607

conv3d_extractor.branch1_bn2.bias f4 [64]
0	0xbc8e2d5b	-0.017355612
1	0xbb96b088	-0.004598681
2	0x3c0a9ae7	0.008459783
3	0xbcd71235	-0.026253799
4	0xbd14e827	-0.03635421
5	0xbb3707f5	-0.0027928327
6	0xbc0daf2b	-0.00864772
7	0xbc3d0600	-0.011537075
8	0xbc91d700	-0.017802715
9	0xbc8bbe4e	-0.017058518
10	0xbc5624ec	-0.013070326
11	0xbcb36b85	-0.021901855
12	0x3c006901	0.007837535
13	0xbcb1302c	-0.021629415
14	0xbc9225f5	-0.017840365
15	0xbc9a9470	-0.018869609
16	0xbcb065e0	-0.021532953
17	0xbcb819cc	-0.022473238
18	0xbc9084a8	-0.01764138
19	0xbb84e082	-0.0040550837
20	0xbc8b1357	-0.016976995
21	0xbc7e0ba2	-0.015505703
22	0xbc484767	-0.012224055
23	0xbc0398f9	-0.008032077
24	0xbc2c2376	-0.010506501
25	0xbc192ed0	-0.00934954
26	0xbca74c79	-0.020422207
27	0xbc43c563	-0.011948916
28	0xbbe374f2	-0.006941431
29	0xbc9bfc84	-0.019041307
30	0xbcb76c71	-0.022390576
31	0xbc6aa5e7	-0.014321781
32	0xbbbc3261	-0.0057433103
33	0xbc360612	-0.011109846
34	0xbc9eff64	-0.01940889
35	0xbb93b3ab	-0.004507502
36	0xbb92a3ba	-0.004475084
37	0xbc876310	-0.016526729
38	0xbc7a7c5e	-0.0152884405
39	0xbd28f490	-0.041248858
40	0xbc2d2fe3	-0.010570499
41	0xbc0515c6	-0.008122867
42	0xbcd55e60	-0.026045978
43	0xbcaac2b0	-0.020844787
44	0xbc755157	-0.014973006
45	0xbcf22da1	-0.029562773
46	0xbd17e8bb	-0.037087183
47	0x3b4ae211	0.00309575
48	0xbbe1fd95	-0.0068966844
49	0xbc48c5ba	-0.012254173
50	0xbc8c2745	-0.017108569
51	0xbc21978c	-0.009862792
52	0xbc0db259	-0.008648478
53	0xbcc8507a	-0.024452437
54	0xbc13f326	-0.009030139
55	0xbc5c8b81	-0.013460995
56	0xbc292632	-0.010324048
57	0xbc94fb11	-0.018186124
58	0xbc4d757a	-0.012540216
59	0xbc16e719	-0.009210371
60	0xbccf604c	-0.025314473
61	0xbc301bb0	-0.010748789
62	0xbc9cab44	-0.019124635
63	0xbcef278d	-0.029193664

conv3d_extractor.branch1_bn2.running_mean f4 [64]
0	0x3e5056bb	0.20345585
1	0xbf1aa4c7	-0.6040768
2	0xbf600b86	-0.87517583
3	0xbf2328b8	-0.63734007
4	0xbe5ee3d0	-0.21766591
5	0xbf862daa	-1.0482686
6	0xbf9ec44e	-1.2403657
7	0xbfe17133	-1.7612671
8	0xbf3d18c1	-0.73865896
9	0xbfd54a1c	-1.6663241
10	0xbf1cb0ac	-0.6120708
11	0x3ee3e185	0.44507995
12	0xbfc99d67	-1.575116
13	0xbf981077	-1.1880025
14	0xbfaf1e47	-1.3681115
15	0xbff301d3	-1.8984932
16	0xbfc2d17d	-1.5220181
17	0xbf5b71f2	-0.8572074
18	0xbf7ff3e7	-0.9998154
19	0x3f527468	0.8220887
20	0xbfb0f36f	-1.382429
21	0xbf1907b4	-0.5977738
22	0xbf802757	-1.0012006
23	0xbec2815f	-0.37989327
24	0xbfa01e91	-1.2509328
25	0xbf90ba69	-1.1306888
26	0xbfaaab00	-1.3333435
27	0x3e3be04c	0.18347281
28	0xbf33c0d9	-0.7021614
29	0x3f4f57d3	0.80993384
30	0xbf1ce7eb	-0.6129138
31	0x3eb3fec5	0.3515531
32	0x3ee80b26	0.45321006
33	0x3d844139	0.06457753
34	0x3e6de146	0.23230466
35	0x3f144006	0.5791019
36	0xbfe2ce5b	-1.7719225
37	0xbee256e2	-0.4420691
38	0x3f200a93	0.62516135
39	0xbf52c7cc	-0.82336116
40	0x3d92f0ae	0.07174812
41	0xbfaeed46	-1.366616
42	0xbeb69f41	-0.35668376
43	0xbf57632c	-0.841357
44	0xbf192b12	-0.59831345
45	0xbfcd5fcd	-1.6044861
46	0xc002434f	-2.0353582
47	0x3f02fe67	0.5116944
48	0x3f390380	0.72270966
49	0xbf97445d	-1.1817738
50	0xbfcf5792	-1.6198599
51	0xbfbed172	-1.4907668
52	0xbf8a756c	-1.0817084
53	0xbfcfb27a	-1.6226342
54	0xbfb704bc	-1.429832
55	0x3f02e964	0.51137376
56	0xbf2ce155	-0.6753133
57	0xbfb84f8b	-1.4399275
58	0x3ef0873e	0.46978182
59	0x3ed67207	0.4188387
60	0xbf9c1b93	-1.2195915
61	0xbf8ca11e	-1.0986669
62	0xbfc705d8	-1.5548658
63	0xbf83f8a8	-1.0310259

conv3d_extractor.branch1_bn2.running_var f4 [64]
0	0x404c13e5	3.1887143
1	0x4058e861	3.3891833
2	0x405d745c	3.460227
3	0x40609923	3.5093467
4	0x401dfe46	2.4686446
5	0x4086c7c0	4.2118835
6	0x408d617b	4.4181495
7	0x409ebdd8	4.9606743
8	0x4003317d	2.0498955
9	0x4081c55b	4.0553412
10	0x400a503b	2.1611469
11	0x4035ff01	2.8436892
12	0x40b65e16	5.698985
13	0x405361c1	3.3028414
14	0x401ca017	2.447271
15	0x40684043	3.6289222
16	0x402489f4	2.57092
17	0x3ffc9d8c	1.973558
18	0x404d6780	3.2094421
19	0x40591147	3.3916795
20	0x408f6115	4.480601
21	0x3fd1f2f6	1.6402271
22	0x4061bd32	3.5271726
23	0x4004d078	2.075224
24	0x40633603	3.5501716
25	0x40854ae3	4.1653914
26	0x402ce7f1	2.7016566
27	0x400a4dda	2.1610017
28	0x40054634	2.0824099
29	0x3ff4dfdb	1.9130815
30	0x405420a3	3.314492
31	0x402e10d7	2.7197778
32	0x4012c259	2.293112
33	0x404b9f2f	3.1815908
34	0x4013ad24	2.3074427
35	0x409d7609	4.9206586
36	0x4085f0f4	4.185663
37	0x400089d9	2.0084136
38	0x40146b29	2.3190405
39	0x3fc5dc71	1.5457898
40	0x40139489	2.3059409
41	0x407e2033	3.9707153
42	0x3fc623c6	1.5479667
43	0x40094bef	2.1452596
44	0x3ff2b16b	1.8960394
45	0x40826eed	4.0760407
46	0x40be198d	5.940619
47	0x4072f7ce	3.7963748
48	0x402cba5a	2.698874
49	0x402a37f6	2.6596656
50	0x3ffe2e71	1.9857923
51	0x40535227	3.3018892
52	0x4026dbee	2.6071734
53	0x40404e97	3.0047967
54	0x406f8334	3.742383
55	0x4003aae4	2.0573053
56	0x4028c2ed	2.6368973
57	0x3fdfa979	1.7473594
58	0x408574d4	4.1705112
59	0x4060eeb0	3.5145683
60	0x40960fa3	4.689409
61	0x40446b0e	3.069034
62	0x407d967d	3.96231
63	0x404fc60d	3.246463

conv3d_extractor.branch2_conv1.weight f4 [32, 1, 3, 3, 3]
0	0x3e133081	0.14373972
1	0xbd4dc8a9	-0.050240193
2	0xbc2e3bb2	-0.01063435
3	0xbe3adcdd	-0.18248315
4	0xbe4f7b52	-0.20261887
5	0xbe024f9e	-0.12725684
6	0xbe196745	-0.149808
7	0xbd864ad7	-0.06557243
8	0x3e144761	0.14480354
9	0x3e035cb8	0.12828338
10	0x3db9c97c	0.09071633
11	0x3e31954f	0.17342113
12	0x3d302439	0.043003295
13	0xbd9d692c	-0.076860756
14	0x3e1a982c	0.15097111
15	0x3e1319bf	0.1436529
16	0x3c1b6c9b	0.009486343
17	0x3d2caf2e	0.042159252
18	0xbe3287d0	-0.17434621
19	0xbe294ef3	-0.16534023
20	0xbcef90ae	-0.029243793
21	0xbe06ca43	-0.13163094
22	0xbd756f20	-0.05992043
23	0xbdd5451d	-0.10413573
24	0xbe0c575c	-0.137052
25	0xbd9328b1	-0.07185496
26	0x3cc7310c	0.02431538
27	0xbe3bb486	-0.18330583
28	0xbda7db30	-0.081961036
29	0x3ccbf316	0.024896186
30	0xbdca09aa	-0.098651245
31	0x3e25ca03	0.16190343
32	0x3be799b3	0.007067883
33	0x3c9fdfc2	0.019515876
34	0xbd85199b	-0.064990245
35	0xbe48eade	-0.19620845
36	0x3c972108	0.018448368
37	0xbd9a9bf8	-0.0754928
38	0x3cea080c	0.02856829
39	0x3d1a7815	0.037712175
40	0xbe405481	-0.18782236
41	0xbc31176d	-0.010808808
42	0xbdf6fa39	-0.12059445
43	0x3d68bc3e	0.056820147
44	0xbe0ed89e	-0.1394982
45	0x3def42d2	0.11682667
46	0xbd778fdc	-0.06043993
47	0xbdc004ea	-0.09375937
48	0x3d973a04	0.073841125
49	0x3e1d2454	0.1534589
50	0xbdd14c27	-0.10219603
51	0x3d82c450	0.063851
52	0x3dbea6f6	0.09309189
53	0xbdf63d02	-0.12023355
54	0xbe33509e	-0.17511222
55	0xbe05df09	-0.13073362
56	0xbda86901	-0.08223153
57	0x3d82531f	0.0636351
58	0x3e16ad7e	0.1471462
59	0xbd9cbe11	-0.0765344
60	0xbc45857c	-0.012055751
61	0x3e3e5baf	0.18589662
62	0x3e127f1f	0.14306305
63	0x3e46a14e	0.1939747
64	0x3d96e524	0.07367924
65	0x3deeef90	0.11666787
66	0x3df1644e	0.1178671
67	0x3da0c12a	0.07849343
68	0xbd29acb3	-0.041424464
69	0xbda6c0bd	-0.08142231
70	0xbc338bdb	-0.010958637
71	0xbd8f4b4e	-0.06996785
72	0x3e36ac6a	0.17839208
73	0x3e424743	0.18972497
74	0xbd4b3d3b	-0.04961894
75	0x3d8e7a3c	0.06956908
76	0x3e1e74b0	0.154742
77	0x3d80f220	0.06296182
78	0x3d88b732	0.06675567
79	0xb9964165	-0.00028658952
80	0x3e327c80	0.17430305
81	0x3e1fe723	0.15615515
82	0xbdea4b4a	-0.114401415
83	0xbdb0864e	-0.086193666
84	0x3cb672de	0.02227157
85	0x3c4f75ab	0.012662332
86	0xbe2d7f0f	-0.16943
87	0x3ddfec0a	0.10933693
88	0xbd340770	-0.043952405
89	0xbdcffd2f	-0.10155713
90	0xbd62e9d8	-0.055398792
91	0x3c298c3c	0.010348376
92	0x3d6c3ee8	0.05767718
93	0xbe36c870	-0.17849898
94	0x3e1823b9	0.14857377
95	0xbd1088a1	-0.03528655
96	0xbe14841c	-0.1450352
97	0x3e1eef03	0.15520863
98	0x3d90bfb1	0.07067812
99	0x3e347bd7	0.17625366
100	0xbe398bf6	-0.18119797
101	0xbe11ed6b	-0.14250724
102	0x3e24b710	0.16085458
103	0xbc571c1a	-0.0131292585
104	0xbe343c5a	-0.17601147
105	0x3da38e00	0.07986069
106	0x3e2ed43e	0.17073151
107	0x3d650a50	0.055918038
108	0x3d130c6b	0.035900515
109	0x3cfb6332	0.030686948
110	0xbe115464	-0.14192349
111	0x3cbb32d5	0.022851387
112	0xbdecb790	-0.11558449
113	0xbd2dc0c0	-0.04242015
114	0x3deccf1f	0.11562943
115	0xbdc935ae	-0.09824692
116	0xbe34b3f4	-0.17646772
117	0xbb41900e	-0.0029535326
118	0x3d54ce66	0.05195465
119	0xbd7139ea	-0.05889312
120	0x3d0ffb0c	0.035151526
121	0x3e175aa4	0.1478067
122	0xbd09cca7	-0.033642437
123	0x3d74382c	0.059623882
124	0xbdc0f2fe	-0.09421347
125	0xbe0c1c4e	-0.13682672
126	0x3df541f6	0.11975472
127	0xbdcbd773	-0.09953203
128	0xbdfd2f8d	-0.12362585
129	0x3e129447	0.14314376
130	0x3dff0876	0.12452786
131	0x3e0e88b6	0.13919339
132	0x3dcc7ec2	0.09985115
133	0xbdc0f8ba	-0.09422441
134	0xbd93d90d	-0.072191335
135	0x3e1fa626	0.15590724
136	0x3e2ddcbb	0.16978733
137	0x3e3be04a	0.18347278
138	0xbdaf76ea	-0.08567603
139	0x3c68d4f2	0.014210926
140	0x3dafb6c5	0.085797824
141	0xbdcfd002	-0.10147096
142	0x3c417b28	0.011809148
143	0x3d007716	0.03136357
144	0xbd4e1371	-0.05031151
145	0x3ca3be70	0.019988269
146	0xbe17439d	-0.14771886
147	0x3daf03b8	0.08545631
148	0xbbb97023	-0.0056591197
149	0x3da4acfb	0.08040806
150	0x3cbb6e71	0.022879811
151	0x3ddcea43	0.107868694
152	0x3c9ae6c3	0.018908864
153	0xbe1c40ba	-0.15259066
154	0xbd8a76ae	-0.067609176
155	0x3e474890	0.19461274
156	0xbd7e3434	-0.062061504
157	0xbe095aba	-0.13413516
158	0x3d439d27	0.047757294
159	0x3e223385	0.15839966
160	0x3e2b1d21	0.1671033
161	0xbe1fa32a	-0.15589586
162	0x3da039f5	0.078235544
163	0xbdf62484	-0.120186836
164	0xbe0dddb0	-0.13854098
165	0x3dc4b26a	0.09604342
166	0xbd8f9ec2	-0.070127025
167	0xbdb3ceca	-0.08779676
168	0xbd340c52	-0.043957062
169	0xbe382beb	-0.17985503
170	0x3e274f4a	0.1633884
171	0xbcac39c9	-0.021023648
172	0x3dc7b735	0.09751741
173	0xbdd4039e	-0.103522524
174	0xbe4cddf7	-0.20006548
175	0x3d972222	0.07379557
176	0xbcc1972d	-0.023631657
177	0xbe3f65b3	-0.18691139
178	0xbd10da96	-0.03536471
179	0xbdb9d590	-0.09073937
180	0xbc23f39f	-0.010006814
181	0xbe2c358a	-0.16817299
182	0xbd35ec8f	-0.044415053
183	0x3dd4c8d9	0.10389871
184	0x3d1fedeb	0.039045256
185	0x3d4fd559	0.050740574
186	0x3d15672d	0.03647535
187	0x3da3f12e	0.08004986
188	0xbd0ce468	-0.034397513
189	0x3d2710d9	0.04078755
190	0xbc515a48	-0.012777872
191	0x3de72bc2	0.11287643
192	0xbd900ce6	-0.0703371
193	0x3dc4e72a	0.096144035
194	0x3cdaa31e	0.026689108
195	0x3c8fd5a1	0.01755792
196	0xbdd4fc78	-0.10399717
197	0xbd09e188	-0.03366235
198	0x3e18945b	0.14900343
199	0xbda00eb2	-0.07815303
200	0x3d89da90	0.067311406
201	0x3e386817	0.18008457
202	0xbce20803	-0.02759171
203	0x3dbe0623	0.09278514
204	0xbc3a86cc	-0.011384677
205	0x3de4ad0a	0.11165817
206	0xbbf3bc70	-0.007438235
207	0x3d33ca81	0.043894295
208	0x3dc94492	0.09827532
209	0xbe2d0a25	-0.16898401
210	0x3df32c91	0.11873735
211	0xbd2b6372	-0.041842885
212	0x3da3e525	0.0800269
213	0x3db9c144	0.090700656
214	0x3bcb1515	0.0061975815
215	0x3d7afb60	0.061274886
216	0xbd2493f6	-0.04018017
217	0xbe1d68d9	-0.15372027
218	0x3ce08f72	0.02741215
219	0x3d8cb066	0.06869583
220	0x3daa6866	0.08320694
221	0x3e3e73e5	0.18598898
222	0x3e48f0ab	0.19623058
223	0x3e33523a	0.17511836
224	0xba8b033a	-0.001060582
225	0x3c88fa3f	0.01672089
226	0x3e49f41a	0.19722024
227	0xbc50412b	-0.01271085
228	0x3cf6f3a9	0.030145483
229	0x3e354ffc	0.17706293
230	0xbdd95e2e	-0.106136665
231	0xbdb5b2f8	-0.08872026
232	0x3c8817f4	0.016612984
233	0xbe1f96c0	-0.1558485
234	0xbcdc981f	-0.026928006
235	0xbe228fcb	-0.15875165
236	0x3dd8cb75	0.10585681
237	0x3d921ecc	0.0713478
238	0x3e1547d4	0.14578182
239	0xbdec68b9	-0.11543412
240	0x3d228f3e	0.039687388
241	0x3dbe64e6	0.092965886
242	0x3d85ab93	0.06526866
243	0xbdfa2c4e	-0.12215482
244	0x3e26c726	0.16286907
245	0x3e107c00	0.14109802
246	0xbdc29214	-0.095005184
247	0xbdd6515f	-0.10464739
248	0x3e43e261	0.19129325
249	0xbc2e449b	-0.010636474
250	0xbd504b53	-0.050853085
251	0x3d9340b0	0.071900725
252	0xbe0115eb	-0.12606017
253	0x3ddfb3ef	0.109229915
254	0xbdfb07bc	-0.122573346
255	0x3e067158	0.13129175

conv3d_extractor.branch2_conv1.bias f4 [32]
0	0xbe324912	-0.17410687
1	0x3c92c6c0	0.017917037
2	0x3da284a4	0.079354554
3	0xbe16c394	-0.14723045
4	0x3dd70220	0.10498452
5	0xbd77e30b	-0.06051926
6	0xbd846b8c	-0.064658254
7	0xbd9295b3	-0.07157459
8	0x3e1e8112	0.15478924
9	0xbdd7ea89	-0.10542781
10	0xbd0016a0	-0.031271577
11	0xbe13a795	-0.14419396
12	0xbd69d826	-0.0570909
13	0x3e1d3dc7	0.15355597
14	0x3e0c5837	0.13705526
15	0xbdd8f405	-0.10593418
16	0x3e0c4549	0.13698305
17	0x3e0861e2	0.1331859
18	0x3d01e49f	0.03171217
19	0x3cd7db8b	0.026349803
20	0x3e1670c6	0.14691457
21	0x3e41afa7	0.18914662
22	0x3e341f82	0.17590144
23	0xbdbd3893	-0.09239306
24	0x3e2e1ad6	0.17002425
25	0x3e0f5d76	0.14000496
26	0xbccbb727	-0.024867607
27	0xbdfc545b	-0.12320777
28	0xbda8bb40	-0.0823884
29	0xbe1250dc	-0.14288658
30	0x3b9d6477	0.004803236
31	0xbdef7afd	-0.1169338

conv3d_extractor.branch2_bn1.weight f4 [32]
0	0x3f7b9a8b	0.9828269
1	0x3f7ce20a	0.9878241
2	0x3f8130fa	1.0093071
3	0x3f7bca75	0.983558
4	0x3f7b9670	0.98276424
5	0x3f80a3ff	1.0050048
6	0x3f7d93fb	0.99053925
7	0x3f80d0de	1.0063741
8	0x3f80b17b	1.0054163
9	0x3f7fa5fc	0.9986265
10	0x3f78d31a	0.97197115
11	0x3f7f1461	0.9964047
12	0x3f7b3282	0.98123944
13	0x3f7d5b3a	0.98967326
14	0x3f7fe4fb	0.9995877
15	0x3f81b5fc	1.0133662
16	0x3f8202e6	1.0157135
17	0x3f7f39b2	0.9969741
18	0x3f7e1119	0.9924484
19	0x3f7b89c9	0.9825712
20	0x3f81f389	1.0152446
21	0x3f829054	1.0200295
22	0x3f7bfcde	0.9843272
23	0x3f7dc9f7	0.991363
24	0x3f7d895a	0.99037707
25	0x3f7d37ba	0.98913157
26	0x3f8162a6	1.010823
27	0x3f804253	1.002024
28	0x3f7c3ce5	0.9853042
29	0x3f80c79e	1.0060918
30	0x3f840937	1.0315312
31	0x3f7c358c	0.98519206

conv3d_extractor.branch2_bn1.bias f4 [32]
0	0xbbe21300	-0.0068992376
1	0xbbee3244	-0.0072691757
2	0x3b8b0a16	0.0042431457
3	0xbc4e25e4	-0.012582276
4	0xbc42259c	-0.011849787
5	0x3b95e2e8	0.0045741685
6	0x3aef71f7	0.0018268217
7	0x3bfe44a8	0.0077596493
8	0x3a75bf6d	0.0009374533
9	0xba74f83a	-0.000934485
10	0xbc82bc6c	-0.015958987
11	0x3aca3456	0.0015426974
12	0xbc764599	-0.015031242
13	0xbbaffedc	-0.005370958
14	0xbb2f6236	-0.002676142
15	0x3c35b117	0.011089585
16	0x3c28e80b	0.01030923
17	0x3baf7e80	0.005355656
18	0xbc059e77	-0.008155457
19	0xbb0cea89	-0.0021502099
20	0x3b7e63d5	0.0038816829
21	0x3c9a723b	0.018853297
22	0xbc6ec1dc	-0.014572587
23	0xbb02965d	-0.001992605
24	0xbb4a420e	-0.0030862126
25	0x3a5cc557	0.000842174
26	0x3c87c461	0.016573133
27	0x3a8d33dd	0.0010772903
28	0xbc13358b	-0.008984934
29	0x3be9a49b	0.007130218
30	0x3cb2da01	0.021832468
31	0xbba4570b	-0.005015259

conv3d_extractor.branch2_bn1.running_mean f4 [32]
0	0xbebe5bfc	-0.37179554
1	0xbe463dcb	-0.1935951
2	0x3ef898dd	0.48554125
3	0xbe268f86	-0.16265687
4	0x3d5cdb24	0.053919926
5	0x3dff4529	0.12464363
6	0xbe98b705	-0.29827133
7	0x3e43652f	0.19081567
8	0x3ed5e8e9	0.4177926
9	0xbb32dca3	-0.0027292154
10	0xbe80c6e0	-0.2515173
11	0xbee91c94	-0.45529616
12	0xbc9f8217	-0.019471211
13	0x3db516ee	0.08842264
14	0x3e9d90c7	0.3077452
15	0x3e5efbb2	0.21775702
16	0x3ea5ede4	0.3240806
17	0xbdc40848	-0.09571892
18	0x3dbafc24	0.09130123
19	0xbe6a02e9	-0.22852673
20	0x3e9b83fd	0.30374137
21	0x3efb7967	0.4911606
22	0x3e8a8fcc	0.27062833
23	0xbeb9baf6	-0.36275452
24	0x3df0d3bc	0.11759135
25	0xbd8ec266	-0.06970672
26	0xbe7d010e	-0.24707434
27	0x3dab6fca	0.083709314
28	0xbeca821f	-0.395524
29	0x3e50215a	0.20325223
30	0x3e8e54b5	0.27799
31	0xbeb48ba5	-0.3526279

conv3d_extractor.branch2_bn1.running_var f4 [32]
0	0x3ced4133	0.028961753
1	0x3cd27fbc	0.025695674
2	0x3d84f8ca	0.06492765
3	0x3c6b9fac	0.01438133
4	0x3cc8cf93	0.024513042
5	0x3c93d692	0.018046651
6	0x3cc426bd	0.023944253
7	0x3ce66cbb	0.028128019
8	0x3cfa66a1	0.030566515
9	0x3c86247d	0.01637482
10	0x3cf2acb7	0.029623372
11	0x3d2699f3	0.04067416
12	0x3c50c5cd	0.012742472
13	0x3c72e301	0.01482463
14	0x3c84e623	0.016223019
15	0x3d1a785c	0.03771244
16	0x3c876e0c	0.016531967
17	0x3cccf65d	0.025019819
18	0x3c9775f8	0.01848887
19	0x3d140a4c	0.036142632
20	0x3cc8d4e5	0.024515579
21	0x3d30e66f	0.04318851
22	0x3c2c1828	0.010503806
23	0x3d21a8cf	0.03946763
24	0x3c927579	0.017878281
25	0x3cca2b93	0.024678981
26	0x3cb77f3e	0.022399541
27	0x3ca7eeaa	0.020499546
28	0x3d4443ef	0.04791635
29	0x3d3ff7ed	0.0468673
30	0x3d175522	0.036946423
31	0x3ce0d97e	0.027447458

conv3d_extractor.branch2_conv2.weight f4 [64, 32, 3, 3, 3]
0	0x3c9577f8	0.018245682
1	0xbbd41dff	-0.0064733024
2	0x3d09fcd8	0.033688396
3	0xbb91eb1b	-0.0044530756
4	0x3cec9f09	0.028884428
5	0xbb5d1bbe	-0.003373846
6	0xbc8f5c6a	-0.017500121
7	0x3b0ec34c	0.0021783886
8	0x3c8dc6bd	0.01730668
9	0x3ceede3c	0.029158704
10	0xbbaee624	-0.0053374935
11	0x3cdc5789	0.026897209
12	0x3b01d3fc	0.001981019
13	0xbc14d4c3	-0.0090839295
14	0x3d0aced1	0.03388864
15	0xbcc68df1	-0.024237605
16	0xbbac9e47	-0.0052678916
17	0x3cca5872	0.024700377
18	0xbce7884d	-0.028263235
19	0xbc62c3d4	-0.013840634
20	0xbbc20172	-0.0059205825
21	0x3c4850c5	0.012226288
22	0x3cd19b2c	0.025586687
23	0xbc9789c8	-0.018498316
24	0xbcfd3898	-0.030910775
25	0x3becc7c8	0.007225964
26	0x3c107849	0.008817741
27	0x3cdae1a1	0.026718916
28	0xbcf74a81	-0.030186893
29	0xbd0cf486	-0.034412883
30	0x3bb6db87	0.005580369
31	0x3cc91bae	0.024549332
32	0x3c2f620d	0.0107045295
33	0x3cb75908	0.02238132
34	0x3b1daca3	0.0024059198
35	0x3ce2ce51	0.02768627
36	0xbcc659d4	-0.024212755
37	0xbc337cab	-0.010955016
38	0xbb3b8bc2	-0.0028617238
39	0xbbcaddd2	-0.006190994
40	0x3cf32df6	0.029685002
41	0x3cd77af3	0.026303744
42	0xbcc1bb42	-0.023648862
43	0x3a053e92	0.0005082871
44	0xbcfb7a09	-0.03069784
45	0xbc3130e7	-0.010814882
46	0xbc2d029f	-0.010559707
47	0x3ccb542f	0.024820415
48	0xbcb28730	-0.021792978
49	0x3b98af39	0.00465956
50	0x3cf8e1c7	0.030381097
51	0x3c21875e	0.009858934
52	0x3c36a2f4	0.0111472495
53	0xbcbfff6f	-0.02343723
54	0x3b18db06	0.0023323908
55	0xbd1aa335	-0.037753303
56	0x3ca1b3d4	0.019739069
57	0xbc2fdbda	-0.010733569
58	0xbca8c0e4	-0.02059979
59	0x3acb65a7	0.0015517966
60	0xbc9125a2	-0.01771814
61	0xbca9c3b4	-0.020723201
62	0x3bc49da0	0.0060002357
63	0x3aa636a2	0.0012681077
64	0x3a7d94b7	0.00096733443
65	0xbc56e799	-0.013116741
66	0xbbef6201	-0.007305384
67	0x3c9e2e89	0.019309299
68	0xbd180edd	-0.03712355
69	0xbcc5d846	-0.024150979
70	0x3cdcf74a	0.026973385
71	0xbd076b75	-0.033061463
72	0xbcf4d20a	-0.02988531
73	0xbcefecce	-0.029287722
74	0xbd250c71	-0.04029507
75	0xbd281258	-0.04103312
76	0xbce3ce10	-0.02780822
77	0xbcee5bc8	-0.0290965
78	0xbd1c7a9b	-0.038202863
79	0xbd30fd50	-0.043210328
80	0xbc1a7f6e	-0.009429796
81	0xbcec4eaf	-0.028846113
82	0x3cdb0752	0.026736889
83	0xbcdf1481	-0.027231457
84	0xbd1057e1	-0.035240058
85	0x3bc5997b	0.006030259
86	0xbcf68daa	-0.030096848
87	0x3bae3f2f	0.0053175907
88	0x3b0ca71f	0.0021461917
89	0xb98a7e49	-0.000264155
90	0xbd055cc9	-0.03255919
91	0x3b277f40	0.0025558025
92	0xbc0fbf9d	-0.0087737115
93	0xbabcbdff	-0.0014399885
94	0x3ce7cb68	0.028295234
95	0xbce867dd	-0.028369838
96	0xbcb02348	-0.021501198
97	0x3b32929f	0.0027248038
98	0xbb662d8d	-0.0035122365
99	0x3c1d4683	0.009599331
100	0xbcba141e	-0.02271467
101	0x3cdcf1b5	0.026970724
102	0x3cd5a094	0.026077546
103	0xbca0cc31	-0.019628616
104	0x3bcbfb13	0.0062249987
105	0x3cf14262	0.0294506
106	0x3cd99d6f	0.026564328
107	0xbd016d49	-0.031598363
108	0xbd10f752	-0.035392113
109	0xbcb3fc93	-0.021971023
110	0x3c8acfde	0.016944822
111	0xbbc3cfcf	-0.0059757004
112	0x3ca62507	0.020281328
113	0xbbae7bdd	-0.0053248242
114	0x3cc86d3e	0.024466153
115	0x3cd27304	0.02568961
116	0x3a4022e3	0.0007329417
117	0xbc36c574	-0.011155475
118	0xbc9b6eea	-0.018973786
119	0xbca79386	-0.020456087
120	0xbd14f941	-0.03637052
121	0xbc9fe221	-0.019517006
122	0x3c1c87f0	0.009553894
123	0xbcab2d55	-0.02089564
124	0xbc6a30f2	-0.014293896
125	0xbc595f9b	-0.013267423
126	0xbc61bbc8	-0.013777681
127	0xbcdb7f96	-0.026794236
128	0x3c13022e	0.008972688
129	0xb9eccecd	-0.00045167506
130	0x3ba67a97	0.005080532
131	0x3ca68248	0.020325795
132	0xbb31487f	-0.0027051268
133	0x3c3035f6	0.010755053
134	0xbce44ded	-0.02786919
135	0x3ad0ea2a	0.0015938927
136	0x3bb2cf90	0.0054568723
137	0xbd023883	-0.031792175
138	0x3c4258e9	0.011862018
139	0x3bb71666	0.005587387
140	0x3cb40734	0.021976091
141	0xbbf903bc	-0.007599322
142	0xba43ef6a	-0.0007474335
143	0xbc7d4efe	-0.015460728
144	0x3ca02bb4	0.01955209
145	0x3c0c329f	0.008556991
146	0x3c922427	0.017839504
147	0x39f66e93	0.0004700316
148	0xbb8f87c2	-0.0043801973
149	0xbbe52014	-0.0069923494
150	0x3c11abbd	0.008891043
151	0xbb2e7b99	-0.0026623963
152	0xbd113264	-0.035448447
153	0x3ca0b3b5	0.019616941
154	0xbd1cdaab	-0.038294476
155	0x3c98d135	0.018654445
156	0x3ce681a3	0.028137987
157	0xbab3b004	-0.0013709073
158	0xbc2f507c	-0.010700341
159	0xbd164107	-0.03668311
160	0x3981cbff	0.00024756786
161	0xbb92526a	-0.004465391
162	0xbc55c428	-0.013047256
163	0xbc3c8957	-0.011507354
164	0x3cf5db57	0.030011816
165	0x3bc2ca4d	0.0059445263
166	0x3c2015fd	0.009770867
167	0x3cbd1f75	0.023086289
168	0x3c82eeda	0.015983034
169	0x3c070541	0.008240999
170	0x3caad8af	0.020855276
171	0xbcb489b6	-0.022038322
172	0xbcbe8779	-0.023257958
173	0xbcbb9cf3	-0.022901988
174	0xbbd57811	-0.006514557
175	0xbc6eea6e	-0.01458226
176	0xbb2720ae	-0.0025501656
177	0x3cd46b48	0.025930062
178	0x3d188975	0.037240464
179	0xbc2953a5	-0.010334884
180	0x3cae5e29	0.021285133
181	0x3afdc159	0.001935999
182	0x3af89674	0.0018965737
183	0x3d0b50b9	0.03401253
184	0x3b0c4af7	0.0021406987
185	0xbcfb8467	-0.030702783
186	0xbc814648	-0.015780583
187	0x3cda390a	0.026638526
188	0x3cfc674e	0.030810978
189	0x3c08ffaa	0.008361736
190	0xbce142a2	-0.027497593
191	0x3ba98d80	0.005174339
192	0x3c8dde5e	0.017317947
193	0xbc588ccb	-0.013217161
194	0x3bc87bdc	0.006118281
195	0x3c13dbff	0.009024619
196	0xbbb87a93	-0.0056298464
197	0x3b3fcb76	0.002926556
198	0x3bb86a04	0.0056278724
199	0x3ca8bf59	0.020599054
200	0x3c1618c9	0.009161183
201	0x3c8b663c	0.017016523
202	0xbcca3423	-0.024683064
203	0xbcf87354	-0.03032843
204	0x3cab99e4	0.020947404
205	0xbc09bcdb	-0.008406843
206	0x3cc40a1a	0.023930598
207	0xbbb310a3	-0.0054646297
208	0xbcc53376	-0.02407239
209	0x3cc61c2b	0.024183353
210	0xbcca8b86	-0.024724733
211	0x3c4c8b0c	0.012484323
212	0x3bc4a1a4	0.0060007144
213	0xbd1d552d	-0.038411308
214	0xbc26d9b9	-0.010183745
215	0x3b22dcfa	0.002485095
216	0x3c22cd57	0.009936652
217	0x3cb2b2a1	0.021813693
218	0xbbf3eaec	-0.0074437764
219	0x3c990dea	0.018683393
220	0xbc2bd62e	-0.010488076
221	0x3ce4bf52	0.02792326
222	0xbc678654	-0.014131147
223	0x3c94a1ae	0.018143501
224	0x3c04a1c3	0.008095208
225	0x3c79958f	0.015233411
226	0x3cd0f29a	0.025506306
227	0xbd3bae70	-0.045820653
228	0xbca776b9	-0.020442354
229	0x3cdae86b	0.026722154
230	0xbd27af01	-0.04093838
231	0xbd0c110b	-0.03419594
232	0xbaa9955f	-0.0012938193
233	0xbc5aa1b7	-0.01334422
234	0xbcb48659	-0.022036718
235	0x3c4d25ae	0.012521191
236	0x3c847daa	0.016173203
237	0xbc6c99ea	-0.014440993
238	0x3ca9d0bf	0.02072942
239	0x3c95c480	0.018282175
240	0xbd15f928	-0.036614567
241	0xbcfea29f	-0.031083403
242	0x3ca50137	0.02014218
243	0xbd15d9da	-0.036584713
244	0xbc0b35b6	-0.008496692
245	0x3c0eca99	0.008715295
246	0x3c7de498	0.0154963955
247	0xbce56165	-0.028000543
248	0x3c2874ad	0.010281724
249	0xbc9b6939	-0.018971073
250	0x3ca71b67	0.020398809
251	0xbcb718bf	-0.022350667
252	0xbb08ddd8	-0.0020884182
253	0xbb22bbf6	-0.0024831272
254	0x3c64952a	0.013951579
255	0x3cb5f1b3	0.022209978

conv3d_extractor.branch2_conv2.bias f4 [64]
0	0xbc1e9e5d	-0.009681311
1	0x3cf3f330	0.029779047
2	0xbc12883a	-0.008943612
3	0x3a850712	0.0010149202
4	0xbaf43fb0	-0.0018634703
5	0xbca9ba93	-0.020718848
6	0x3cf97ac9	0.030454056
7	0x3c993df5	0.018706301
8	0x39fa7585	0.00047771275
9	0x3c241943	0.0100157885
10	0x3bf28fec	0.0074024107
11	0x3bcf81f5	0.0063326308
12	0xbc343023	-0.010997805
13	0x3c93efec	0.01805874
14	0xbc553db5	-0.0130152
15	0x3c64cb9f	0.013964563
16	0xbc89a4fc	-0.016802303
17	0x39e0af1f	0.00042855085
18	0x3c2bf3de	0.010495154
19	0xbd0a0a6a	-0.033701338
20	0xbcf1fa6f	-0.029538361
21	0xbd1a1cc9	-0.037625108
22	0x3c8adeeb	0.016951999
23	0xbcd4cee8	-0.025977567
24	0x3d1217d6	0.035667263
25	0xbcca55f1	-0.024699183
26	0xbcd30bd4	-0.025762476
27	0xbb6d2e92	-0.0036191088
28	0xbc466db6	-0.012111118
29	0x3c5a6aa8	0.013331093
30	0xbd2e1152	-0.042496987
31	0x3cae864e	0.021304276
32	0x3d0ebd62	0.03484858
33	0x3ca66688	0.020312563
34	0x3b555221	0.0032550173
35	0xbb8228f5	-0.0039721676
36	0x3d0a37be	0.033744566
37	0x3c5ebf2e	0.0135953855
38	0xbc719c5c	-0.014746752
39	0xbc915113	-0.017738855
40	0x3b31d266	0.0027133464
41	0x3d0f1a45	0.034937162
42	0x3c6dc957	0.014513335
43	0x3cd86800	0.026416779
44	0x3a59bbc3	0.0008305872
45	0xbc987804	-0.018611915
46	0x39bb1f98	0.0003569096
47	0x3d139643	0.036031973
48	0x3af44769	0.0018637005
49	0x3cb93c0a	0.022611637
50	0xbc106137	-0.00881224
51	0xbd0c2759	-0.034217212
52	0xbcacc87e	-0.021091696
53	0x3cae18f0	0.021252126
54	0x3beb5ffa	0.007183072
55	0x3c3ddb3c	0.011587914
56	0x3c18ed0d	0.009333861
57	0xbcafd526	-0.021463942
58	0x3d015ddb	0.03158365
59	0x3c9409a0	0.018070996
60	0xbc587112	-0.013210552
61	0x3a696149	0.0008902741
62	0xbd225c70	-0.039638937
63	0xbbe3ba9e	-0.0069497367

conv3d_extractor.branch2_bn2.weight f4 [64]
0	0x3f7b0c0c	0.9806526
1	0x3f7e6127	0.9936699
2	0x3f809079	1.004409
3	0x3f76870f	0.96299833
4	0x3f777a3b	0.96670884
5	0x3f7820a8	0.9692483
6	0x3f7b7171	0.9821997
7	0x3f796097	0.9741301
8	0x3f790122	0.97267354
9	0x3f7ca8cc	0.98695064
10	0x3f7af98d	0.98037034
11	0x3f7807fb	0.9688718
12	0x3f79dde3	0.976042
13	0x3f778ef6	0.96702516
14	0x3f7a8f34	0.9787476
15	0x3f79cd8f	0.9757928
16	0x3f79ec94	0.97626615
17	0x3f789aaa	0.97111
18	0x3f784ef2	0.9699546
19	0x3f7a7b29	0.9784418
20	0x3f779827	0.9671654
21	0x3f7b536f	0.98174185
22	0x3f7be4b8	0.9839587
23	0x3f7d3733	0.9891235
24	0x3f7a7c89	0.97846276
25	0x3f7cc4db	0.9873788
26	0x3f79813a	0.9746281
27	0x3f7a7aca	0.9784361
28	0x3f7bc2ad	0.98343927
29	0x3f7c9571	0.9866553
30	0x3f7a36b5	0.97739726
31	0x3f79dd39	0.97603184
32	0x3f7d9a23	0.9906332
33	0x3f7b901f	0.98266786
34	0x3f781ff9	0.96923786
35	0x3f7c2aaa	0.985026
36	0x3f7bcb0f	0.9835672
37	0x3f7d2955	0.9889119
38	0x3f7a82c9	0.9785581
39	0x3f779b0e	0.9672097
40	0x3f78ab74	0.97136617
41	0x3f7a4de5	0.9777511
42	0x3f7815f3	0.9690849
43	0x3f79ceba	0.97581065
44	0x3f78c1cf	0.9717073
45	0x3f7a1afc	0.97697425
46	0x3f78f40b	0.9724738
47	0x3f7aa17c	0.97902656
48	0x3f79f7e8	0.976439
49	0x3f7bc46c	0.9834659
50	0x3f7c3204	0.9851382
51	0x3f7c6262	0.9858762
52	0x3f79ba15	0.97549564
53	0x3f775ac6	0.96622884
54	0x3f7bc1e1	0.9834271
55	0x3f7cf6e1	0.9881421
56	0x3f7c8538	0.98640776
57	0x3f7a9f97	0.97899765
58	0x3f7e8725	0.99424964
59	0x3f79d8d2	0.97596467
60	0x3f793645	0.97348434
61	0x3f79d624	0.9759238
62	0x3f79ef44	0.97630715
63	0x3f78e365	0.97221977

conv3d_extractor.branch2_bn2.bias f4 [64]
0	0xbc31a00b	-0.01084138
1	0xbb179b9c	-0.0023133522
2	0x3b280222	0.0025636037
3	0xbd06f0e2	-0.032944568
4	0xbccbeb64	-0.024892516
5	0xbcc2c958	-0.023777649
6	0xbc5ed40c	-0.013600361
7	0xbc8a7600	-0.01690197
8	0xbcbf3ad9	-0.02334349
9	0xbb6d1217	-0.0036174112
10	0xbc7e30df	-0.015514581
11	0xbcac0635	-0.020999053
12	0xbc741c9e	-0.014899401
13	0xbd0594bc	-0.032612547
14	0xbc826bd7	-0.015920563
15	0xbcc44933	-0.023960685
16	0xbc80faff	-0.015744684
17	0xbcb4501e	-0.02201086
18	0xbcd585c8	-0.026064768
19	0xbc738a66	-0.01486454
20	0xbcc83c9f	-0.024442969
21	0xbc3afcbf	-0.011412798
22	0xbc84fb81	-0.016233208
23	0xbb13fcb8	-0.0022581052
24	0xbc77c670	-0.015122995
25	0xbc359972	-0.0110839475
26	0xbcc3c57d	-0.02389788
27	0xbc507c8e	-0.012725009
28	0xbc475d10	-0.012168184
29	0xbbfc6707	-0.0077027115
30	0xbcd6d5e9	-0.026225047
31	0xbc79a9ef	-0.015238269
32	0xbb029df7	-0.001993058
33	0xbc29c491	-0.0103618065
34	0xbcd227e5	-0.025653789
35	0xbc3b57fa	-0.0114345495
36	0xbc1e9a92	-0.009680407
37	0xbc2b9a79	-0.010473841
38	0xbc813326	-0.01577146
39	0xbd26d1c8	-0.040727407
40	0xbcc76852	-0.024341736
41	0xbc4cd1ca	-0.0125011895
42	0xbce2f6d8	-0.027705595
43	0xbc95a334	-0.018266298
44	0xbcc5feac	-0.024169289
45	0xbcd1e509	-0.025621908
46	0xbd046956	-0.03232702
47	0xbc857803	-0.016292578
48	0xbc8a66dc	-0.01689475
49	0xbc5bbc12	-0.013411539
50	0xbc64b175	-0.013958325
51	0xbc3e2a17	-0.011606715
52	0xbcb7f9d3	-0.022457993
53	0xbd00c6f3	-0.031439733
54	0xbc37dbc6	-0.011221832
55	0xbc28d3c7	-0.010304398
56	0xbbd3c134	-0.0064622406
57	0xbc95ef15	-0.01830248
58	0xbb1424bb	-0.00226049
59	0xbc9b47bf	-0.01895511
60	0xbce4094b	-0.027836462
61	0xbc6a28d0	-0.014291957
62	0xbc9133e4	-0.017724939
63	0xbcda9aed	-0.026685202
