init/trained_models/denoising_model.pth (torch, 332766 bytes, 13 tensors)

block1_conv.weight f4 [32, 64, 3, 3, 3]
00000000: 9520 093c 0d64 033d d3ac 4f3d f874 14bd
00000010: 42d5 58bd 5387 d4bc 8af9 a9bc 6652 b83c
00000020: 69b6 0cbd 1bc7 003b 0e4b c8bd aaf7 d7bc
00000030: cdd5 7ebd 7198 a0bc 255c d7bd 7c97 183c
00000040: 2eff b7bd ae93 9b3c 4891 a3bd befc 303d
00000050: d591 243c 9548 92bc 3992 893c 7b63 22bc
00000060: a2a3 253d 31a0 a2bc a27d b63c 760d 47bd
00000070: ef8b b1bc 319e 393d e570 2c3b c089 62bd
00000080: 98e0 b7bd 9c0b 45bd 312d d4bc d049 19bd
00000090: 9e22 5ebd 1370 b6bb b171 d03c 8f52 283d
000000a0: 2eeb 1b3d 4b32 2a3d 60a2 0a3d d2c8 8a3d
000000b0: f16b 8f3d 30f2 fc3c 9528 97bc 1508 143d
000000c0: 1a53 83bb 8c50 8b3d 227d c2bd aaa2 313d
000000d0: ad97 2dbd aff5 1c3d 75ce 22bd b00b 943c
000000e0: ca1f 253d 87e8 62bd baeb 05bd 32f4 b9bc
000000f0: 48f4 acbc 4f15 873c 1257 2bbd cb57 89bd
00000100: ddd2 27bd 6b15 f1bc 8135 123d 622c 7ebc
00000110: bf58 783d bd6e 043c b596 9e3d 2025 8cbd
00000120: 2933 c4bc 749b 9fbc c492 97bd 8049 1abd
00000130: 7f5a ffbc 413d f03c ccf9 7a3d 3576 2c3c
00000140: 0335 4e3d cf9e b2bd 91f0 33bd 5b5f 14bd
00000150: 3cd4 0e3d f212 0d3c 5c50 16bd b9ad f0bc
00000160: efd8 033e 0831 1b3d 14f3 293c e687 243d
00000170: 620c a2bd 36ab a0bd d74f b03d 7a00 a03d
00000180: 3501 4e3d 01e7 703d 0ba0 103b 4a7d 5bbc
00000190: bfc7 b2bd ea47 19bc 1683 963d b6f0 763d
000001a0: 5464 843d 92d7 613c 8350 273d ffd7 49bd
000001b0: 3605 89bc 7e45 41bc 2bd7 7e3d 9dee 9cbd
000001c0: 7e58 a7bc 0f8e 1e3c a0a0 283d 9326 a83c
000001d0: 6546 c6bc 8640 ec3d 73c0 973b 7488 f3bd
000001e0: 2d9f 993d f9e7 663d 65f0 49bb 5102 863d
000001f0: 3e67 3a3b 47f5 13bd dbbb 2a3d 02a0 803c
00000200: 2778 423d 6475 4a3d 9720 72bd 7278 893d
00000210: cf4d 873d 5287 77bd 5676 5f3d 7372 a3bb
00000220: c691 223c 5c60 6fbd 8b45 923d 9e58 09bd
00000230: 0ac3 d03d 1f87 90bc b45d 86bd 6c3d 7dbc
00000240: cc80 70bc 6d07 d83a f5bf 30bb 5152 a73c
00000250: 48f8 32bc 3d79 153d be36 09bc 3823 003d
00000260: 457a eabc a121 e1bc 5ab8 d5b9 e99c 6abd
00000270: ec28 11bd dfb9 853d 45ba b9bc de24 6e3c
00000280: 9d87 643d 8df0 993c 1098 34bd 1b40 04bd
00000290: beab 733a d753 f43a 969a 3e3c 1777 fcbc
000002a0: b9d8 0bbe 7d0e 83bd 6208 b83a 057b 19ba
000002b0: 165a ae3d 15de 703b a59a 8fbd ec84 3ebd
000002c0: ad09 a43a 7280 b3bc 7f15 933b 09c3 bfbd
000002d0: 13d2 693d 619a 0f3d b610 34bd 019f 0dbd
000002e0: ac68 cebc f241 4e3d 5376 4bbd 645a bb3d
000002f0: f99b 533b 3ef5 1c3d 1fcf 22bd 2294 39bd
00000300: cb98 21bd 8287 b8bd d3e8 cdbc c034 743c
00000310: 1454 ab3d 66db be3b eec8 6f3d 2f56 11bc
00000320: 31fd c53d 06ad 0fbc d003 a03c 7246 853c
00000330: ea37 dbba 36cd 943c cb64 a43c 8a19 753c
00000340: 8a3a 17bb c44d 8fbd ab9c b13d 9aad ad3d
00000350: c8bc 52bd b2c1 b83c 7278 f03b 2f6b 30bd
00000360: de54 3d3d c688 e03c d762 d4bc 2779 23bd
00000370: 2e0b b8bd efb7 6ebd 1ca9 b83c 8e25 e0bd
00000380: 2eec e6bc 49ae 583d abef f4bc 4579 143d
00000390: 2f04 ccbc ac76 17bd b542 cfbc 60aa 85bd
000003a0: 6aa6 003d 771e 9dbd c899 223d c05d a63c
000003b0: 9adf 38b8 4878 e23c cf2d 263c aee5 083c
000003c0: 225c fc3c f19b 1e3d d09c 5a3d 42e6 ed3a
000003d0: 301d 233c 898d 393d b848 47bd cf1f 5a3d
000003e0: 4561 9c3b cdc7 08bd 8103 b43c c2ff 273d
000003f0: deeb 163d 0596 bcbb 7d41 273c d9c4 7a3c
0.008369585 0.032077838 0.050701927 -0.036244363 -0.052937753 -0.025943434 -0.020748872 0.022500228
-0.034353647 0.0019649926 -0.097799405 -0.026363213 -0.062215615 -0.01960394 -0.10515622 0.00931346
-0.089842185 0.018991318 -0.079866946 0.043209784 0.010044535 -0.017856875 0.016793357 -0.009911413
0.040439256 -0.019851776 0.022276703 -0.04859682 -0.02167317 0.04531688 0.0026312408 -0.05530715
-0.08978385 -0.048106775 -0.025900455 -0.03742391 -0.054232232 -0.0055675595 0.025444837 0.04109436
0.03806608 0.04155187 0.03384626 0.06776585 0.0700301 0.030877203 -0.018451968 0.03614052
-0.004007709 0.068024725 -0.094965234 0.04336802 -0.042380977 0.03832024 -0.039747674 0.01807198
0.04031352 -0.055397537 -0.03269551 -0.02269945 -0.021112576 0.016489653 -0.041831084 -0.06706198
-0.04097258 -0.029429158 0.035695557 -0.015513511 0.06063151 0.008083043 0.07743589 -0.068430185
-0.023950176 -0.019483306 -0.0740104 -0.03766775 -0.031171082 0.029326083 0.06127338 0.01052623
0.050343525 -0.087216966 -0.043930594 -0.03622375 0.03487037 0.008610474 -0.03669773 -0.029379712
0.12875722 0.037888557 0.010372896 0.040168665 -0.07912518 -0.07845156 0.08608978 0.07812591
0.05029412 0.058814052 0.002206805 -0.01339657 -0.08729505 -0.009355525 0.073492214 0.060288154
0.064644486 0.013784306 0.040848266 -0.049278256 -0.016726118 -0.011796353 0.06221692 -0.07662699
-0.020427939 0.009677424 0.04116881 0.020526206 -0.024203489 0.11535744 0.004631096 -0.11891261
0.075010635 0.05637357 -0.0030813452 0.065434106 0.0028442885 -0.036122587 0.04168306 0.015701298
0.047477867 0.04942836 -0.05911311 0.06712426 0.06606638 -0.060431786 0.054556213 -0.0049880086
0.00992245 -0.058441505 0.071421705 -0.033531778 0.10193451 -0.017642556 -0.06560841 -0.015456539
-0.014679145 0.0016481705 -0.0026969884 0.020424994 -0.010923453 0.036492575 -0.008374868 0.031283587
-0.028622756 -0.027481856 -0.00040763878 -0.057278547 -0.035439417 0.06529593 -0.022671828 0.014535157
0.055793393 0.018791461 -0.04409033 -0.0322877 0.0009295306 0.0018640709 0.011633536 -0.030818505
-0.13656892 -0.06399248 0.0014040584 -0.0005854818 0.08513276 0.0036753465 -0.07011918 -0.046513483
0.0012515091 -0.021911833 0.0044886465 -0.09363372 0.057085108 0.035059337 -0.04396125 -0.034575466
-0.025196396 0.05035586 -0.04967339 0.091481 0.0032289012 0.03831982 -0.039748307 -0.045307286
-0.039452355 -0.09010221 -0.025135433 0.014905155 0.08365646 0.005824494 0.05854123 -0.008870645
0.09667433 -0.008769279 0.019533068 0.016268943 -0.0016725038 0.018164258 0.020067593 0.014959702
-0.0023075663 -0.069972545 0.0867246 0.084803775 -0.051449567 0.022553299 0.007338577 -0.04307097
0.046223514 0.027408969 -0.025926037 -0.03991046 -0.08986507 -0.05828088 0.022541575 -0.10944663
-0.028188791 0.052900586 -0.029899439 0.036248464 -0.024904339 -0.03697841 -0.025300363 -0.06526637
0.031408705 -0.07671826 0.03969744 0.020308375 -4.4077264e-05 0.027645245 0.010142758 0.008355541
0.030805651 0.038722936 0.053372204 0.0018150287 0.009955689 0.045300994 -0.048653334 0.05325299
0.0047723376 -0.03339367 0.021974327 0.041015394 0.036846034 -0.0057551884 0.010208485 0.015305721

block1_norm.weight f4 [32]
00000000: 396c 7d3f d2c9 7e3f 77b6 7d3f b223 7e3f
00000010: 234e 7e3f 7d35 7f3f 3d08 7f3f cf92 803f
00000020: c2ea 7e3f e66a 813f e26f 803f 9f81 7f3f
00000030: 1fc5 7e3f 6e92 7f3f 167d 7d3f b239 803f
00000040: 9348 7e3f 99cf 813f 825d 803f e802 813f
00000050: 6219 813f b508 803f d313 7e3f 6b31 7f3f
00000060: fc43 803f b1d5 803f f387 7f3f 64e2 7e3f
00000070: 5830 7e3f d03d 7e3f e251 7f3f 6425 7e3f
0.9899326 0.99526703 0.99106544 0.99273217 0.9933798 0.9969099 0.99621946 1.0044802
0.9957696 1.0110748 1.0034144 0.9980716 0.9951953 0.9983281 0.9901899 1.0017607
0.9932949 1.0141479 1.0028536 1.0079012 1.0085871 1.0002657 0.99249 0.9968478
1.0020747 1.0065213 0.9981682 0.99564195 0.99292517 0.9931307 0.9973432 0.99275804

block1_norm.bias f4 [32]
00000000: 0a04 c7bb 930e a6bb ff63 c4bb d257 00bc
00000010: 844e 1cbb 36cc adba b2fe 0bbc 7a60 933a
00000020: 4fca b1bb d815 563c bec5 403b b52d 3b3a
00000030: 975d 0bbc ded2 9b39 f8d9 89bc 1443 6a3b
00000040: 28d8 3d38 1a2a 423c 601d 983b 143b a33b
00000050: 1969 ae3b 2f08 fe3a e277 adbb 0178 b3ba
00000060: b08a bc3a 40a3 903b db89 1e3a c091 733a
00000070: 86d2 bebb 4730 74bb c69c dcbb ac0a e8bb
-0.0060734795 -0.0050676554 -0.005993366 -0.007833438 -0.002385051 -0.0013259712 -0.008544611 0.0011243962
-0.0054257284 0.013066731 0.0029414739 0.0007140295 -0.0085062 0.00029721012 -0.016827568 0.0035745548
4.5262423e-05 0.011850858 0.0046421736 0.004981408 0.005322587 0.0019381101 -0.005293832 -0.001369238
0.0014384594 0.004413992 0.0006047764 0.0009291433 -0.005823436 -0.003726022 -0.006732556 -0.0070813503

block1_residual.weight f4 [32, 64, 1, 1, 1]
00000000: 4e79 c13e f311 fc3e 3945 94bd 0034 27bf
00000010: 05b5 653e 5869 1b3e 6d6e 16be d869 b63d
00000020: 8b31 5a3d 6f6c 88be 38aa bc3e f3ec 8b3e
00000030: 5708 c83d 61bb 6dbd 2082 1b3f 5258 7d3e
00000040: 962f 15be d252 00be 932b 6c3e 0240 eebc
00000050: e65d 89be 6650 0e3f d658 acbe e457 913c
00000060: a39c 0a3f 74fc 3dbe c834 8bbe db82 9c3e
00000070: e15f 793d ed22 95bc 3ee8 8cbd a494 98bc
00000080: 6023 b53d e351 b5be 3a8a 32bf 9462 353e
00000090: 8704 0abe f98d ed3e 5039 a83e d617 74be
000000a0: 0124 b03e b1f2 bf3e d6c8 8a3c 878d cdbe
000000b0: b0b2 b03d 33f3 3a3e a1d1 2f3e ba69 1a3f
000000c0: d441 7f3d 0a32 e8bd a113 5cbe 4905 59be
000000d0: 0ba8 d7be 7f13 09be 579d db3e 6261 d13a
000000e0: 362d 823e 5066 0f3d 7e4f dc3d b995 d93c
000000f0: d5d4 c23c a6d0 1cbe a25c fa3c e061 733e
00000100: c7cd 963e bf4c 043d 423a b3bd 388f 6bbe
00000110: 3021 0ebe d14a f7be 827a 38be 0f3c 3c3e
00000120: ab84 5d3e cd86 e9be f823 123e 80f9 d8bd
00000130: 03e2 7bbc 82d2 6bbd 7f08 533e afff 36be
00000140: dc66 0bbc 5373 123f d410 c23d 9f63 b53d
00000150: 9e5d e4bc 8490 663e 791f 07bd d5a7 1abe
00000160: 5cc7 7f3e b7bf d7be 5d33 8b3e b1db 9cbe
00000170: 50fd 913c b55d d5be a1da dcbe 7a23 3a3e
00000180: bdd6 843e 1197 c13e 835c d0bd 9f2a d23d
00000190: 9ce0 683e 71be 383f 5742 1abe 25a5 873e
000001a0: 0e49 1a3f 9fb4 d2be cfa0 20be 47a4 84be
000001b0: aaea 163d cd24 45be 6efe de3d ecd6 8a3e
000001c0: 14be 1cbe 8ab0 33be 1abb 33be 28c6 20bd
000001d0: e3a1 c23e 09ef fcbb ac71 7b3d 20b8 11bb
000001e0: f1ae 55bd 9efc 9e3c fefc df3d 81e9 33bd
000001f0: 8cac 053e 49e3 a73d c9ed 893d 0acf df3e
00000200: b17a 1fbe 50fb af3e 2286 29be 7ad5 8fbe
00000210: e25d c83a 61a9 24be 59c4 433e 04c1 de3e
00000220: 8a84 f4bd 2f67 babb 7c76 d53e 1313 1ebe
00000230: 2cce fb3d 3b9a 753e e82b aabc 8b75 28bd
00000240: f0c6 eabd 389e 2bbe c9b9 88bd 89df 433e
00000250: 0d1e a1bd 27aa dc3e 6358 e9bd 655b 873e
00000260: 8055 a73e 5e3d 7e3d d27a 3dbe 36fd f7bd
00000270: 2950 443e f992 90be f59c ebbe e016 8dbe
00000280: de63 4bbe 8815 793e 905a 5ebe 2caa cabc
00000290: d024 193e 096f febd b8fc 92bd bad2 21bd
000002a0: 3928 923c 179d e73e cc11 243e 0294 7cbe
000002b0: 4e9e 87be 993e dfbd 201f c53d 8e4c a0be
000002c0: cb63 15bf 2645 4c3e b245 893c 1f03 24be
000002d0: 1f5f 2f3e 367c 8f3e 3617 f3bd c126 09bf
000002e0: 8731 a1be de1a 953c a914 1f3e 2386 e93c
000002f0: 27ae d63d 41da 68be 2ad9 113d 7bf3 3dbe
00000300: ec76 973d 95a4 82be 6bc4 1c3f c9ea 153d
00000310: 11bf 613e 47ce 993e 87be 1d3d edf0 403d
00000320: e1e2 713e ed6a a9be d34e cb3d c31c c7bd
00000330: 87b1 bdbd 1194 943d 0af3 c93e 6752 25be
00000340: eea9 353f 350c b9bd 6c36 e4be 2249 5bbe
00000350: db11 a43e fae9 e63e 3450 69bd e36f 86be
00000360: 87f0 863e 4215 593d b997 e73b 208c 2a3e
00000370: eb12 c13c da2e ddbe 6773 293d 50f6 b6bc
00000380: 661f dbbe ec82 9abe 78fc 3bbe 779f 75be
00000390: 0e56 84be 2865 243e f417 0a3e 95b0 a6bd
000003a0: 4644 99bd 0cb7 193f b19b 053f e441 04be
000003b0: 3567 f1bd 0289 68be 36cd d73d 3554 0cbc
000003c0: c2fb 47be 2c4d 5a3d 3edf 78be 2cb8 b93e
000003d0: 4d6c ccbe fb36 1cbe 6b3d 83be 0706 a93e
000003e0: e4e3 dbbe db0f 703d b433 6fbc 3257 39be
000003f0: 1332 07bc 654b 70be 576c 0fbf e4f9 22be
0.3778786 0.49232444 -0.07239766 -0.6531372 0.22432335 0.15176904 -0.14690562 0.08906907
0.053269904 -0.26645228 0.36848617 0.27329215 0.09767216 -0.058040027 0.6074543 0.24740723
-0.14568934 -0.12531593 0.23063497 -0.029083256 -0.2682945 0.5559143 -0.33661526 0.017742105
0.5414526 -0.18553334 -0.27188706 0.30568585 0.060882453 -0.01820513 -0.06880234 -0.018625565
0.08844638 -0.35414037 -0.69742167 0.17713386 -0.1347829 0.4639738 0.32856226 -0.23837218
0.3440247 0.37489846 0.01694147 -0.4014704 0.08627832 0.18256836 0.17169811 0.60317576
0.062318638 -0.11337669 -0.21491863 -0.21193422 -0.42120394 -0.13386343 0.42893478 0.0015974457
0.25425118 0.035009682 0.107573494 0.026560651 0.023783127 -0.15313968 0.030561749 0.23767805
0.2945387 0.032299753 -0.08751346 -0.23003852 -0.13879848 -0.48299268 -0.18015483 0.18382286
0.2163264 -0.45610657 0.14271533 -0.10594463 -0.01537371 -0.057573803 0.2060871 -0.17870973
-0.00850841 0.5720722 0.09475866 0.08856892 -0.027876671 0.22516066 -0.032989 -0.15103085
0.24978393 -0.42138454 0.27187625 -0.3063636 0.017820984 -0.41673055 -0.4313555 0.18177596
0.25945082 0.37810567 -0.10173895 0.102620356 0.22741932 0.7216559 -0.15064369 0.26493183
0.6026772 -0.41153428 -0.15686344 -0.25906584 0.036844887 -0.1925232 0.10888372 0.27117097
-0.15306884 -0.17547813 -0.17551842 -0.039251477 0.38014135 -0.007718925 0.061387703 -0.0022234991
-0.05216879 0.019407567 0.10936926 -0.04392386 0.13054103 0.08197648 0.06734807 0.43712646
-0.15574147 0.34371424 -0.16555074 -0.28092557 0.0015286768 -0.16080238 0.1911787 0.43506634
-0.11939342 -0.00568857 0.4169196 -0.15436964 0.122951835 0.23984616 -0.02077289 -0.041127723
-0.114637256 -0.16759574 -0.06676061 0.1912824 -0.0786706 0.43098566 -0.113938116 0.26436916
0.3268242 0.062070243 -0.18503883 -0.12108843 0.19171204 -0.2823713 -0.46018186 -0.27556515
-0.19862315 0.2432462 -0.21714234 -0.024739347 0.14955449 -0.12423522 -0.071771085 -0.039507605
0.017841445 0.45237038 0.16022414 -0.24665835 -0.26487964 -0.109006114 0.09625077 -0.31308407
-0.58355397 0.19948253 0.016756866 -0.16016816 0.1712613 0.28024453 -0.118696615 -0.5357476
-0.314831 0.018201288 0.15535225 0.028506344 0.10482436 -0.22739507 0.035607494 -0.18549912
0.073957294 -0.2551619 0.6123721 0.03660086 0.22045542 0.3004019 0.03851178 0.047104765
0.23621704 -0.3308939 0.09927144 -0.09722283 -0.09262376 0.07254804 0.39443237 -0.16144715
0.7096242 -0.090355314 -0.4457277 -0.21414617 0.32044873 0.45100385 -0.056961253 -0.26257238
0.26355383 0.05299879 0.0070676473 0.16655016 0.023568591 -0.43199807 0.041369822 -0.022334248
-0.42797393 -0.3017801 -0.18358028 -0.23986612 -0.25846905 0.16054213 0.134857 -0.08139149
-0.07483725 0.6004493 0.5219069 -0.1291576 -0.11787263 -0.22708514 0.10537188 -0.008564998
-0.19529632 0.053296253 -0.2430391 0.36273324 -0.39926377 -0.15255348 -0.25632796 0.3301241
-0.42947304 0.05860887 -0.014599729 -0.18099669 -0.008251685 -0.2346626 -0.5602469 -0.15915638

block2_conv.weight f4 [16, 32, 3, 3, 5]
00000000: a0c9 a5bc 79e3 88bc a9d3 dfbc 0d01 58bc
00000010: 1aa5 0fbd 7b39 9abd 7e25 bfbd 1262 1cbd
00000020: dd5c e43c 355e 8fbd 00e6 fcbc a2ca 9abd
00000030: 4abb b4bd 9038 a43c 5190 bbbc bc24 52bc
00000040: ab15 6c3d 8835 313d 87c2 14ba c6c7 30bd
00000050: a6f8 b73b f959 e2bd 05cb 843c 5ba1 51bd
00000060: 916e bcbb 7c23 c2bd be4d c7bd b3eb e9bc
00000070: 4d70 49bd 2a08 853c 4677 7bbc 9cf9 663c
00000080: 6430 d43c 591d 483d 4ff5 b53d f37c 383c
00000090: d9e5 dabc 8d54 26bd e1f4 373d fc36 8fbd
000000a0: 7600 473d 3abc 073e 212e 04bd d1fb d83b
000000b0: 8338 e23d 0bf8 b6bd 57a5 53bc 61b5 1bbe
000000c0: 15f5 84bd 6c1d acbd 9141 61bc c183 b2bd
000000d0: 978b 88bd d153 193d 4153 603d 3ae4 b73c
000000e0: 562a b4bc 5bdd 9cbc 13c6 ec3b 5983 15bd
000000f0: a908 be3c e3a7 44bc 5e7a aa3d e9de 4abd
00000100: 873b d33d 510e 89bd 1ce6 b13c 8668 adbc
00000110: ac42 b33c 0362 29bd 364d 6dbd 23b8 53bd
00000120: 9783 9c3b c0db 7f3a 7d34 81ba 9e21 6bbd
00000130: b6b9 023c a3b7 edbc eb64 d7bd 23d3 853a
00000140: 9040 f2bc 4cd7 09bc df0a 6a3d 67aa 68bd
00000150: c191 05bd a139 bebd ec73 46b7 7a55 c33c
00000160: b68a cc3d 6831 21bd 48bf 723c 7a6d 193d
00000170: 85e2 42bc 17b3 d4bc b6c5 fbbc 373e 35bd
00000180: eaf2 743c 4096 073c 6824 cb3c c3f0 cd3c
00000190: 276a 2fbb 7c8a 273e 7248 77bd d24d 813c
000001a0: 0464 003e 693b 94ba d6b5 49bd f7fd a6bc
000001b0: f743 0ebc 4889 6c3c 1c40 72bd c8dd f93d
000001c0: 46c0 3cbc d4e5 743d 3b31 aebd 6576 163d
000001d0: 2527 1bbc 6efc ddbd 7111 f5bc 9a5d adbd
000001e0: 4f51 cbbc d60f 063c 72e4 42bc 9773 9cbc
000001f0: 2a61 9a3d 3086 c03d ab0a cf3c 18d6 28bd
00000200: 68f8 813d 0b7d 873d b659 25bd 4af0 1b3d
00000210: c1af 713c 89b3 06bd e544 89bd b683 d4bb
00000220: fc97 cc3c 0cdf 833a 4b9d 803c 1629 87bd
00000230: 41a3 623d 08c2 e3ba cd05 80bb 85db 20bd
00000240: 9933 d1bd 2b13 b5bc 53b5 67bc 086d 8b3d
00000250: 4066 56bd 81b2 3e3d 4d61 84bc 7a7c 033c
00000260: 83a3 8cbc d1ec ff38 bcbd 793d 9267 2abc
00000270: dc5b 523d 7d2c 5f3c 8889 213b f77c 9d3a
00000280: 83de ae3d 7525 55bd e506 3fbd e453 363b
00000290: ceb8 073d c66e d33b 5d6b cc3c 6d73 623c
000002a0: 126e 993d dca4 e43c eab0 7ebd a81a 65bd
000002b0: 5f69 393d 3c9b 2ebc 3244 3a3d bc38 953c
000002c0: a0d9 85bd e58b 20bd 0a99 ffbc e639 80bd
000002d0: f017 f53b 866c 443c 5f21 54bd 6927 b5bc
000002e0: 07ab 913d 476c 1f3d 613f aa3d 60d1 fbba
000002f0: 9b9c 473d 1bc9 07bc d0de 8e3c 581f 6d3d
00000300: 93c3 903b 2b90 963b 9770 13be 6fb6 4f3d
00000310: 819b 973d 3186 c63c 6130 733d 4150 a73d
00000320: 2668 e03b 5b5d 3c38 7eab 063d 28a0 9abd
00000330: a83a 67bd 126e 373c 3aef bdbc 4232 edbd
00000340: 9f3a 56bd dbb7 96bc a85c d43c 11d2 01bd
00000350: 1e62 813d dcd5 2bbd 4494 8e3d 065e bdbd
00000360: 28f1 e0bc 9916 34bc b1c7 01be 1b10 64bd
00000370: 40d2 d73c dc44 c0bc d775 d0bc c593 b63c
00000380: 6041 9abc 4205 90bb f50c 4b3b efcf 773d
00000390: 9368 19bd 7307 11bd 71e0 8abd c52a eebb
000003a0: ba63 893d 45f3 8e3c 8176 8cbb 6d79 4dbc
000003b0: e5d0 dc3c b9f8 8dbc 418d 69bd 95f3 003c
000003c0: 3513 cfb9 b93d 10bd 3067 2bbd 20ac d93c
000003d0: cb5e 993d 03b3 4fbd 3a35 eb3c f8e1 94bb
000003e0: 8f2c 0bbc 6fa9 c23b 181d 6a3d 6737 aa3d
000003f0: af05 18bc 4a23 d93d ee4e 5a3d 8bf6 b6bb
-0.020237744 -0.01671003 -0.027322607 -0.013183844 -0.035069562 -0.07530495 -0.09333323 -0.038179465
0.027876312 -0.070003904 -0.030871391 -0.075581804 -0.08824785 0.020046502 -0.022895964 -0.012826141
0.05763785 0.043263942 -0.0005674739 -0.04315927 0.005614358 -0.11052317 0.016210089 -0.05117927
-0.005750485 -0.09479424 -0.09731625 -0.028554773 -0.049179364 0.016239244 -0.015348261 0.014097597
0.02590198 0.048856113 0.088846795 0.011260259 -0.026720928 -0.040607978 0.04491127 -0.06992909
0.048584424 0.13255396 -0.032270554 0.0066218157 0.11045935 -0.08934029 -0.012917838 -0.1520591
-0.06492058 -0.08404049 -0.013748542 -0.08716536 -0.0666725 0.03743345 0.054766897 0.022447694
-0.021992844 -0.01914852 0.0072257607 -0.036502216 0.023197489 -0.012002918 0.08324121 -0.04952899
0.10314088 -0.06692184 0.02171617 -0.021168005 0.021882378 -0.041353237 -0.057934962 -0.05168928
0.004776429 0.00097602233 -0.0009857562 -0.057405107 0.007978847 -0.029018229 -0.105172954 0.0010210018
-0.029571801 -0.008413147 0.057139274 -0.056803133 -0.032609705 -0.092883356 -1.182871e-05 0.02384447
0.099873945 -0.039353758 0.014816113 0.03745792 -0.011894827 -0.025964303 -0.030733924 -0.044248786
0.014950493 0.0082755685 0.024797633 0.025139218 -0.0026766153 0.16361421 -0.060371824 0.015784178
0.12538153 -0.001130921 -0.049245678 -0.020384772 -0.008683196 0.014437027 -0.05914317 0.122005045
-0.011520451 0.059789494 -0.08505484 0.036734004 -0.009469782 -0.10839163 -0.029915543 -0.08465119
-0.024819044 0.0081824865 -0.011895286 -0.019098086 0.07538064 0.09400594 0.025273642 -0.0412198
0.06346208 0.06615647 -0.04036876 0.038070954 0.014751376 -0.03288606 -0.06702594 -0.0064854277
0.024974816 0.001006098 0.015700003 -0.065996334 0.055331472 -0.0017376551 -0.0039069415 -0.03927185
-0.102149196 -0.022103867 -0.014142352 0.068079054 -0.052343607 0.046556953 -0.016159678 0.008025283
-0.017167812 0.00012203458 0.06097196 -0.01040067 0.051357135 0.013621447 0.0024648625 0.0012015392
0.085385345 -0.052037675 -0.046637435 0.0027820999 0.033135228 0.006452414 0.024953539 0.013821465
0.07491697 0.027910642 -0.062180437 -0.055933625 0.045266505 -0.010657128 0.045475192 0.01821553
-0.06535649 -0.039195914 -0.031200904 -0.06261043 0.00747966 0.011988765 -0.051789638 -0.022113519
0.07112699 0.03892162 0.0831287 -0.0019212179 0.048733335 -0.008287693 0.01744023 0.05789122
0.0044178455 0.004594823 -0.14398418 0.05071109 0.07402707 0.02423391 0.05937231 0.08169604
0.006848353 4.4909637e-05 0.03287839 -0.07550079 -0.056452423 0.011195676 -0.023185361 -0.115818515
-0.052302 -0.018398216 0.025923088 -0.031694476 0.063175425 -0.041952 0.06961873 -0.09246449
-0.027458742 -0.010991716 -0.12673832 -0.055679422 0.026345372 -0.023470335 -0.025446815 0.022287259
-0.018830001 -0.004395158 0.0030983065 0.060501035 -0.037453245 -0.035407495 -0.0678109 -0.007268282
0.067084745 0.017449984 -0.0042865877 -0.012541157 0.026955077 -0.017330514 -0.057019476 0.0078705745
-0.00039496427 -0.035215113 -0.041846454 0.026571333 0.074887834 -0.05070783 0.028711904 -0.004543539
-0.00849451 0.005940608 0.057156652 0.083113484 -0.009278699 0.10602434 0.05329793 -0.0055835894

block2_norm.weight f4 [16]
00000000: 5e8d 7e3f 9fe8 803f a8aa 803f 5ba4 7d3f
00000010: 496b 803f baae 7f3f a511 7f3f 5677 803f
00000020: 4102 7d3f 356b 803f 616b 7c3f 9cc8 803f
00000030: 6f4a 813f e2f4 7d3f b2d1 803f 6a74 813f
0.9943446 1.007099 1.005208 0.9907891 1.0032741 0.99875987 0.996363 1.0036418
0.98831564 1.0032717 0.9860135 1.0061221 1.010084 0.99201787 1.0063994 1.0113652

block2_norm.bias f4 [16]
00000000: ac51 83bb ac1f 023c 5a41 8d3b d138 39bc
00000010: 2a05 8e3b f5d4 e1bb 5aab 1fbc c4d1 a93b
00000020: 0da3 08bc 1148 983a 1810 86bc 086a 8d3b
00000030: 90d8 053c 727e b1bb 4210 333b b7dd 403c
-0.004007539 0.0079421215 0.004310769 -0.01130505 0.0043341117 -0.0068918415 -0.009745443 0.0051824767
-0.008339656 0.0011618157 -0.016365096 0.0043156184 0.008169308 -0.005416685 0.0027322923 0.011771611

block2_residual.weight f4 [16, 32, 1, 1, 1]
00000000: 4437 913d 36d1 8bbe 40cf ca3e 1d4f 8e3e
00000010: 68d4 a9be 8fbd 93bd f55c d8be 7b8e 213f
00000020: 326c 13bd 1a75 013f 023b 2fbe a557 d1be
00000030: 2616 a03c 6435 c53d 2322 2e3e e6be 1a3e
00000040: 7330 4cbf 2f22 8c3e 3a63 95be 6f29 7c3e
00000050: 1dea 82bd 23e0 b23e cee9 133f 28dc 893e
00000060: b63d 92be aaa7 1bbf 1009 e33d 1a50 003e
00000070: d81d b2be dd92 bfbe 5ffc edbd eab0 dbbc
00000080: e25e 19bf fa87 e13d 97e4 993e 0384 16be
00000090: 7b92 1cbf 0244 8d3d 498a 143e 6822 ddbe
000000a0: 96b9 fa3e 8eb1 813e 1467 92bd 674c 683e
000000b0: e5fa 1bbf 79ad 8fbd 3766 f1be d05d 533e
000000c0: 0b73 46bf 485a ad3e c747 d2be 1d03 7d3e
000000d0: 6652 2bbe ca52 5fbd 6e74 bb3e da1e 83be
000000e0: 5918 0abe fb8c 913e ae18 aa3e b9a1 3cbe
000000f0: f2ba 0abf 7511 4dbe 07f6 483e b7ff dfbe
00000100: c7a8 fdbd 96b7 d33d b7ba e9be c794 c23e
00000110: 4137 073f 86a3 9b3e 241e 1dbd 47d6 813e
00000120: 40af 873e d4d3 e7be 515e ef3e 7df4 9ebc
00000130: adbc 54bd b319 0ebd ee79 94be 0b4d 7cbe
00000140: c18f 8abe e04d 363f 6fad 39bf 3364 c53e
00000150: 7d04 fabc d658 3a3e 68fd 31bd 7cfa 6abe
00000160: 323b 18bf a940 3bbe 0fec 7b3e 37f5 a4bd
00000170: 63e6 863e 0f0b 303f d90e 13bf 2265 babc
00000180: ac02 023f 3a49 263d b7d7 e9be ba9b b83e
00000190: 6309 29be ed8b dd3d d132 d13d 200a 703e
000001a0: a479 1dbf 37d0 f23e a360 b2bd 91a3 77bd
000001b0: f8f1 a13e 2edf b33e aa6c 8cbe 5c47 ea3e
000001c0: 653b 15bf a627 173e 9c8b d53e 3602 07bf
000001d0: 7432 ac3e 4e62 79be bb96 813d b54a 3a3f
000001e0: d681 7b3f 5424 07be 682f 813e d656 343e
000001f0: 6e79 5a3e cde6 ca3d 4a7f 3cbe f44a 923e
00000200: 61f8 0e3e e65b 1d3e 3332 51be 0a54 6a3e
00000210: aa8e ddbe 2a13 053f df92 aebe 683d 37be
00000220: 17fb 6cbe f478 2ebd 6323 0e3e d013 f23c
00000230: 5a31 2e3f fa96 38be 658c 9f3e 0f8d 353e
00000240: ea99 1ebf 889c e53e f50b 0cbe eb6e 45bd
00000250: 4d9c 0bbf ef86 68be 7e46 79be 2158 47bf
00000260: 3110 07bd e2af 58bc 08cf 743e 2297 cebd
00000270: b255 9dbd 1bbf febd e271 4ebe 3575 2cbe
00000280: fa14 0f3f 01ce 8e3e 9925 0d3f 099a ecbd
00000290: ad5c e9be a11d 6bbe 6263 023e a3fd 19bf
000002a0: 92b2 b03e c323 c5be 8198 3a3e 5864 52be
000002b0: 33d1 e13d d25a ab3e 4923 d8bb e214 913e
000002c0: 6743 a1bc 7497 9b3e 059f 58bd 8154 e6bd
000002d0: 1b03 2f3f 3271 a2bd 3666 73be 2478 19be
000002e0: bcf0 b6be 289f a1be d3ef 5fbe 6713 2dbe
000002f0: 9801 a4be 8bb0 db3b 44de e0bd 47bc 273e
00000300: cf60 183f 3a9c 96be 8aa2 6a3e 1837 453f
00000310: eaf4 31bf 3928 af3e 9034 1a3f 0c50 76be
00000320: 090e 73bf c0cf 90bc 1676 153e 3e96 023f
00000330: a5ab c23e d00c 293f 7a73 d33e 163a 48be
00000340: 758c 873d 551d 8c3d c388 89be 18e7 0bbf
00000350: 1ec9 e5be 8f4e af3e 980f f6bd 042b 13bf
00000360: cebd 183e 9d6d 1c3f 0e68 9a3e 98cd 273f
00000370: db08 8f3e 2195 c83d dbd5 23bf c87a 2f3d
00000380: 9671 8b3e 52bd 6dbe eba3 063f bd5c 8abd
00000390: cc90 d43e b69c 853e b960 3b3e 9126 043d
000003a0: f118 383d 0799 113f 939d 223f e644 e8be
000003b0: ec43 c9bd dd0a d23e c169 cdbe 611b 88be
000003c0: 2d99 923e d901 223f c384 82bd 5ed8 443e
000003d0: 1e74 883e a80b 92be 08aa 233e 46e9 143e
000003e0: 67ec 4f3e 7bf8 e2bd 4813 633f c714 423e
000003f0: dba6 3f3d 8c28 f03d beaa 46bf 7529 09bf
0.07090619 -0.27308053 0.39611244 0.27794734 -0.33169866 -0.0721389 -0.4225842 0.6310803
-0.035991855 0.5056931 -0.17112353 -0.4088718 0.019541811 0.09629324 0.1700521 0.15111884
-0.7976143 0.2736983 -0.29177266 0.2462518 -0.0639231 0.34936628 0.5777863 0.26925778
-0.28562707 -0.6080271 0.11085713 0.12530556 -0.34788394 -0.37416735 -0.116204016 -0.026817758
-0.59910405 0.110122636 0.30057213 -0.14698796 -0.6116101 0.06897737 0.14505877 -0.43190312
0.48969716 0.25330776 -0.07148567 0.22685395 -0.6092971 -0.07015509 -0.47148296 0.20641255
-0.7751929 0.33857942 -0.41070387 0.24708219 -0.16730651 -0.054522313 0.36612266 -0.25609475
-0.1348585 0.28427872 0.33221954 -0.18421067 -0.54191506 -0.2002619 0.19625102 -0.43749782
-0.12385707 0.103377506 -0.45650265 0.38004133 0.52818686 0.30398196 -0.038358822 0.25358793
0.26500893 -0.452788 0.46751645 -0.01940369 -0.051937748 -0.034692477 -0.28999275 -0.24638765
-0.270628 0.7121258 -0.72530264 0.38553008 -0.030519718 0.1819795 -0.043454558 -0.22947115
-0.59465325 -0.18286385 0.24601768 -0.080545835 0.26347646 0.68766874 -0.5744453 -0.022753302
0.50785327 0.040597178 -0.4567239 0.3605631 -0.16507487 0.10817704 0.102147706 0.23441362
-0.61513734 0.4742448 -0.08709838 -0.060458723 0.3162992 0.3513121 -0.27426654 0.45757568
-0.58293754 0.14761218 0.41708076 -0.5273775 0.33632243 -0.24353907 0.06327578 0.72770244
0.9824499 -0.13197452 0.2523148 0.1761125 0.21335384 0.09907303 -0.18407932 0.2857281
0.13961937 0.15367088 -0.20429306 0.22883621 -0.43272907 0.5198237 -0.3409643 -0.17894518
-0.23142658 -0.04259582 0.13880686 0.029550463 0.68044055 -0.18026343 0.311618 0.17729591
-0.61953604 0.44845986 -0.13676436 -0.048201483 -0.5453537 -0.22707723 -0.24343297 -0.7786885
-0.032974426 -0.0132255275 0.23907101 -0.1008742 -0.07682361 -0.12438794 -0.2016063 -0.16841586
0.5589138 0.27891544 0.55135494 -0.115528174 -0.45578519 -0.22960521 0.12733224 -0.60152644
0.34511238 -0.38503847 0.18222238 -0.2054609 0.1102623 0.33467728 -0.006596003 0.28336245
-0.01968546 0.30388987 -0.052886028 -0.112465866 0.68364114 -0.079317465 -0.23769459 -0.14987236
-0.3573054 -0.3156674 -0.2186883 -0.16901933 -0.32032466 0.006704395 -0.10979894 0.16380416
0.5952272 -0.29416066 0.22913566 0.7703719 -0.69514334 0.34210375 0.60236454 -0.24053973
-0.9494329 -0.017677188 0.14595827 0.510105 0.3802158 0.66035175 0.4129904 -0.19553408
0.06618587 0.06841532 -0.26862153 -0.54649496 -0.44880003 0.34239623 -0.12014693 -0.5748751
0.14916155 0.61104757 0.30157512 0.65548086 0.27936444 0.09794069 -0.6399819 0.042841703
0.27235097 -0.23216751 0.5259387 -0.0675597 0.4151672 0.26096123 0.18298616 0.032263342
0.04494566 0.56874126 0.6352169 -0.45365065 -0.09827408 0.41023913 -0.40119746 -0.26583388
0.2863249 0.6328407 -0.063729785 0.19223163 0.2665109 -0.28524518 0.1598283 0.14542112
0.20305024 -0.1108255 0.88701296 0.18953238 0.046789985 0.11726484 -0.7760428 -0.53578883

block3_conv.weight f4 [8, 16, 1, 1, 3]
00000000: d54b 193e dbca 673e f8a2 813d 57ad ca3e
00000010: 79a6 00be 7336 0ebe 7c8b 1d3e 9f58 ce3e
00000020: 43e5 75bc cff9 bebe 563b 99bb 3bce 07bd
00000030: 80a5 e0bd e122 70be 43df 1a3f 68b1 e93c
00000040: 3db7 07bf 91be 11be fac3 7fbe eae1 1c3d
00000050: dfca 4e3d c974 de3d cd9e 8f3e 0dd6 0c3e
00000060: 835a 3e3e f7fd 8ebb 2e8d 1abf 953f a23e
00000070: 5b7a 00bf 8cb2 1d3d e324 99bc f833 89be
00000080: dba2 b73e bd49 b63e f223 9abc 98ed d63e
00000090: d97e ca3e 5fa7 41be f490 11be b307 9fbe
000000a0: 17ca 723e 161c 54bf 31ac b7bd bde8 91bd
000000b0: 14d2 3f3f a9cb 863e 3648 99be ee9e 2e3e
000000c0: 3356 61be 51e4 ecbd 492a 88be 001e 84be
000000d0: 6e01 de3e b66f 163f abb8 6d3c 25c2 c73e
000000e0: 9e00 d1be a802 f73d d85c 8bbe 09da 4ebd
000000f0: 72e8 d13d 7fd3 71be 71cc 27be a98b 013e
00000100: 5fc8 7dbe aedf 633d 609c 84be ed9a 653e
00000110: bada fdbe bc07 623c 7905 1a3e 29be d03e
00000120: 4983 59be 450f 0bbf 2451 793e 50a7 90be
00000130: ded9 01be c2c3 263e dde5 11be a7fb 353e
00000140: 70b1 313d 9768 05bf 5bb3 1e3e 957a d0be
00000150: e4d2 c73e 2e6b da3e f499 a4be c549 bebd
00000160: 585e 273e 5950 623d 02ff 0e3e afe2 883e
00000170: 0437 4dbc d386 1dbe 20c3 573d 803d cbbe
00000180: d9bb 87ba 22da 65bd 68c8 10be 3b92 443f
00000190: e99b 2cbc eed5 ed3c dd71 2dbe d614 3dbd
000001a0: a0e7 323f 30e2 103f f497 1cbc 2580 9c3c
000001b0: eebd 9abe fbe5 6c3e 4b5f e6be c0fe b6be
000001c0: db5b d13d 2435 403d ed08 a2be e083 8bbd
000001d0: 9c81 233e 1369 a13e 46b7 00bf 5d7f df3e
000001e0: 443d d4bd dae2 90be 2309 bb3d a3e5 96bd
000001f0: 2474 373e f095 b43d d9dd 91be 2dba 58be
00000200: fb95 01bd e1a8 963e c1bf 02be 7c97 c63d
00000210: 8f2b 193f 408e 3e3e 4de7 653e b0b9 993e
00000220: 27d8 47bd 35b9 c43b df60 1c3f e375 b3be
00000230: a7e0 883e e36e 9dbe bea0 20be 33c7 b2be
00000240: e398 273e b371 21bf 7e55 063f 5215 48be
00000250: d4be 2cbf 12e4 02bf 92f0 bcbe 2eb8 1a3c
00000260: cf86 2cbe 84f0 02bf 66cb 503e 5204 63be
00000270: 9a97 533d 5c5b 4f3e 1568 543e 61d5 e93c
00000280: bca8 e93e 66fd a33d 4417 233f 3a62 a63e
00000290: 062b 9f3d 2e6e a73d 3755 f23e ddfb 61be
000002a0: 39d7 1d3d d418 74be e2ed fc3d 966b 893e
000002b0: 66d5 843e 8434 04bf 2773 1bbe 5ac7 a23b
000002c0: ec64 943e 78b1 3abe 0bdd 473e 5244 5ebe
000002d0: 426b 96bd 92bc 083e 8bf4 573e be19 a23c
000002e0: 85dc 00be f3c7 eabd 0050 7abe a4f6 23bc
000002f0: ede4 37be 5bc4 833d 78ab 273f 32db 623d
00000300: 3522 053e e89f 7fbd 2e6d b2bd 3160 2ebe
00000310: 3df5 723e fe26 06be 1364 05bf 20ba 88be
00000320: 1862 8abe b8d4 863c 9383 5d3c 73c9 8cbe
00000330: 07e0 fbbd ec84 853e 604f a6bd 24d5 193e
00000340: 580d 5e3e b9e3 0c3e b535 a3bd 6051 dfbd
00000350: 6f00 aebd d1b6 5c3e 76fb 59be 86d7 45bd
00000360: bc43 0e3d 8f80 4ebe 742c 69bf be69 2d3f
00000370: 0ac5 923e aa5b c8be 00aa fcbc 41ff c03d
00000380: db5a 2fbe f68a bebe 1451 91be 719c e4be
00000390: 77bb 81be 038b 1cbf 7b68 50be 1672 d3bd
000003a0: b08c 1abe 5e80 d5bc 7a97 a3be ac26 3a3e
000003b0: 83f3 9f3c 0d0c 8c3e 1c86 54bf 7de0 d53d
000003c0: 335c d33e d818 b3bd 4a89 7d3e 6598 873e
000003d0: 768c c63d 014a 503f 1708 a83e dbf1 853d
000003e0: 1a22 49be 7447 223c c880 cbbe 8cff 51bd
000003f0: bc01 aabe 115f 753e a3ae 2a3f 29d9 79be
0.14970334 0.22635977 0.06329912 0.39585373 -0.12563504 -0.13887958 0.1538524 0.40301988
-0.015008274 -0.37299964 -0.004676263 -0.03315566 -0.109690666 -0.23450805 0.6049692 0.028526977
-0.53013974 -0.14232852 -0.24977103 0.038301386 0.05048644 0.10862119 0.28050843 0.13753529
0.18589215 -0.004363771 -0.60371673 0.31689134 -0.501867 0.038500354 -0.018694347 -0.26797462
0.35866436 0.35603133 -0.018815968 0.41978145 0.39549902 -0.18911503 -0.14215451 -0.31060562
0.23709904 -0.82855356 -0.0896839 -0.071244694 0.7492993 0.26327255 -0.29937905 0.17052814
-0.22005539 -0.115669854 -0.2659476 -0.25804138 0.43360466 0.5876421 0.01450936 0.39015308
-0.40820783 0.120610535 -0.27219272 -0.050500903 0.102494135 -0.23615836 -0.16386582 0.12650932
-0.24783467 0.05563324 -0.25900555 0.22422381 -0.49580938 0.013795789 0.1504115 0.4077008
-0.21241488 -0.54320174 0.24347359 -0.2825265 -0.12680766 0.16285613 -0.14247842 0.17771779
0.04338211 -0.52112716 0.15498106 -0.40718523 0.39028084 0.42659897 -0.32148707 -0.09291414
0.16344583 0.055252407 0.13964465 0.26735446 -0.012525324 -0.15383463 0.05267632 -0.39695358
-0.0010355666 -0.05611623 -0.14138949 0.7678563 -0.010535219 0.029032674 -0.16937967 -0.04616245
0.6988468 0.56595135 -0.009557713 0.019104073 -0.3022303 0.23134606 -0.44994578 -0.35741234
0.10222598 0.04692568 -0.31647435 -0.068122625 0.15967411 0.31525478 -0.50279653 0.43651858
-0.10363248 -0.28298074 0.09132602 -0.073680185 0.17915398 0.08817661 -0.2848957 -0.2116477
-0.031637173 0.2942572 -0.12768461 0.09696862 0.5983209 0.18608952 0.22451515 0.3002448
-0.048790123 0.0060035237 0.61085314 -0.35050878 0.26733896 -0.30748662 -0.15686318 -0.34917602
0.16366915 -0.63064116 0.524742 -0.19539383 -0.6747868 -0.5112926 -0.3690229 0.009443326
-0.168483 -0.5114825 0.2039009 -0.22169617 0.05165825 0.20249695 0.20742829 0.02854413
0.45636547 0.08007316 0.63707376 0.32496816 0.07771878 0.08175312 0.4733064 -0.22068734
0.03853533 -0.23837596 0.1235006 0.26839894 0.2594406 -0.5164263 -0.15180646 0.004967612
0.28983247 -0.18231761 0.19517915 -0.2170575 -0.073446766 0.13353184 0.2108938 0.019787665
-0.12584122 -0.114639185 -0.2444458 -0.010007534 -0.17958422 0.06433936 0.65496016 0.055384822
0.1300133 -0.062408358 -0.087122306 -0.17028882 0.23726363 -0.13100812 -0.52105826 -0.26704502
-0.27027965 0.016458854 0.013520139 -0.27497444 -0.12298589 0.26077974 -0.08120608 0.15022713
0.21684778 0.13758744 -0.07969228 -0.10904193 -0.084961765 0.21554114 -0.21287331 -0.048301242
0.034732565 -0.20166229 -0.91083455 0.67739475 0.28665954 -0.39132434 -0.030842781 0.09423686
-0.17124502 -0.37215394 -0.2838217 -0.44650605 -0.25338337 -0.61149615 -0.20352356 -0.103244945
-0.1509273 -0.026062187 -0.31951505 0.18178815 0.019525295 0.27352944 -0.83017135 0.10443208
0.4128128 -0.08744973 0.24759403 0.26483455 0.096947595 0.8136292 0.32818672 0.06540271
-0.19641915 0.009904731 -0.3974669 -0.0512691 -0.33204448 0.23962046 0.66672724 -0.24399246

block3_norm.weight f4 [8]
00000000: 7b7e 803f 0a35 803f 7d79 803f 1959 7d3f
00000010: a7f4 7c3f e657 813f 7378 813f 0323 7f3f
1.0038599 1.0016186 1.0037075 0.9896408 0.9881081 1.010495 1.0114883 0.996628

block3_norm.bias f4 [8]
00000000: 456f 81ba f93f 383b dd36 843b 32e6 37bc
00000010: 9fe8 11bc e085 fd3b b1dd 1a3c c02b f8ba
-0.000987508 0.0028114303 0.0040348605 -0.011224316 -0.008905559 0.0077369064 0.009452269 -0.0018933937

block3_residual.weight f4 [8, 16, 1, 1, 1]
00000000: 8997 9fbe dbac 1bbf 5092 a4be e39b 82be
00000010: ee08 b9bd e788 cdbb 0ca9 8bbe 4f68 9abe
00000020: 0758 0d3e 38ba 3a3f 65cd 323f e406 1f3f
00000030: a440 a2bd 1164 553e 4f51 493e a6f0 cc3e
00000040: de06 2fbc 3af9 42bf c87d d93e 8763 1f3f
00000050: 57dd 7ebe 99fa 90be 11ae 3f3f 2d36 71bf
00000060: 9944 2e3c 0660 8fbd 4f5f 093f 0108 0d3f
00000070: 5429 3d3f e158 67bf 6ab2 2dbf f5c1 52bf
00000080: 5b9f 043f fd37 d9be 4b97 a13e 9189 98bd
00000090: 77e6 d83e 54e0 303d a5fc 06bd 5328 26bf
000000a0: 2067 e73d 9dca f7bd 7006 393e 4606 68be
000000b0: 4911 5bbc bde5 813f 88d0 a03e 9faf a83e
000000c0: 9036 633d 32e4 d7be 9cc3 ebbe cbf6 86be
000000d0: 87e7 5a3f 9dfd 8fbe ece4 833e 417d bcbe
000000e0: 9183 4e3e 2aab 52be 495f 2d39 aeec 93bf
000000f0: 1375 8e3f 37f0 f7be 13a5 94be 9df6 f83e
00000100: 7f5a adbd 56c9 a23e fb90 98be 0f45 07bf
00000110: e468 0e3e 2af9 d2bd b5cc ddbe 867a 26bf
00000120: 4a97 223f ae42 a5b9 38ee 243f 5491 2e3e
00000130: 2b8d a13e 9c66 82be d2b4 7d3d ec75 90bc
00000140: 45b4 9ebe 8a60 12bf 83ee efbd f3ea 66be
00000150: aa68 84be 13a2 313f 39ba 3a3f ad30 e63d
00000160: 1bd6 c63e 9c04 47bf 7ed3 a4be 2469 b63e
00000170: 639b 1a3e 8d29 073d 16a0 163d a1ef 883e
00000180: d671 6f3d c74c 45bf ee1f 5f3d 9c2e abbb
00000190: f3f8 fc3c c7a5 d63d 1e9f 3abe 13e4 a13e
000001a0: 6c11 753e e05e 043e 262b 723e 0071 5e3e
000001b0: 21d4 1a3f bb44 983e ba75 c83e db7a ccbc
000001c0: 5d9d fc3e 605d 333f bc47 053f bd1e 65be
000001d0: 1686 03be 778d 0c3f 1861 71bd 7d87 d83e
000001e0: e960 50bd 187a 96be 252c 3c3f ec5e 0abe
000001f0: 7b86 98bf 6463 d33e 0b01 7d3d aa9d e93e
-0.311703 -0.6081063 -0.32142878 -0.25509557 -0.09034906 -0.0062724235 -0.2727741 -0.30157706
0.13803111 0.729404 0.6984466 0.6211989 -0.079224855 0.20838954 0.19659923 0.4002735
-0.01068279 -0.7616154 0.42478776 0.6226124 -0.24889122 -0.2831619 0.7487498 -0.9422329
0.010636472 -0.07000737 0.53661054 0.5509034 0.73891187 -0.90369993 -0.67850363 -0.82327205
0.5180566 -0.42425528 0.3156074 -0.07448114 0.4236333 0.043182686 -0.032955784 -0.6490528
0.112989664 -0.12099192 0.18068862 -0.22658643 -0.01337082 1.0148236 0.31409097 0.32946488
0.055471957 -0.42166287 -0.46047676 -0.26360163 0.8550953 -0.2812318 0.2576059 -0.3681431
0.20167376 -0.20573106 0.00016534062 -1.1556604 1.1129478 -0.48425457 -0.29032192 0.4862565
-0.084645264 0.31794232 -0.2979811 -0.5283975 0.139072 -0.103014305 -0.43320242 -0.65030706
0.635121 -0.00031520933 0.6442599 0.17047626 0.31553015 -0.2546891 0.06194002 -0.017634355
-0.3099691 -0.57178557 -0.117154144 -0.22550564 -0.25861102 0.6938793 0.72940403 0.11239753
0.38835225 -0.7774141 -0.32192606 0.3562709 0.15098338 0.03299861 0.036773764 0.26745322
0.05845817 -0.7707028 0.05447381 -0.005224062 0.030880427 0.10480838 -0.18224761 0.3161932
0.23932427 0.12926817 0.23649272 0.21722794 0.60479933 0.29739937 0.39152318 -0.024960926
0.4933881 0.70064354 0.5206258 -0.22375007 -0.12844118 0.5490336 -0.058930486 0.4229087
-0.05087367 -0.29390025 0.7350486 -0.13512772 -1.191604 0.41286767 0.061768573 0.456281

final_conv.weight f4 [1, 8, 3, 3, 3]
00000000: 55c8 7d3e 88f9 363e 5c0c 47be 815d a93e
00000010: e693 b0bd adc1 e7bd 4074 c13e c78e c33e
00000020: bd4d 05be 2ff6 283f ceeb 2abe 5824 133e
00000030: 1264 83be 99b3 39be 031c 213e 7abf 86be
00000040: 3d78 19be 038f 40be 495f 72bd 9d6e 9e3d
00000050: 8882 c03e 65d6 103e 6720 1cbf 3c4f b2be
00000060: d46f 1ebe 7716 083e 4a97 ecbe 5231 8a3d
00000070: 08d0 793c 3e7f ecbd 9b49 013f 7955 c53e
00000080: a4d5 fdbe fdd7 3b3e 2741 fdbd f077 62bb
00000090: df91 94be c6a9 c63e e4a0 e03e f2e2 43bd
000000a0: fdb0 b53e 3fcf a73e bdb9 133f e479 c8bd
000000b0: c6cf 523e f238 3e3f 2f22 bc3e 1ada 083e
000000c0: 1a0f 6a3d cdd9 b13e b60d 853d a73f 4b3e
000000d0: af8b 91be 00ae b83e 26e4 b73d 1108 2a3d
000000e0: 62ff 1fbf 68f0 b43c 299c aabe 7bc0 e9bd
000000f0: 18bd 053f 2072 47bd 796e 043e 6866 ccbe
00000100: cc25 13be d081 e7bd 26f5 08bd 24d7 2a3e
00000110: 61bb 9cbd 2ba9 efbe c3b2 b7bd b193 923e
00000120: d630 adbe 7b88 8dbe e89c 223f b654 79be
00000130: 8f3a b1bd 18c6 c53d 2d76 c93d e529 863d
00000140: bad4 22bd b2bf 413e 400e b5be a6d4 f0bd
00000150: 2df8 cabe b998 5fbe 424c 4bbe bd92 38be
00000160: 96d5 54bd 8310 0b3e 637d 233e 687f 1ebe
00000170: e408 843e 78a2 353e e83d 5f3e fd6b 5bbe
00000180: fb9d 0e3e 185a ec3c 27a0 913c b700 443e
00000190: f632 b53e 7d23 f13e ea41 103e 64f9 53be
000001a0: 80c0 813e e300 c53b b35a 29be 3442 4ebd
000001b0: 89c3 5fbe e5db 1e3d c90f 01bc 9778 c5be
000001c0: e110 31be c057 023e d1be 783e cc21 603e
000001d0: 8e1b 74be 0b55 073d 2db6 a8be 61da 84bd
000001e0: 619a 873d f2b2 093e 0162 d33e 4c4e 8f3d
000001f0: b24e 2cbe d2f8 41bc 79d1 efbd ec19 71be
00000200: 35c6 a6bd 9425 73be 3acf 1cbd 2584 803e
00000210: 6095 23bf d5d1 24be a006 803e e87d 35be
00000220: 94bd 39be 33ae 883e 48cd ad3e 810b 1abe
00000230: 897b cb3d 4a15 583d e05d a6bd ac22 7dbe
00000240: 2537 a23c 2f5e b53d 9f1a 473e b575 803b
00000250: 9057 c93d e3a7 ab3e 21aa 633e 8577 c23e
00000260: 0107 02bc bf84 9dbe 25a0 b63e 1828 763e
00000270: ce49 e7bc 2255 043e 0785 713e f065 ee3d
00000280: 2953 b6be 6acb b13d a3f2 9cbd 4613 103d
00000290: 6d13 e33d 0383 433e 9ebf 2d3e af38 1abd
000002a0: 5675 abbc 3e4f 323e c481 81be 0032 b7be
000002b0: 56e8 d73a 0ce7 10bf eae6 a8bc f4a9 e73d
000002c0: ac68 183c 8edc b23d 3269 5dbe 976e e53e
000002d0: b496 93bd 26f7 893e 69c7 ba3d 5f0d 003e
000002e0: 2ad0 8fbc 05a4 813e 25d4 073e b9eb 963e
000002f0: 2838 f9be 6707 0dbd 1eb8 103c 75ed 9abc
00000300: 5461 803e a0ee d83e edf6 adbd 5703 e0be
00000310: faa9 f3bd f35f cf3d 7606 1dbe 3a26 d7bd
00000320: 7187 9a3e d5f8 bfbd 6ea3 bfbe 8c0d 583f
00000330: 532d fdbc 8888 a33e bfb4 68be 60f9 693e
00000340: b2a7 c7be 92ff a0bd db4f a4bd ac6a 583e
00000350: 2167 2abe 0dda e2be 81aa 553d 85ff 843e
0.24783452 0.17868626 -0.19438308 0.3307915 -0.086219594 -0.113162376 0.37784004 0.38194868
-0.13017936 0.66000646 -0.16691515 0.14369333 -0.25662285 -0.18134917 0.15733342 -0.2631796
-0.14987274 -0.18804555 -0.059172902 0.077359416 0.37599587 0.14144285 -0.6098694 -0.34826076
-0.15472347 0.1328982 -0.46209174 0.06747688 0.015247352 -0.11547707 0.5050294 0.38541773
-0.49577057 0.18344112 -0.123659424 -0.0034556352 -0.2901754 0.38801402 0.4387275 -0.047823854
0.35486594 0.32775304 0.5770529 -0.09788874 0.20587072 0.7430564 0.3674483 0.13364449
0.05714331 0.3473648 0.06496756 0.198485 -0.28426883 0.3607025 0.08979063 0.0415116
-0.6249906 0.02208729 -0.33322266 -0.11413666 0.5224166 -0.048692822 0.12932767 -0.3992188
-0.14369887 -0.11304057 -0.033436917 0.16683632 -0.07652927 -0.46808752 -0.08969643 0.28628305
-0.3382632 -0.2764319 0.6352067 -0.24348721 -0.08653747 0.09656924 0.09836993 0.065509595
-0.039753653 0.18920782 -0.35362434 -0.117593095 -0.39642468 -0.21835603 -0.19853309 -0.18024726
-0.051961504 0.13580517 0.159658 -0.15478289 0.25788033 0.17737758 0.21800959 -0.21427913
0.13927452 0.028851554 0.017776562 0.19140898 0.35390443 0.47097388 0.14087644 -0.20700604
0.25342178 0.0060120686 -0.16538505 -0.050356105 -0.21851934 0.038783927 -0.007877299 -0.38568565
-0.17291595 0.12728786 0.2429154 0.21887892 -0.23838636 0.033040088 -0.3295149 -0.06486965
0.06621242 0.13447168 0.4128571 0.06997356 -0.16826895 -0.011839109 -0.117098756 -0.23545045
-0.08143274 -0.23744804 -0.038283564 0.25100818 -0.63899803 -0.1609567 0.25005054 -0.1772381
-0.18138725 0.26695403 0.3394568 -0.15043451 0.09935672 0.052754678 -0.08123374 -0.24720258
0.019801686 0.08855855 0.19443749 0.003920282 0.09831154 0.33526525 0.22232868 0.3798181
-0.00793624 -0.3076534 0.35669056 0.24038732 -0.028233435 0.129231 0.23585902 0.11640537
-0.3561032 0.08681376 -0.07663467 0.03517463 0.110876895 0.19092946 0.16967627 -0.037651714
-0.020929974 0.17413041 -0.25294316 -0.35780334 0.001647244 -0.5660255 -0.02061792 0.11311713
0.0093022995 0.08733474 -0.2162216 0.44810936 -0.07206479 0.26946372 0.09120066 0.125051
-0.017555315 0.2532045 0.1326452 0.29476717 -0.48675656 -0.034430888 0.008832959 -0.018912056
0.25074255 0.42369556 -0.08494363 -0.43752548 -0.11897655 0.10125723 -0.15334496 -0.10505338
0.3018146 -0.09373633 -0.37429374 0.8439567 -0.030905401 0.31940103 -0.22725199 0.22849035
-0.3899513 -0.07861246 -0.08023044 0.21134442 -0.16640903 -0.44306985 0.05216456 0.25976196
