init/trained_models/gssa_model.pth (torch, 84923 bytes, 4 tensors)

attn_proj.weight f4 [191, 64]
00000000: 8310 00be 2419 703d f421 43bd 3e5c dbbd
00000010: 8409 153b 3e8d 003d b479 e0bd ec14 ffbd
00000020: 1e90 993d 5ee6 b03d 0459 903d 9aa1 cf3a
00000030: 6ab0 c4bc 6401 9ebd b678 963b 00db 07bd
00000040: c1f7 693d 22b2 febc 0e95 cf3d 449f 38bc
00000050: 12ea e03c 23bd 2fbd f0bf 183c 17a8 c63d
00000060: 920a 9a3c f61e 51bd c73e 36bc df3a 48bc
00000070: a551 9bbd 6925 e93a 5e35 aa3d d1a4 713d
00000080: 1f25 823d f8c1 60bd f37d c3bd a22f 983d
00000090: 3335 e6bc eba1 b9bd 3563 05be 6299 b43d
000000a0: b8e0 ef3b 6a7f 1bbd b045 b13d 4e06 7b3d
000000b0: d4f7 953c fde2 48bd ae3e e93d e8ea 0dbb
000000c0: 40ec 743d 2748 99bd 4507 c23d 5b8a 0c3d
000000d0: 6013 a6bd c783 3f3b d8d7 4abd 39f9 a8bd
000000e0: 906f 263a 7ba5 da3d f2bc e2bd 33bf 343d
000000f0: 927f 693b 6db3 d43d 3da4 163d 0da8 773d
00000100: 2aa4 d43d 44ad c1bd 2bc6 7b3d 2245 b23d
00000110: c533 b7bd 3f21 51bd f010 193d a179 ab3d
00000120: 357c aabc 7865 7e3d 4fe9 d3bc 347d ccbb
00000130: 5d39 9b3c 8572 f8bd 5a79 56bd 6792 43bc
00000140: 006e 5bbd 8b0f 29bd 66ec f7bb 179d bfbd
00000150: 543a 973d 86cf dfb9 8203 3b3d 0ebf 8a3c
00000160: 18e5 ed3a 9d1e bd3c 94f0 823d 5784 c93d
00000170: 3120 debd 74c2 80bc c4ff df3c 5048 acbc
00000180: e56f bfbd 111f 8d3d f8a6 d8bd c944 853b
00000190: 2eee a1bd 0e66 ecbd 3b7e a4bc 1947 db3d
000001a0: 727d edbd 61c1 e03c 7fb3 703d 0470 fabd
000001b0: c386 553d 68ac 3c3d cd56 84bb 5ef5 60bd
000001c0: 3e64 99bd 33b7 133d dd10 f8bd 4dcb e23c
000001d0: 0839 95bd 70c8 dfbd 7ce7 9abd 3d32 6bbd
000001e0: e021 53bc 3eae 233c 5bc5 f83c 798d 603c
000001f0: 0c91 533d 6b5f a33d d317 7ebd ae4a 8d3d
00000200: 9ab0 703c b7bc 2f3d 3206 cbbd 7521 483c
00000210: 96e5 883d d977 f5bd 3d1d 05be b5d6 823d
00000220: d76b dd3d 5a3c abbc 024a 80bc f2c0 b83d
00000230: ac29 35bd c8a0 99bc d926 c73d 83e7 d6bd
00000240: 7c7f b1bd a002 06bd 4a18 d4bd 0ca0 00be
00000250: 7357 83bd c2b2 64bd aae3 623d cd68 9dbc
00000260: 1e5c 7c3d 8fd4 f2bd b904 d13d 2312 05be
00000270: 85c6 d9bd 1ea7 8f3d 1030 74bd 7abd 9b3d
00000280: aa92 c4bd da47 d93d b122 e1bc 28ed 01be
00000290: deb9 acbd 2c33 c83d 2ff4 88bd bb11 b4bd
000002a0: fe50 393d 5623 613d 0b0c e4bd 10a3 853c
000002b0: 6cfe 1dbd 6396 29bc 5398 e73d 29df 843d
000002c0: 9438 1c3c 0539 f2bd d28d b4bd a107 6ebc
000002d0: 719b 4ebd 4cc2 dd3d 8f3a afbd 35fb cb3d
000002e0: 041d 24bb 38c9 3ebd 3c28 933d 026f 96bc
000002f0: 06bc edbd 0eb9 d83d 51f8 42bb 53da 20bd
00000300: f7e1 c43d 1da6 06be d9e6 c23d 8210 703d
00000310: 6ad9 77bc 6c9a e4bd 518a ef3c db70 c53d
00000320: fa35 fabd b0af 9b3d 7469 f6bd 45ce 343d
00000330: 2a40 063d 7f5a 1cbc 02f9 1abd 5b04 26bd
00000340: 2d70 923b ad81 2d3d 5053 4fbd 80c8 503d
00000350: b801 b5bd 69d3 dd3c eebd dfbd 7aa6 bcbc
00000360: 8f31 e3bc 9777 57bd 0ecb d0bd 389a a13d
00000370: 241b 2e3d 754d 88bc 7d65 c0bd e506 c13d
00000380: 9214 483d 3309 e23c 50ab 03be 79c1 1cbd
00000390: 6745 903d 04e1 773d 4ba0 293b 2f01 c3bd
000003a0: bafc 9fbd 3c8b cfbd 80b0 ec3c 2923 c33c
000003b0: 6003 6dbd 995c 8ebd c5e4 18bd 5d8c b73d
000003c0: 6b03 98bd 3adc 65bd 99ab 843d e623 b03d
000003d0: f0ef 8a3c 2a8f 1bbd 6e11 06be 96ea 62bb
000003e0: f419 dcbd 57e2 b4bd d360 0ebc e115 853c
000003f0: ef03 2fbd 8510 78bb 4a48 99bd 361b a1bb
-0.12506299 0.058617726 -0.047639802 -0.10710953 0.0022741267 0.0313847 -0.10960713 -0.124551624
0.07498191 0.08637689 0.070482284 0.0015841008 -0.024009902 -0.07715109 0.0045920266 -0.03316784
0.057121042 -0.0310908 0.10135852 -0.011268441 0.027455363 -0.042904984 0.009323105 0.09700029
0.018803868 -0.051054917 -0.011123366 -0.012221067 -0.07583932 0.0017787638 0.0831096 0.05899507
0.063547365 -0.054872483 -0.09545507 0.0743096 -0.02810154 -0.090640865 -0.13026126 0.08818318
0.0073204897 -0.03796331 0.0865587 0.06128531 0.01830665 -0.049044598 0.11388908 -0.0021654908
0.059795618 -0.07484465 0.09474043 0.034311634 -0.08109164 0.0029222833 -0.04952225 -0.082506604
0.00063490216 0.10676094 -0.11071195 0.044127654 0.0035629016 0.10385785 0.036777724 0.060463
0.10382874 -0.09456876 0.061468285 0.08704592 -0.08945421 -0.051057097 0.03736967 0.08372808
-0.02081118 0.062108487 -0.025868086 -0.0062405113 0.018948251 -0.12131218 -0.052361824 -0.0119367605
-0.0535717 -0.04127459 -0.0075660227 -0.093561344 0.07384172 -0.00042688492 0.045657642 0.016936805
0.001814994 0.023085887 0.06393543 0.09839695 -0.10845984 -0.015717722 0.027343638 -0.021030575
-0.09347514 0.06890691 -0.10578722 0.0040670377 -0.07906757 -0.11542903 -0.020079723 0.1070692
-0.115961924 0.02743596 0.05876493 -0.122283965 0.052130472 0.046062857 -0.004038668 -0.0549215
-0.07489823 0.036063384 -0.121125914 0.027684832 -0.072862685 -0.10926902 -0.075636834 -0.057420958
-0.012886494 0.009990273 0.030367544 0.013705605 0.051652 0.07977184 -0.06203444 0.0689901
0.014690543 0.042904582 -0.09913291 0.012215008 0.06684415 -0.1198575 -0.12999435 0.06388608
0.108115844 -0.020902801 -0.01566029 0.090211764 -0.044229195 -0.018753424 0.097242065 -0.10493376
-0.08666894 -0.032717347 -0.10356195 -0.12561053 -0.06413164 -0.05583454 0.0553929 -0.019215012
0.061611287 -0.118569486 0.10205979 -0.129952 -0.10633568 0.07014297 -0.05961615 0.07604499
-0.095982864 0.10609408 -0.027482362 -0.12688124 -0.08433889 0.09775385 -0.06687199 -0.08792444
0.045243256 0.05496534 -0.111351095 0.016313106 -0.038572714 -0.010350796 0.113083504 0.06487877
0.009534974 -0.11827282 -0.088161126 -0.014528186 -0.05044121 0.10828075 -0.08556091 0.09960023
-0.0025041709 -0.046578616 0.071854085 -0.01836348 -0.11608128 0.105821714 -0.002975006 -0.03927071
0.09613412 -0.13149305 0.09516687 0.058609493 -0.015127519 -0.11162266 0.02924076 0.09640666
-0.122173265 0.07601869 -0.12031832 0.044142026 0.032776035 -0.00954306 -0.03783513 -0.040531497
0.004468939 0.042359997 -0.050616562 0.05097246 -0.088382185 0.027078347 -0.10924898 -0.023028601
-0.027733592 -0.052604284 -0.101949796 0.07890743 0.042506352 -0.016638497 -0.09394357 0.09425143
0.048847742 0.027592277 -0.1285832 -0.038270447 0.070444874 0.060517326 0.0025882896 -0.0952171
-0.07811876 -0.10133979 0.028892756 0.023820477 -0.057864547 -0.06951255 -0.037327547 0.08962319
-0.07422527 -0.056118228 0.06478042 0.08600597 0.016960114 -0.03797833 -0.13092586 -0.0034624687
-0.10747138 -0.088322334 -0.008690077 0.016245784 -0.04272836 -0.0037851643 -0.07484491 -0.004916574

attn_proj.bias f4 [191]
00000000: 4dc7 c5bd d437 ec3a 4b23 1bbd 42fa 18bb
00000010: 4c12 c03d baf6 5ebd 61a2 82bd 4282 343d
00000020: 6a75 d03d 8ea2 bd3d c898 a03d 1fee ee3c
00000030: 31d9 bd3c 4e2d 4cbb 8cfc 703d 025c d13d
00000040: 2284 6bbd a822 1d3d af38 1cbd 1f68 f93b
00000050: 8e07 8fbd 7d68 e23d a1bf dbbc d6af 9d3c
00000060: b4cf 1d3d 32da ffbd 4a18 0dbd 9a92 873d
00000070: ccfb d23d aea9 81bc 092e 49bc 1943 0b3d
00000080: d658 d93d 5a5a 48bd b319 383d 20af b33d
00000090: d2b4 273d 2ef1 13bc 6ffe e4bb 27bf be3d
000000a0: b658 1e3c dd2c 043e 5809 7e3d e0ba 323d
000000b0: 1c1c f63d 56da 8ebd bdc0 373c 84cc 503d
000000c0: 745f 893d e2a2 bcbd dbe9 b63c 71c7 30bd
000000d0: 792a 35bc 5e83 ee3d 03e5 a0bc 7940 92bc
000000e0: a60d bb3d 1ed6 dabd 2910 9abc 0764 adbd
000000f0: 0474 74bd a2f6 e53d 95db 603c 5073 a83d
00000100: f0a4 03be 8cd6 533d c6b5 ec3d df08 e3bd
00000110: 4e70 a03d 764f 14bd d8e9 513d ea9b fc3c
00000120: 8a1b dfbd a4f0 b53d 715f 0abd f955 9c3d
00000130: 158e 48bd b116 c23d ce8a afbd acf6 9cbc
00000140: b1ef 8b3d 0c37 1b3c 1b3e 503d 654f cbbd
00000150: 3015 8f3d 5465 ef3d a2b2 f53c 48c6 cd3d
00000160: e0f2 e73d 4156 b9bd 9429 0bbd e75e c2bc
00000170: b5b5 673d 292c df3c e4d4 d0bd 80f0 8e3d
00000180: 48c3 55bd 8106 dc3d 6655 623d fff0 d63d
00000190: 9264 31bd 66c2 ec3d 4f1b 4a3d 6154 3c3d
000001a0: d4ed b73c 2974 2fbc 8190 833c 13d3 b3bd
000001b0: ad9f e8bd f04e a33d 7ffa 9c3d dbc7 86bd
000001c0: f27d f63d 6a70 7dbd 3d81 92bc cb41 efbd
000001d0: 57fc d43d 3d78 cebd db93 0c3b 0101 043e
000001e0: d7e4 eebc 5300 dabd f554 a33d 6022 7fbd
000001f0: df24 77bd 79c1 443d 9969 9e3d dbc9 013d
00000200: 5319 ea3d 8333 a8bd d079 713d 1793 8abc
00000210: 35fd c6bc 6554 f83d 758b 063c 89b5 693c
00000220: 6915 2d3d f7c9 b73d 0886 2a3d d9d5 7bbd
00000230: d2a9 db3d 70a0 b93d 98ba 8b3d 865d c4bd
00000240: f873 b53d 2ca2 853d e7b0 ca3d a373 623d
00000250: 4f82 a43d 520f aebd e73c 6c3d f729 5f3d
00000260: 7c13 043e 37c1 95bd 324d 5d3c 8c9c e03d
00000270: 1f5d 5f3d 6f69 5cbd da13 e4bd 9500 993d
00000280: d1ad 5bbd 2e26 c7bd 0d18 e5bc 128d 033e
00000290: fd07 a8bd 0681 aa3d b0b3 b93d 23a4 8dbd
000002a0: 61e4 d23d eef0 bcbd 0372 ae3d 391b bc3c
000002b0: 4883 dabc a630 c43d 9d05 2a3d 263a f03d
000002c0: 8084 68bd 2f8f 69bd c520 a0bc 438c ca3d
000002d0: cfcb 793d dbb2 b03d d31a 853d 8f72 dfbc
000002e0: ee91 ad3c 74da 133d 03d8 9e3c b571 c83c
000002f0: 8355 d63d c744 a43a 7248 1f3c
-0.09657154 0.0018022009 -0.037875455 -0.0023342525 0.0937849 -0.054434516 -0.063786276 0.044069536
0.10178645 0.092595205 0.07841641 0.02916628 0.023174854 -0.0031154933 0.058834597 0.10222627
-0.05749906 0.03836313 -0.038139995 0.007611289 -0.06983863 0.11055086 -0.026824774 0.019248884
0.03852816 -0.12492789 -0.034446992 0.06619759 0.10301933 -0.01582798 -0.012279042 0.033999536
0.10612647 -0.04891429 0.044946384 0.08773637 0.040943928 -0.00902967 -0.0069883387 0.09313803
0.009664705 0.12907739 0.06202063 0.04363525 0.1201708 -0.06975238 0.011215386 0.05097629
0.06707659 -0.09210755 0.022328308 -0.043158952 -0.01105749 0.1164615 -0.019640451 -0.017853009
0.091334626 -0.10685371 -0.018806534 -0.08466344 -0.059680954 0.11228682 0.013724227 0.08225119
-0.12855887 0.05171828 0.11558108 -0.110856764 0.078339204 -0.036208592 0.0512484 0.030836064
-0.108939245 0.08883789 -0.033782426 0.076335855 -0.048963625 0.09476984 -0.08571397 -0.019160591
0.06832827 0.009473573 0.05084048 -0.09927253 0.06986463 0.11689249 0.029992405 0.10047585
0.113256216 -0.09049655 -0.0339752 -0.023726894 0.056569774 0.027242737 -0.10196856 0.069794655
-0.052188188 0.10743428 0.055257224 0.10495185 -0.043308802 0.11560516 0.04934245 0.045978907
0.022452272 -0.010708847 0.016060116 -0.087804936 -0.11358581 0.079740405 0.07664966 -0.06581088
0.12035741 -0.061874785 -0.017883891 -0.11682471 0.103996925 -0.100815274 0.0021450433 0.12891008
-0.029161854 -0.10644593 0.07975189 -0.062288642 -0.060337897 0.048036072 0.07734985 0.031686645
0.114306115 -0.0821295 0.05895406 -0.016915841 -0.02429066 0.12125472 0.00821196 0.014264473
0.042256746 0.089740686 0.04163173 -0.061483238 0.1072575 0.09063804 0.06822699 -0.09588151
0.0886001 0.065250725 0.09897023 0.05528606 0.08032667 -0.08499016 0.05767527 0.05448338
0.12898058 -0.073122434 0.013507174 0.10967359 0.054532167 -0.053811487 -0.11136599 0.07470814
-0.05363256 -0.09724079 -0.02796557 0.12846783 -0.08204649 0.083253905 0.09067476 -0.06916072
0.10297466 -0.09225641 0.0851784 0.0229622 -0.026673928 0.095795915 0.04150926 0.11729841
-0.056766987 -0.057021316 -0.019546876 0.09890034 0.060985383 0.08627864 0.06499257 -0.027276305
0.021187749 0.036097005 0.019390112 0.024468282 0.10465529 0.0012532704 0.009721862

value_proj.weight f4 [64, 64]
00000000: 99af 5fbd d07b ccbc 3634 b73d 8f48 a83c
00000010: e718 253d 2918 44bd 2a24 b5bd 26be 36bc
00000020: a7ce a73d 0535 01be 24a1 803c a4ce 7cbd
00000030: db4d c9bd 245f c1bd 420f ebbd 02a2 f03d
00000040: d0e7 883d a4cf 26bd 62e9 1cbd 3fb5 663b
00000050: 6ab4 bdbd 58f7 563d 8ab9 dbbc 5060 e63d
00000060: b2db b4bd a272 9c3d 1ea1 18bd bf00 95bc
00000070: 53ea 5e3d 40fc 9dbd f5e6 5abd c815 0a3d
00000080: cb99 a9bd 3867 99bb 3735 a5bc 6ebd e4bc
00000090: fb36 b63d 5427 aabd d334 cfbd 4634 1dbc
000000a0: 100f 033e ee49 833d c710 a03c 9329 04be
000000b0: d66b 603d 4ec8 c53d 1c6f 4dbd 39ef 6cbd
000000c0: 1bb1 84bc 4c94 0abd b740 c7bd ef2d c9bd
000000d0: bc43 8cbc 2c6c a1bc 8028 b03d 980a 8bbd
000000e0: 2c71 b4bd 5a2b ca3d fa2f b03d b4ca afbd
000000f0: 221b dbbc 6562 f33d 84a8 c6bd dd13 df3d
00000100: a08d adbb 0689 7fbd 0cf5 5fbc 5352 40bc
00000110: 941f d33d 141c cc3d ab46 fcbd 725f de3d
00000120: 3736 edbd 0361 bd3d 386f d03c dfc3 c63d
00000130: 5ebc 25bd bcee 783a a7c4 9d3d d093 babd
00000140: fcab d13c 4403 4cbd df71 8c3d c437 b0bd
00000150: d177 4cbd 52b6 e03d 4ceb 7d3d 41fb dcbd
00000160: 7ec7 93bd 60be c53d b095 013d c5af 92bd
00000170: 4d45 943d 2e52 13bd 8377 95bd 0962 59bc
00000180: e66a e1bb 5559 5fbd c03a 213c 4763 9ebc
00000190: 32b0 5dbd c90d d43d 9631 b03a 8128 5ebd
000001a0: 1964 f33d 2239 5c3c 2ad7 813d a51a 87bd
000001b0: e819 f7bd 392d ffbd a53b 6e3d 18e7 eabd
000001c0: 2796 e0bc 4fc6 ac3a f250 9bbd 6887 a2bd
000001d0: 1cee 843d 57f6 233d 5074 36bd 03cb 8a3d
000001e0: aa60 c53c b0ce a03d 7b66 943d 9e56 1fbd
000001f0: b578 cf3d e9c3 16bc 7d3a 6fbd 71e9 acbd
00000200: 7b10 b93d bb4b b93b 9d75 193d 58be 42bd
00000210: 896a eabd c2c7 593d 74a8 dfbc 66f1 b2ba
00000220: f604 eeba 89dd 003d 0885 e3bd 0c75 84bd
00000230: ad1f 843c be91 ea3c ca82 edbd b21e 483b
00000240: fc1d 85bd 689a c2bd db8a 003e aacb 3cbc
00000250: 9706 4d3d d567 6abd ca88 7e3d ea88 873c
00000260: 431c c1bc 2fa0 133d 0956 75bd b579 97bd
00000270: 7827 9c3d 25e4 64bd 7af1 dbbd 0a78 b6bc
00000280: c27f c1bd a8e0 f0bc 35fd 70bd a196 813c
00000290: ee85 c9bd 31ab 563d 7ed8 51bd 56e6 bcbd
000002a0: 77c5 6fbd 0547 e43d 7d01 a23d d476 2f3c
000002b0: a4ce ad3d 427c efbd 8dff 22bd 7a9c 29bd
000002c0: 7754 5cbd 1940 f03c 1a7c 683d d2c8 3fbc
000002d0: f40e c33d caa5 013d c8a8 c13d 71a5 07be
000002e0: 845e d33d fb60 a7bd 9bd8 e83d 0a60 833d
000002f0: c149 f8ba e761 58bd fa65 d23d d464 84bd
00000300: 66a6 1dbd 9a06 9ebc 0d0f 0dbd 1119 eabd
00000310: 2b83 5abd f71c cc3d c0bf 8b3d 7730 84bd
00000320: 80f5 a0bd 1b38 9c3d 7872 19bd 273a 9dbd
00000330: 5986 1dbd a9a7 9dbd 57f6 e5bd 4e24 acbd
00000340: 71b7 3cbd c4d5 edbc 9b8f 513c 008b 833d
00000350: 87bb d13c 5fb6 1f3d a548 023e 970e 703d
00000360: f5e3 a0bd 839b 95bd 34dc 693d a9ed d5bd
00000370: 9cd7 82ba a467 b73d 4b3d adbd 9b05 0bbc
00000380: cd7c 99bc 5ce5 d43c 210f b03d 3e67 563d
00000390: 9935 acbd 3630 933c 60ce b23d e8b8 e8bc
000003a0: 18ba c03d 561d 1cbd 4085 02be b767 b3bd
000003b0: 1b9e ca3d 7617 903c 37ed 713c 261b adbb
000003c0: dede 02bd 19d9 e1bd f2d3 4a3d 39ec d33c
000003d0: 2971 da3d 0dd2 b7bd 950c eb3c a9d3 90bd
000003e0: bacf cabc 4948 2a3d a7bd 0cbc 32ac 48bc
000003f0: 2509 b5bd ade4 eb3b 4684 b73d 1d7b cdbc
-0.054610822 -0.024961382 0.08945505 0.020542411 0.04030695 -0.047874603 -0.08844788 -0.011153733
0.08193713 -0.12617882 0.015701838 -0.061720505 -0.09829303 -0.09441975 -0.114775196 0.117496505
0.0668484 -0.040725365 -0.03830851 0.0035203246 -0.09262927 0.05248198 -0.02682187 0.11248839
-0.08830966 0.07639052 -0.03726303 -0.018188832 0.054422688 -0.077141285 -0.053442914 0.03371218
-0.08281287 -0.004681494 -0.020166976 -0.027922358 0.088972054 -0.083082825 -0.10117497 -0.0095949825
0.12798715 0.06410585 0.01953925 -0.12906484 0.05479034 0.09657346 -0.05015479 -0.057845328
-0.016197732 -0.033832833 -0.0972914 -0.09823214 -0.017122142 -0.0197049 0.08601475 -0.0678913
-0.08810648 0.0987155 0.08602901 -0.085835844 -0.026746336 0.11884002 -0.097001106 0.108924605
-0.005296424 -0.062386535 -0.013669264 -0.011738378 0.103087574 0.09966293 -0.12318166 0.108580485
-0.11582606 0.09247019 0.025443658 0.09705328 -0.040462844 0.00094960234 0.07703524 -0.09110224
0.025594704 -0.0498078 0.06857657 -0.086043864 -0.049918953 0.10972275 0.061991975 -0.107901104
-0.072157845 0.09655452 0.031636894 -0.07162432 0.072397806 -0.035967045 -0.07298186 -0.013268002
-0.0068791984 -0.054528553 0.009840667 -0.019334449 -0.05412311 0.10354192 0.0013442512 -0.054237846
0.118843265 0.013441356 0.063398674 -0.06596879 -0.12065488 -0.124597974 0.05816235 -0.11469859
-0.027415348 0.0013181659 -0.075837985 -0.07935983 0.06490728 0.04002985 -0.044544518 0.06777003
0.024093945 0.078519225 0.07246109 -0.038900964 0.10130445 -0.009201982 -0.05840539 -0.08442963
0.090363465 0.0056547797 0.03746568 -0.047544807 -0.11446101 0.05316902 -0.027302004 -0.0013652265
-0.0018159437 0.031461272 -0.11109358 -0.064676374 0.016128385 0.028633948 -0.11597212 0.0030535874
-0.0649986 -0.09502107 0.12552969 -0.011523167 0.050055113 -0.05722793 0.06214217 0.016544778
-0.023573047 0.036041435 -0.059896503 -0.07396261 0.076247156 -0.055881638 -0.107394174 -0.022274036
-0.09448196 -0.029404 -0.058835227 0.015818896 -0.09839998 0.052409355 -0.051231854 -0.092236206
-0.058537927 0.111463584 0.0791044 0.010709483 0.08486679 -0.11693622 -0.039794493 -0.041408993
-0.05379149 0.02932744 0.056758977 -0.011705594 0.095243365 0.03165225 0.094560206 -0.13246705
0.10320762 -0.081727944 0.11369439 0.06414802 -0.0018942879 -0.052827742 0.10273357 -0.06464544
-0.038488768 -0.019290257 -0.03443818 -0.11430562 -0.053347748 0.09966462 0.06823683 -0.064545564
-0.078593254 0.07627889 -0.03746268 -0.07677107 -0.038458202 -0.07697994 -0.11228626 -0.08405362
-0.04607338 -0.029032595 0.012790586 0.064229965 0.025602115 0.038992282 0.12723024 0.058607664
-0.07855979 -0.07305052 0.057094768 -0.10445721 -0.000998247 0.08955315 -0.08458956 -0.008485223
-0.018736267 0.025988273 0.085966356 0.052344553 -0.084086604 0.017967325 0.08730769 -0.028408483
0.094104946 -0.038113914 -0.12746143 -0.087600164 0.098934375 0.017589312 0.014766029 -0.0052827774
-0.031950824 -0.11027736 0.049518533 0.025869476 0.10666115 -0.08975611 0.028692523 -0.07071621
-0.024757255 0.041572843 -0.0085901385 -0.012248086 -0.08839635 0.007198891 0.08960776 -0.025083119

fc.weight f4 [64, 64]
00000000: 3539 bdbd 4e3b ef3d 3649 d23c d4d6 0f3d
00000010: 85e9 53bd f5fb 0e3d deb0 adbc ce90 fa3b
00000020: a303 c5bd 830a 043e 1c08 753d 19e8 b63d
00000030: 6db0 ecbd c08f bbbd e200 be3d fd47 1bbc
00000040: 0405 9abd cf3e 2b3d 4b0f 9c3d 02f8 f43a
00000050: 17ac 2f3d 5959 a43d 9422 bf3d 67b9 e63d
00000060: 76e2 66bd 610e 263d ae29 c7bd e893 38bd
00000070: 5c2c ca3d 7cef 62bd 63ab 57ba 8758 e23d
00000080: b63d 48bd 8979 d9bd 01d6 613d ba9b e13a
00000090: 32a4 b43d 94ad 963d 8ada e33d b968 4fbd
000000a0: 9de3 31bd cc5e d5bd 063b 4cbd df80 103c
000000b0: 58c7 8e3d 005d e1bd b5b9 9fbd fabe 70bd
000000c0: fc69 f9bd 109c d53b 2a31 ea3c 9148 e93b
000000d0: 7202 8ebd ae86 78bd 1400 06bd 7157 efbb
000000e0: 1e3a c6bd 83d3 8cbc ce4b f13c 8f1f 5c3c
000000f0: b70c c03d 7ec8 a7bd ecfc 373d 8bbe cfbd
00000100: 3d22 e0bd 93c3 863d cf07 dd3d 7c32 c83c
00000110: 214f 873c b275 e2bd bc1c bf3d 0fdf 673d
00000120: 61f9 8d3c daa4 92bd 0c67 52bd f5f4 b1bb
00000130: 98eb 21bd 8d27 053d 6cba 953b fa27 863d
00000140: 8b3f 3cbd 271b 503d dcba cf3d 4dd8 5b3d
00000150: a43d 17bc a5bf e1bd 5102 f7bc a8b9 883c
00000160: 3d90 a1bb 04bd 92ba 9872 c2ba 7588 793d
00000170: a4d0 5a3c 6eec 50bd 6b1c 04bc affb dd3d
00000180: 2b3b e0bd d040 ea3d 4835 e43d 78be 71bd
00000190: f8e0 003d 9fdf d93d ea1e 863b 62e3 ebbc
000001a0: 3337 dabd 9a1e ca3d 6be6 f9bc bb20 04be
000001b0: f6df e8bd fbe5 b93d ecff 35bd 896f 123d
000001c0: eed6 febd a4c8 b5bd a061 d0bd 641d c3bd
000001d0: e58c 573d b6bd b5bd 291e 6abd 675c a2bd
000001e0: 1e20 6bbc c7e0 bd3d fd6f 5e3d 2724 643d
000001f0: 3ea0 dabb 9b28 e03c 3dd4 aebd 8f84 783c
00000200: efde ea3d 7175 6cbd 8697 b23c ab30 b03c
00000210: 66eb d3bd 703b 17bd 8aa2 85bd 8a71 6fbb
00000220: 99ad 9d3d 70c0 76bd 3a81 013e 72b1 93bc
00000230: 5735 843d 0429 cb3b 5e3a e03c d1e3 c53d
00000240: 3517 9e3d da6b 05bc a8ff 1c3c 2926 4dbd
00000250: 2150 a8bd 55bf 9cbd 9618 0f3d a9ca b63d
00000260: ee9a f03d 0f77 d3bd a4df ed3d 32db 943c
00000270: ddea 843d 111a e73d 2663 8abd 7e93 433d
00000280: 69e7 933d 4684 21bd 84bb 4c3c b91b 053e
00000290: 5645 733d b939 7f3c c931 853d df7f ed3c
000002a0: 8758 28bd af96 043d 62b6 d2bc 1e1d 3b3d
000002b0: 5e2f 193c fba4 d83d 279a 283d ed21 a83b
000002c0: 0762 813d 1d63 c03d e81c ebbc 4830 983d
000002d0: 116b 1c3d 9ec5 ea3b 1ab9 98bd be9e 713c
000002e0: c2f5 dfbd 7950 8a3d 8c84 febc 6ab2 efbd
000002f0: 1bff b8bc 578d b63d fc12 3d3d b655 0bbd
00000300: 551f cf3d 913c 063d 3d2a da3d 8a93 c2bd
00000310: ef57 913d a05c ac3d a147 22bd 81d1 c13d
00000320: 6100 363d 352c af3d 3586 6cbc 6fd1 de3c
00000330: b518 dfbd 1c57 e13d 4cce 903d 0184 d4bc
00000340: a291 ca3d 2346 c83d 272c 343d e7a2 493d
00000350: c5df 373c 354f 2dbc c7cb f8bd 7525 39ba
00000360: 6db3 a23d 4409 493d 70ed dbbd 0bdf a13d
00000370: 9641 d0bd 1a79 493d abfb 1abd 257e cf3d
00000380: 74e5 553d f3aa e2bd 34bc 673d fa20 ccbd
00000390: 1f75 6ebb 6f5b 34bd a7e0 873d f1a4 4c3c
000003a0: 8bf7 15bd 765d b33d a7ac c2bd 2c15 a73d
000003b0: d6d9 b2bc 7c7e 28bd 1a98 46bd ff2c b5bd
000003c0: 932e 92bd da28 5cbb 65d3 c9bd d252 15bc
000003d0: 3094 fc3c c7d7 dfbc 5070 a4bd e0b4 a2bd
000003e0: 875f a9bc 6181 ff3c 0dc2 ecbd a8bd 9b3b
000003f0: f04e de3d aa80 ea3c 7930 ca3d 8f32 debc
-0.09239427 0.11681233 0.025669675 0.035116985 -0.051736373 0.034908254 -0.0212025 0.0076466566
-0.09619834 0.12894635 0.059822187 0.08930988 -0.11557088 -0.091582775 0.09277512 -0.009477613
-0.07520488 0.041807946 0.076201044 0.0018689635 0.042888727 0.08024854 0.09332767 0.112658314
-0.056368314 0.040541057 -0.09724747 -0.04506293 0.09871742 -0.05540417 -0.0008227138 0.110520415
-0.048886977 -0.10618884 0.05513573 0.0017212548 0.0882038 0.07357326 0.111256674 -0.05063698
-0.04342996 -0.10418472 -0.049860977 0.008819788 0.069716156 -0.110040665 -0.07799093 -0.05877588
-0.12178418 0.0065188482 0.028587896 0.0071192463 -0.0693406 -0.060675316 -0.03271492 -0.007304125
-0.09679054 -0.0171907 0.029455092 0.0134352585 0.09377425 -0.08192538 0.04491894 -0.10143765
-0.109440304 0.065802716 0.10792505 0.024438135 0.016517224 -0.11057605 0.093316525 0.05660921
0.017330827 -0.07160349 -0.051367804 -0.0054308125 -0.03953132 0.03250842 0.0045693424 0.06550594
-0.045959037 0.050807144 0.101430625 0.053673077 -0.009231005 -0.110228814 -0.030152472 0.01669009
-0.0049305246 -0.0011195247 -0.0014835177 0.06092115 0.013355408 -0.051006727 -0.008063416 0.108390205
-0.109487854 0.11438143 0.11142975 -0.059019536 0.031464547 0.106383555 0.0040930407 -0.028794948
-0.1065506 0.09869118 -0.03050538 -0.1290311 -0.11370842 0.090770684 -0.04443352 0.0357509
-0.12443338 -0.0887616 -0.101748705 -0.0952709 0.052624602 -0.08874075 -0.05715767 -0.079277806
-0.014350919 0.092713885 0.05430602 0.05569854 -0.0066719344 0.027363112 -0.08536575 0.015168323
0.114683025 -0.05772919 0.021800768 0.021507582 -0.10347633 -0.03692192 -0.065251425 -0.003653618
0.07699127 -0.060242116 0.12646952 -0.018028948 0.06455486 0.006199958 0.027371582 0.09662593
0.0771927 -0.00814339 0.009582438 -0.05008522 -0.082184084 -0.07653681 0.034935556 0.08925373
0.117483005 -0.10325443 0.11614922 0.018170927 0.06490109 0.11284269 -0.06757192 0.04774808
0.07221872 -0.039432786 0.012495879 0.12998857 0.059392296 0.015577727 0.065036364 0.028991638
-0.04110005 0.032370266 -0.025721733 0.045682065 0.009349672 0.105783425 0.041162636 0.0051309974
0.06317525 0.09393904 -0.028700307 0.07431084 0.038188044 0.007164671 -0.0745718 0.01474732
-0.109355465 0.0675363 -0.031069063 -0.11703952 -0.022582581 0.08913677 0.046160683 -0.034017287
0.10113398 0.032772604 0.106525876 -0.09500797 0.0709685 0.08416104 -0.039619092 0.09463788
0.044433955 0.08553354 -0.014436294 0.027199475 -0.10893384 0.11002943 0.07070598 -0.02594185
0.098910585 0.097790025 0.04398742 0.04922762 0.011222784 -0.010577966 -0.121482424 -0.00070627715
0.07944379 0.049081102 -0.10738647 0.0790387 -0.101687595 0.049187757 -0.037837666 0.10131482
0.052220777 -0.11067762 0.05657597 -0.09967227 -0.0036385728 -0.04403251 0.06634646 0.012490497
-0.03661303 0.08758061 -0.09505587 0.08158335 -0.021832388 -0.04113625 -0.0484849 -0.08846473
-0.071377896 -0.0033593685 -0.098547734 -0.009113984 0.03083238 -0.02732457 -0.080292344 -0.079446554
-0.020675434 0.031189622 -0.1156045 0.0047528334 0.108549 0.028625805 0.09872527 -0.027123718
